MRTAWorld_DQN/Prueba3/Caso2/DQN_model_4Tasks_Caso2.pth (torch, 15156 bytes, 8 tensors)

fc1.weight f4 [28, 26]
00000000: 98da 60bf 2116 05bf 39ee 30be 3759 bb3e
00000010: d1fe 123f 81db 543d 73e1 d53d 932b 4b3d
00000020: 3d13 f53c daca 033d a0ee 413e fa85 29be
00000030: 6d17 41be 2bd9 7dbe 59c5 b8be 3aae 0cbf
00000040: 66ab fb3d f346 a3bd 2764 8c3d 674c efbd
00000050: 0b3d e13d dd67 5fbd eb04 56be 47fd 8e3d
00000060: 3ed5 b23d 4328 f5bd 1155 4e3e df32 433f
00000070: 0e58 303e 055b b53e f662 243f 05d5 8abe
00000080: a92c f9bd 25f6 78be 33a7 6a3e 1d9b 7e3d
00000090: a041 62bc 9f05 993e 86e4 67be d6db f8be
000000a0: f697 24bf d3c6 25bf af63 5e3c fa81 1dbe
000000b0: 3bb6 c93c d26a 53bd 6e94 f3bd 7ae0 f6bc
000000c0: 8fca 293f 6a9b 103d 150a 6dbe 9772 833d
000000d0: 2fd2 5dbd 1057 5b3e 9202 0c3e 0636 68be
000000e0: 1540 2cbe 0ae6 0ebe 6a72 853f 7a8b e53d
000000f0: 3269 fdbd 11bc a2be 0916 6bbe 538f 7ebe
00000100: c2d9 acbe 975d 82bc b79a 1e3e d1ef c7bd
00000110: 8028 863d dbe8 66be 9af0 ca3e 7a25 efbe
00000120: 7b7f 2ebd 0c05 083d 45f9 ea3d 8973 783e
00000130: 5ea5 473f 1928 92be d345 9dbe 2211 273d
00000140: 41e1 43be 1ab1 9fbe ef03 983e ceea 313e
00000150: f0a2 80bd a0e0 953e eefe 7bbe d68b 953d
00000160: d949 04be 6f8b c83d 4908 aebe b018 33be
00000170: 56a8 f73d e760 6bbd 9f6c 37bd f6f6 d73d
00000180: 88e8 b6bd 6bee 6abd f846 863e 2359 87be
00000190: 1848 a83d d319 a9be 9502 78be 3f24 0a3e
000001a0: cd7b 033e b0cd b5ba ada6 f0bd 791c cabc
000001b0: 4a68 d53d 0c83 a63d 0673 8bbc 177b f9bd
000001c0: 73cf 6abf 2a81 513f 798a 093f 65a2 fe3e
000001d0: 19b0 31bd 97b8 3abd 3aef 27be 07e9 3ebe
000001e0: 2213 69bc 398f 3d3d 3311 c93c bbb9 a63c
000001f0: 79c3 573b c756 3cbd 3dae 01bf d6c8 8e3e
00000200: 61a7 023e 35be 31bd 7309 f1bd 4d79 03bd
00000210: 521a 033a 88da 653c a990 fcbd 4f6f 58be
00000220: fa7f 803e cc1d df3d b1ad 57be e482 ccbd
00000230: 9404 63be ae4e b1be 3f00 bf3e 1020 e23e
00000240: 4842 41be fb4d 1cbe 9ed2 2bbb 2553 2cbd
00000250: e47f 8fbc 629c be3c 6084 843e a2bd 14be
00000260: 9971 d83d cf6e 75bd acb7 49be 8720 23bd
00000270: 15f3 88be 55d2 1abd 4d9e 283e 3e6f 793e
00000280: 37c8 2f3e dcce 96bd 4d05 9e3d 6dd8 57be
00000290: 2d56 0cbe fce2 99bc 9fb2 f1bd b9d3 20be
000002a0: dfef 31bd 59d8 2bbe 0926 7e3d 3244 173d
000002b0: a205 ffbd 4e83 15ba 37c1 b23d acfa 023e
000002c0: 93eb c0bd d8d3 793e f98f bd3d bbfb 80be
000002d0: 5f33 85be 15cd e3bb cc91 80be 47d1 eebb
000002e0: 385e fc3d 9e83 bd3d e443 5ebe 2895 ac3c
000002f0: 0192 9b3d db41 503d 4863 93bf bdfd a9be
00000300: c385 ee3b 364c b3bc be33 973e 92f9 503e
00000310: cb6f 073f 6e58 1c3f ea32 fdbd 6f5e 023d
00000320: bd6e 80bc d3c4 c93a 25f1 053e 9c8e 053e
00000330: cb28 14be 2e41 143e 21d5 823e 0b7b 733e
00000340: 8be3 95bc 93bc 733c 5a6f 8cbd 1b94 1e3f
00000350: ffa4 92bc dd6b 58bd 42ac 463d 2d29 e43d
00000360: c0fa 0c3d 60e1 1ebe c3d4 0ebe 92e2 14bf
00000370: f113 66be 1b39 5bbe 91fb 07be 3680 cb3d
00000380: 36a9 ccbc c08a 85bd 55d8 fcbd 19ba 0e3e
00000390: d638 643d 0e3a bb3c 8edd 7c3d 7646 b53d
000003a0: 17ac 97be 5551 fc3e c440 fdbb 53cb 593d
000003b0: 3737 fabd 7a6e d83c 7310 6e3d cdbd ae3d
000003c0: baf7 6cbc 37d3 793d d201 703f 0cf4 84bf
000003d0: 8dea 543f 0103 383f ae27 ddbd 4a43 14bf
000003e0: 2b97 0e3e 0c04 f83d e11d 263d 8186 3bbc
000003f0: 8ad6 cbbc 5333 95ba 1078 f63d 16e3 153e
-0.8783355 -0.5198689 -0.17278375 0.36591503 0.5742007 0.051967148 0.10443392 0.049602102
0.0299164 0.032175876 0.18938684 -0.16555014 -0.18856592 -0.24789874 -0.36088064 -0.5495335
0.12288551 -0.07972517 0.0685504 -0.116844945 0.10997971 -0.05454241 -0.20900314 0.069819026
0.08732079 -0.1197057 0.20149638 0.762495 0.1722109 0.35421005 0.642135 -0.27115646
-0.121667214 -0.24312647 0.22915344 0.062159646 -0.0138095915 0.298871 -0.22645769 -0.48605222
-0.64294374 -0.64756507 0.013573571 -0.15381613 0.024623027 -0.051615544 -0.11893545 -0.030136336
0.66324705 0.035304464 -0.23148377 0.06418341 -0.054155525 0.2141993 0.13672855 -0.22676858
-0.1682132 -0.1395494 1.0425541 0.11208244 -0.1237358 -0.31784108 -0.22957624 -0.24859361
-0.33759886 -0.015913768 0.15488707 -0.09762538 0.065506935 -0.22549765 0.3963669 -0.4670828
-0.042602044 0.033207938 0.11473326 0.24262823 0.77986705 -0.28546217 -0.30717334 0.040787823
-0.19128896 -0.31189805 0.296905 0.17374727 -0.06281078 0.29272938 -0.24608967 0.07302062
-0.12918796 0.0979222 -0.33990696 -0.17489886 0.120926544 -0.05746546 -0.044781324 0.10545151
-0.089310706 -0.05735628 0.2622602 -0.26435193 0.08216876 -0.33027515 -0.24219735 0.1349039
0.12840195 -0.0013870504 -0.11750541 -0.02467178 0.10420282 0.08130464 -0.01702262 -0.12181681
-0.9172279 0.81837714 0.5372692 0.49733272 -0.04338083 -0.045586195 -0.16399851 -0.1864358
-0.014225753 0.046279166 0.024544334 0.020352235 0.0032922907 -0.045981195 -0.5065649 0.278876
0.12759162 -0.043394286 -0.117693804 -0.032098103 0.00050011755 0.014029153 -0.12332279 -0.21136211
0.25097638 0.10894355 -0.21062352 -0.09985903 -0.22169715 -0.3463034 0.37304875 0.44165087
-0.1887294 -0.15264122 -0.0026218067 -0.04207148 -0.017517038 0.023267929 0.25882244 -0.14525464
0.10568542 -0.05992013 -0.19698972 -0.039825942 -0.26747957 -0.037798245 0.16466637 0.24358842
0.1716622 -0.07363674 0.07715855 -0.21078654 -0.13704748 -0.018784992 -0.118016474 -0.15705766
-0.04344165 -0.16781749 0.062047992 0.03693027 -0.12452246 -0.0005703465 0.08728259 0.12790936
-0.09419932 0.24397218 0.09255976 -0.25192055 -0.26015756 -0.006951938 -0.25111234 -0.0072881314
0.12322658 0.092536196 -0.21705586 0.021067217 0.075962074 0.050844055 -1.1514673 -0.332014
0.0072791292 -0.021886926 0.29531664 0.20407704 0.5290496 0.61072433 -0.12363227 0.03182834
-0.015677804 0.0015393741 0.1308027 0.13042682 -0.14468686 0.14477989 0.2555323 0.23777406
-0.018296978 0.014876503 -0.06857176 0.6194474 -0.017900942 -0.05283724 0.04850412 0.11140666
0.03441882 -0.15515661 -0.1394835 -0.5815822 -0.22468545 -0.21408503 -0.13279559 0.09936564
-0.02498303 -0.06520605 -0.123459496 0.13938178 0.055718265 0.022854831 0.06173473 0.0885133
-0.29623482 0.492808 -0.007728668 0.05317242 -0.12217563 0.026419867 0.058121156 0.085322954
-0.0144633595 0.060992446 0.9375278 -1.0386977 0.83170396 0.71879584 -0.10798584 -0.57915175
0.13924854 0.12110147 0.04055584 -0.011445642 -0.024882574 -0.0011383094 0.12034619 0.14637408

fc1.bias f4 [28]
00000000: 34ce 813f b5cf 243f 358b 12bf c3f0 733f
00000010: 7c15 26be b013 493f 1cad 823f 8409 1a3f
00000020: acfe 37bf ad68 753e 0c88 393f 9257 863f
00000030: 9a28 80bf 0224 773f 3f95 7f3f 68c0 e63e
00000040: df28 85be 3bf8 013f 079b 2a3f 2fda 6b3f
00000050: b576 563f faa4 453f 0e8c 963e 5795 493f
00000060: 19f4 8c3f f6c3 653f f9c8 763f 189c 7e3f
1.0141053 0.64379436 -0.57243663 0.9528925 -0.16219133 0.78545666 1.0209079 0.6017077
-0.71872973 0.23965712 0.72473216 1.0495474 -1.0012391 0.9653932 0.99837106 0.4506867
-0.26007745 0.50769395 0.666428 0.92129797 0.8377488 0.7720486 0.29403728 0.787435
1.1011993 0.8975214 0.9640041 0.9945693

fc2.weight f4 [28, 28]
00000000: 3229 60be 5c36 fabe 613b 85be 9285 1c3e
00000010: 778f 34bd 81f3 23bd 8e50 03bd 031d ed3f
00000020: 3cb3 883d 8e43 22bf 61e3 b93e 2e22 473e
00000030: d945 40bf d690 0b3e e71e e83f 485c e2bc
00000040: 73b8 9bbe a7a9 933f d3b5 31be 45d2 6e3e
00000050: a77a 0c3f a010 a8bc 3d52 0abf 420f 88be
00000060: 4f22 863f dd98 f93e ce81 59be 6670 26be
00000070: dabb 8a3e a10e b73e 5c7f a73e 18aa 3d3d
00000080: e113 1e3e 1c6b 8d3e 2866 143f f314 c7bc
00000090: 1ef0 a7be 5591 d0be 35ac 483f 97a0 013f
000000a0: f71b eebe 85ed 9bbd bfd0 7e3f c4f3 8fbe
000000b0: 0b4a 31be 2882 b83e c4e3 acbe 0208 7ebd
000000c0: e838 b33e 31f0 9c3e e47f e73e ce72 c63e
000000d0: c4bf 1f3f c552 4f3f ab9c 023e 0394 85bc
000000e0: 5e5b 61be 4848 02bd fd05 3c3e ce9d 0abf
000000f0: 5be0 15bf f19d 39bf 2dc5 34bf 4712 04bf
00000100: 1b05 813f 6989 8d3e a29b 0fbf 518c 04bf
00000110: b5fa 153f 6031 c1be 0982 c3be 4488 e63e
00000120: 6195 ba3e a02f 07bf 9d57 35be 944c 4dbe
00000130: 143f 4abe 304e 3fbe 12fc a3bd a506 b9bd
00000140: 2e04 2fbf c014 0ebf 5eb5 073d 526d d3be
00000150: ccf9 693e 82a6 b2be 3c0e f73e 847c ad3b
00000160: ccb2 0cbf 90d4 72be 0723 a93d 5682 acbd
00000170: 30b8 fc3e 975f 9abf 12d9 eebe 2749 a13d
00000180: 9ae3 fbbe 0d95 a7be 7f74 c53f e5d8 aebf
00000190: 92f2 0dc0 48fc 02bf da75 783e 845e dd3e
000001a0: 2406 7fbe 5d42 c53e b48b e8bf 42ac e7be
000001b0: eb56 793d 75ac edbe e814 083f ae2e ba3e
000001c0: 9cdb 273f 4e1c 11bf fb0c 1fbf e9d2 193f
000001d0: c1ab 923f 1853 623e 9a47 2d3f 21a4 dabf
000001e0: ff3e 00bf 440e 683f e94c a6bf a5b0 d43d
000001f0: 424c 56be 165e 4cbf 2fbb fabf b2f9 68be
00000200: 9add 5f3e 7b71 e9bf ba7c 0e3e c68c cf3e
00000210: c49f 5a3b 8d85 b73e 5174 3a3f ff57 3e3f
00000220: 10ac 133f 02b0 0dbf beb4 3ebe a469 433f
00000230: eb6e d2be cb03 2dbe a1e2 cbbf 1021 b63d
00000240: 88db 233f 4ba8 b5be 0436 01bf 6546 aa3d
00000250: c286 c7be d539 6c3f f069 043c 901b c63d
00000260: ef85 1dbf 6e6c 9e3e 78ad 29bf 928e be3f
00000270: 416b 363f 3c08 5abf 21bd 653e 2b11 563e
00000280: 3aa0 a73d 3f0e bbbe ca0f 4b3f 9b95 0abe
00000290: 60b3 b9be e1fc 88bf 4ac0 873f 099c 293e
000002a0: c164 c8be d625 ecbe 56e8 023e 79c4 c03e
000002b0: 9eb8 69be e5ad 6f3e e8c6 853d 4954 cd3d
000002c0: cb10 76bf 7af5 b6bc c971 173f 46cd 2e3f
000002d0: 3e57 833f 8d1a 87bd 4c22 133f ea1d 52bf
000002e0: 264a 82bf 3075 c63e 4d47 523e 92d7 fd3e
000002f0: 789b ea3e 1195 483f 372c 2ebf cc1b b73e
00000300: 2229 353f c0cd a63e 8a44 23be 75d4 ac3e
00000310: 4398 08bf 8616 363e 9106 aabe 29e2 e93e
00000320: 3a5a b3bd 8384 bf3c fc10 cabb 6468 09be
00000330: aab2 13c0 f8dc 0dbf bf6c ea3e b885 a53e
00000340: 4275 853f 0ad2 75be c070 833f f88e c6bd
00000350: cd09 4cbf 4338 ef3d 528b 4d3f 504d 8bbc
00000360: e375 1ebe 6157 0d3f f3f9 acbe 0199 9d3d
00000370: b2ba df3e cd30 5c3e 628c a83e 3239 c7bc
00000380: 11ed 0dbf 0467 2ebe 1ed1 a13e 4b25 10bf
00000390: a76d e9be 5bd9 5ebe 8f46 e4be 1cf2 1a3e
000003a0: ad31 bd3e dcb6 383f f7e9 1cbe f08c 96bc
000003b0: 68a0 723e 22bb f1bd 1fbc bdbe b959 c33f
000003c0: 73da d93e efbc 97be 76e7 eebe 660b ecbe
000003d0: ae19 af3d c431 b0be c427 813f 8dd1 64be
000003e0: fb7a 02be d04f 603b b4e9 7e3e 9082 a7be
000003f0: 050b 35be d4a8 8abc 3b29 d1be ac85 65be
-0.21890715 -0.48869598 -0.26021865 0.15285328 -0.04408213 -0.040027145 -0.032059245 1.8524479
0.06674811 -0.6338433 0.3630629 0.19446632 -0.7510658 0.1362947 1.8134431 -0.027631894
-0.3041416 1.1536149 -0.17354517 0.23322399 0.5487465 -0.02051574 -0.54031736 -0.2657414
1.047922 0.48749438 -0.21240923 -0.16253814 0.27096444 0.35753348 0.32714355 0.046304792
0.1543727 0.2762078 0.5796838 -0.024301982 -0.32800382 -0.4073588 0.7838777 0.50635666
-0.4650571 -0.07613663 0.9953727 -0.28115666 -0.17313401 0.360368 -0.3376752 -0.062019356
0.35004354 0.30652002 0.4521476 0.38759464 0.62401986 0.8098567 0.12755077 -0.016305929
-0.2200751 -0.031807214 0.1836166 -0.5414704 -0.58545464 -0.72506624 -0.70613366 -0.5159039
1.0079683 0.27643898 -0.5609685 -0.51776606 0.58585674 -0.37732983 -0.38185146 0.45025837
0.36442092 -0.52807045 -0.17709203 -0.20048743 -0.19750625 -0.1868217 -0.08007063 -0.090344705
-0.6836575 -0.5550041 0.03313195 -0.41294342 0.22849196 -0.3489266 0.48253047 0.0052943844
-0.5496032 -0.23713899 0.08258634 -0.08423297 0.49359274 -1.2060422 -0.46649987 0.07875281
-0.49197084 -0.32730904 1.5426177 -1.3659941 -2.2179303 -0.511662 0.24263707 0.43236172
-0.24904686 0.38527194 -1.8167634 -0.4524861 0.060873907 -0.46420637 0.531569 0.3636374
0.6556947 -0.56683815 -0.6212918 0.6008745 1.1458665 0.2210201 0.6768738 -1.7081338
-0.50096124 0.9064677 -1.2992221 0.10385255 -0.20927528 -0.79831064 -1.9588374 -0.22751501
0.21861878 -1.8237756 0.13914767 0.4053709 0.0033359388 0.3584408 0.72833735 0.7435302
0.5768442 -0.5534669 -0.18623635 0.7633307 -0.4110025 -0.16895978 -1.5928537 0.08893025
0.64006853 -0.3547996 -0.50473046 0.08314208 -0.3897 0.92275745 0.008081898 0.09673226
-0.6153249 0.309421 -0.6628032 1.4887259 0.71257406 -0.85168815 0.22435428 0.20904987
0.08184858 -0.36534306 0.7932097 -0.13533632 -0.36269665 -1.0702173 1.0605557 0.16563429
-0.3913937 -0.46122617 0.12783942 0.37649897 -0.22824332 0.23406179 0.06532079 0.10025842
-0.96119374 -0.02233385 0.59158 0.6828197 1.0260999 -0.06596861 0.5747421 -0.82076895
-1.0178878 0.38761282 0.20535012 0.4957853 0.45821738 0.7835246 -0.68036216 0.35763395
0.7076589 0.3257885 -0.15944114 0.33755842 -0.5335733 0.1778203 -0.33208135 0.4568036
-0.08757444 0.023378616 -0.0061665755 -0.13418728 -2.3077798 -0.55415297 0.45786092 0.32328582
1.0426409 -0.24005905 1.0268784 -0.09695238 -0.79702455 0.11680653 0.8029071 -0.017004639
-0.15474658 0.55211455 -0.33784446 0.07695199 0.43697125 0.21502991 0.32919604 -0.024319265
-0.5543986 -0.17031485 0.31604856 -0.56306905 -0.4559147 -0.21762602 -0.44585082 0.1513142
0.36951962 0.7215402 -0.15323626 -0.018377751 0.23694003 -0.11803271 -0.37057588 1.5261756
0.42549476 -0.29636332 -0.46660966 -0.46102446 0.0854982 -0.34412968 1.009026 -0.22345562
-0.12742226 0.003422726 0.24893838 -0.327168 -0.17679985 -0.016926207 -0.4085177 -0.22414273

fc2.bias f4 [28]
00000000: 9a8e eb3e b69c 303f c195 53bf c3cd f63e
00000010: 8200 983d c5a5 c6be abe6 463f 4f48 3f3f
00000020: e22f 6cbf 095d 883f 7173 7fbf 64a8 683f
00000030: 501a 88bf d409 623f 318d 72bf 2ac3 8e3f
00000040: 30d7 1f3f 0267 5bbf 3efc c33e 557e 4e3f
00000050: 4e79 c83e cd46 953f 1221 7d3f 1e42 453e
00000060: 3f85 603f 6d6b 92bf 6833 7b3f 6282 393e
0.46007234 0.6898912 -0.8265038 0.4820386 0.07421972 -0.38798347 0.7769572 0.7471971
-0.92260563 1.0653392 -0.99785525 0.90881944 -1.063303 0.88296247 -0.9474669 1.1153309
0.62437725 -0.8570405 0.38278383 0.8066152 0.39155048 1.1662232 0.98878586 0.19263503
0.8770332 -1.1439034 0.98125315 0.18116143

fc3.weight f4 [28, 28]
00000000: 0b4f c33e 9188 db3e bdea 203e 974a 8a3e
00000010: f623 e4bf 389a 8d3c 4ffd 84be 99cd c93e
00000020: ce67 08be 242c 873e 3e2d 0abf 4695 71bd
00000030: be63 813e ac60 c03e 28e5 e8be e790 5abd
00000040: d9d7 2340 864a fabd 474e a33e 7b35 0b3f
00000050: 4786 66bf 1f29 333f 59c2 c13e d246 4cc0
00000060: 28fc c43e f1f6 bc3e 3593 563f d89f 68bf
00000070: 192b 1f3f 3585 13bf aabb 1c3f bc08 7dbe
00000080: e749 82bf 8ccc 44be df74 6fbe bea5 173c
00000090: c030 cc3e 5cd9 b6be 76f8 713e 27a4 19bf
000000a0: b117 1c3f dedb 22bf cfcf 953e 43e6 1dbf
000000b0: 81fa 94bf e4b5 0e3f c8c9 ae3e 7b98 c73e
000000c0: 0d38 dfbd a372 07bf 6d90 22bf 449d 5ebf
000000d0: e5d5 14be 639f c63f 22e3 3f3d 2089 01c0
000000e0: 3da6 babe 7162 1ebf 0161 713d 5875 14bf
000000f0: 5588 023f 81dc 8a3e 98b3 f2bd d013 d5be
00000100: f94e 083e eb3c 98bf 8a71 66be 42c4 2e3e
00000110: e58f ff3d e8ef 09bf b4ca 073f 187b e4be
00000120: 1656 e3bf ce84 39be 61ad 933e c89e 2f3f
00000130: d29a eebe fe26 dbbe bdad 7fbd 9d4b 9e3f
00000140: 5606 60bf 9232 56bf ebef abbe a087 cf3f
00000150: 791a e53e 629b 993a 8725 563d 2a28 e33d
00000160: 5002 4bbe 6e49 f93e d7af 9d3e fb30 1fbf
00000170: 417d 943d 6cba 473d c15d 60be a4e1 863e
00000180: c0c5 d8be 235c 9b3e 5473 35be 8eff 083f
00000190: 39d2 b33f 14ed 01bf 05cf 293f 7f99 f73e
000001a0: 65fe 88bf 0059 493e 6dc2 0f3c da9d a23e
000001b0: dd57 94be b241 cf3d b90a f63d ea84 0e40
000001c0: 6870 12bf f8ce a33e 20e2 15bf 4663 7abd
000001d0: 594f 933f acff c23e 094a 573f 1283 7abe
000001e0: bc10 e3be ca82 0b3f f880 dbbe b8b7 303f
000001f0: fb5d 14bf b2c7 ea3e c7a0 0dbe 8789 4b3f
00000200: 4cd3 de3e 6319 12bf e5b2 ce3d 4dda 81be
00000210: 1dc4 17bf 901b 8a3e 27e6 4e3f 10b0 d53f
00000220: 679c 86b9 b6ff dcbf 4ada f8bd 1ef3 3b40
00000230: 5df7 a33e 1f0a 21bf 7bc1 023f 149d 2d3e
00000240: aaa6 37bf 7723 ce3e 00b9 f7be 967d 0c3e
00000250: 3912 c63e 82a2 3abe 9edf e93e 62cd 09bf
00000260: 9da6 0d3f 3ed6 0cbf 2be3 7c3d f28c 09bf
00000270: 9ce1 17bf 7f49 133f 8ec3 a53e 3f1b 95be
00000280: 76db 973e 46b9 51be 821e 13bf e3ca 91bf
00000290: 57ec 0ebf d170 513f bf52 c6bd ab93 3cc0
000002a0: 0a2b 103d 4114 313e 03ff cbbe 3150 acbe
000002b0: 640c 343f f718 213f 27be ee3e f9d0 923e
000002c0: 3926 21bf d7bd 4a3f 32b2 70be 4b74 863e
000002d0: 56d7 04bf c41b b03e 43bc 0cbf 2923 393f
000002e0: 4530 6e3f 1371 13bf 104d 6d3e 9293 d1bd
000002f0: 7fc3 67be 0335 123e 5fa4 cc3e e5b4 8a3e
00000300: 7381 c93e ba9e 23bf 3506 d53e 8073 2a40
00000310: 1400 a3be af3b 163d 245c 77be d754 4f3f
00000320: 7422 3bbd 965e da3e 35cc 553d 341a 243e
00000330: cb85 2ebf fcc7 503e 481c 42bf b81e 6b3e
00000340: 3671 25bf 9d65 9e3e ee24 c6be 7bc7 ab3e
00000350: 5a78 2c40 3853 d2be af12 483f 3205 ddbe
00000360: 64ce d1be 58dc 073f 40c3 733e 3ce0 80bf
00000370: 8c99 ad3e bf74 babe ac21 3a3f 1bd6 2abf
00000380: 11ca b1be 11de 363f 0c8c 88be d015 e83d
00000390: c9af b1bd fa05 7abf b3db 55bf 50e3 96bf
000003a0: 8543 23be 9e20 29be 15f7 17bf 56d6 8d3d
000003b0: 78d2 023e c6f3 91bc cd32 5fbe f636 8c3e
000003c0: c860 1540 36cc 99be 9bd2 0f3c f31e 5c3f
000003d0: 53fa c3be 7cb3 303f 2404 1a3f 9054 2c3e
000003e0: 4d4d 8c3e e171 60bd a915 433c 7f3f 783f
000003f0: 4c31 51bf a418 84be 0d6f 063d 41eb 2e3f
0.38146242 0.4287763 0.15714546 0.27010033 -1.7823474 0.017285451 -0.2597451 0.3941467
-0.13320848 0.26400864 -0.53975284 -0.05898025 0.2527141 0.37573755 -0.45487332 -0.053360846
2.5600493 -0.122212455 0.31895658 0.5437848 -0.9004864 0.6998462 0.37843588 -3.1918225
0.3847363 0.3690715 0.8381837 -0.908689 0.62175137 -0.5762513 0.6122385 -0.24710363
-1.0178803 -0.19218653 -0.23384427 0.009255825 0.39880943 -0.35712707 0.23629937 -0.600161
0.6097365 -0.6361674 0.29260108 -0.61679476 -1.1638948 0.55746293 0.34138322 0.3898352
-0.10899363 -0.52909297 -0.63501626 -0.8695872 -0.1453472 1.5517391 0.04684747 -2.0239944
-0.36454955 -0.6186896 0.0589304 -0.5799155 0.50989276 0.27121356 -0.11850661 -0.41616678
0.13311376 -1.1893591 -0.22504249 0.17067054 0.124786176 -0.5388169 0.53043675 -0.44625163
-1.7760646 -0.18117067 0.28843215 0.68601656 -0.46602494 -0.42803186 -0.06242155 1.2366825
-0.8750967 -0.83670914 -0.3358148 1.6213264 0.4474676 0.0011719281 0.052281883 0.11091645
-0.19825101 0.48688835 0.30798218 -0.62184113 0.07250453 0.04876177 -0.21910764 0.26344025
-0.4233837 0.30343732 -0.17719775 0.53514946 1.404853 -0.5075238 0.6633151 0.48359296
-1.0702635 0.19662857 0.008774382 0.31761056 -0.28973284 0.10119952 0.12013764 2.2268624
-0.5720277 0.31993842 -0.58548164 -0.06112983 1.150859 0.38085687 0.84097344 -0.24464062
-0.44348705 0.54496443 -0.42871833 0.6903033 -0.579559 0.4585548 -0.13830863 0.79506725
0.43520582 -0.5706999 0.10092715 -0.25361863 -0.5928362 0.26974154 0.80819935 1.6694355
-0.00025675 -1.7265537 -0.1215101 2.9367137 0.3202466 -0.6290607 0.5107648 0.16954452
-0.71738684 0.40261433 -0.4838333 0.13719782 0.38685778 -0.18226054 0.4567842 -0.53829014
0.55332357 -0.5501441 0.06174008 -0.5373069 -0.5932863 0.5753402 0.3237576 -0.2912235
0.29659623 -0.20480832 -0.57468426 -1.1390041 -0.55829376 0.8181277 -0.09683751 -2.946513
0.035197295 0.17292883 -0.39842996 -0.3365493 0.70331407 0.6292872 0.4662945 0.28675058
-0.6294895 0.7919592 -0.23505476 0.262606 -0.51891077 0.34396183 -0.54974765 0.72319275
0.93042403 -0.5759441 0.23173928 -0.10233225 -0.2263317 0.14278035 0.39969155 0.27091137
0.39356574 -0.6391407 0.41606298 2.6632996 -0.31835997 0.036678012 -0.24156243 0.8098883
-0.045687154 0.42650288 0.0521967 0.1602562 -0.681729 0.20388788 -0.75824404 0.22960937
-0.6462587 0.309369 -0.3870005 0.3355063 2.6948457 -0.41079116 0.7815351 -0.43168026
-0.40977776 0.5307059 0.2380495 -1.0068431 0.3390621 -0.36417195 0.7270763 -0.6673295
-0.34724477 0.71432596 -0.26669347 0.113322854 -0.086761065 -0.9766537 -0.8353836 -1.178812
-0.15943725 -0.16516349 -0.5936139 0.06925647 0.127756 -0.017816436 -0.21796723 0.27385682
2.334032 -0.30038613 0.00877824 0.85984725 -0.3827692 0.6902387 0.6016257 0.16829133
0.27402726 -0.054796103 0.01190702 0.9697189 -0.81715846 -0.2580005 0.03282075 0.6832772

fc3.bias f4 [28]
00000000: 9ef8 893f c784 70bf 2ba6 f7bf 23a8 423e
00000010: c0e7 4e3e fd21 02bf 40bf 0e3f 91fc a93f
00000020: 37af 173f e2e3 2cbe 2aa4 b1be 3777 3abf
00000030: 6722 23bf c40f e5be 85cc 7e3f 3f0e 33bf
00000040: 8760 933e ed3c e33d cb5b e3bf e4f3 643e
00000050: 5bae 7d3f 4826 f83d 982d 843f 6e3d 893f
00000060: feb4 6c3e 4be3 243f d5d1 333f e746 6a3f
1.0778997 -0.939526 -1.9347585 0.19009452 0.20205593 -0.5083311 0.55760574 1.3280202
0.5925173 -0.16883805 -0.3469556 -0.7283816 -0.6372437 -0.4473859 0.9953082 -0.6994361
0.28784582 0.11095605 -1.7762388 0.22358662 0.9909417 0.121166766 1.0326414 1.0721872
0.23115918 0.6440932 0.70242053 0.9151444

fc4.weight f4 [21, 28]
00000000: a60d 5cbf 3405 72be bb3b b1be ebab 0bbe
00000010: b562 023d d7c1 463d e2a2 7f3d d37f 413e
00000020: 654d 7ebd 8512 923e 6519 60be ddd2 90bc
00000030: 1c05 2dbe 7b85 493e 60b2 793e 1807 75be
00000040: 1d7f 3fbd b6eb d23e e679 b2be 649d 81bd
00000050: 5c23 f53d e554 8fbe 1204 893d e91a 503e
00000060: ff4d 75be c4f3 63be 1b48 2440 c2a1 373e
00000070: ee0b 0abf 0748 11be a159 fd3d cc8d b9be
00000080: fb2b dd3e 2cc1 96be 87d8 a73e 6aad 833e
00000090: f075 21bf 3c49 e33d 26e4 28bf 1198 b93c
000000a0: 8e34 87be 1836 ec3e 24a0 fdbf 97d9 953e
000000b0: b63f a3be af5f 5cbf aa6a 58be 05b5 153f
000000c0: 9e3f be3d fd27 563f 353f d03e 0968 113f
000000d0: f594 f23e d81c 3b3e 0aa7 dabc f711 123e
000000e0: 2740 d4be 91ce afbe 80ca 45be 66a6 75be
000000f0: c47d dc3e 17ea cbbe 4b27 4f3e fa1f 09be
00000100: 81d2 4b3e 7718 2fbf 6034 64be 240e 4e3e
00000110: 2006 e5be 322f d3bc 4e99 9cbf 1272 e8be
00000120: f797 3d3f 3f0f 6ebe 6c2c 4bbd 0ae1 353f
00000130: 5ee0 143f 68bd cd3d e260 933b 9451 b23c
00000140: d375 c63e eb56 0ebe 1c56 7ebe 8868 103f
00000150: 4576 01bf 4b91 d5be 7f8d 393e 24eb 733e
00000160: 03ce d43e e7e2 d5be ee02 853e 17a5 ab3e
00000170: 04f5 233e 9200 1e3e 7f91 3cbe 49c7 d3bc
00000180: 1d25 ddbd 4793 cabe dee8 e6bf f4b7 f8be
00000190: 8510 d2be c3df f9be 772f 78be ad8a 313e
000001a0: 2f09 2b3e c14d 663e 2843 d33e 40d7 6a3e
000001b0: d24e ba3e f776 e13e b87e f23e c641 26bc
000001c0: 58fc c63e 3fc6 b2bd e4de a9be c0ff c03e
000001d0: 1d8a 2c3e 992f 66bd 8ddd 2e3e 81fb db3e
000001e0: f4ba 913e b792 e5be 6d1b 45be 036c 75be
000001f0: 3098 8cbe 0559 dfbe fb92 5e3f 3213 b9be
00000200: dcc6 a83e 0c68 233d 0f97 a3be 45c9 f43e
00000210: a81f dc3d eead c83e bdc1 a23e f1fd 503e
00000220: b7ec ad3e 4e1a a63e 61b8 2b3f b898 a03e
00000230: ede4 0ebf 85f0 ddbd c9e5 a1be e2a5 3f3e
00000240: e409 ae3e 8865 8abe d339 2c3f 41bc 873e
00000250: 0b19 b1be a14b 6ebf ece1 f4be 0c5a 103f
00000260: b042 0fbf d41b afbe a1d0 f4bf f936 1abf
00000270: a6a2 13bf 43dd 8dbe e504 5a3d ddd7 e63e
00000280: 856e 203e 55ee 16be d9c1 093f f361 243d
00000290: 96cf d63e a635 85be 0ed6 3b3e 7d44 0a3f
000002a0: 0165 963e c094 79be b716 cabe 7782 c43e
000002b0: 9b3e a13b a317 4dbe e6f8 ba3e b9a0 eb3e
000002c0: a6e2 bf3c ea6c e9be 9220 d9be 3547 a7be
000002d0: 0887 a0bd 70d7 52be 2820 443f c279 543c
000002e0: 876c c23e 1f21 7dbe 61dd f7be d6b3 ca3e
000002f0: 8773 c83e d5f5 1f3f d667 eb3d f070 6b3e
00000300: 10ff 9a3e 3866 c63d bce6 123f 944f b53e
00000310: bb5b 14bf 405c 33bf c5d5 263e a526 4e3e
00000320: 730b 403f 0a5b 8fbe 7543 7d3e 39ec 663e
00000330: 4d01 b13e 8539 273f 3069 543e 81b1 53bd
00000340: 053e 153e 0667 92be 034b e0bf 9e08 0abe
00000350: cc05 623e 5a4f 2bbf f5b8 97bd 39d8 5abf
00000360: df53 f03c 515e b53e d994 d23e dd86 b93e
00000370: 9439 983e 4daa 203f 33fe 8d3e 8134 6d3d
00000380: c93b b03e 9f04 19be 4607 61be 7887 d03e
00000390: ce3c f83c 21eb dfbd b65b 7f3e 0343 ca3e
000003a0: 0a99 bf3e 6777 83be 9a6b b5be ed46 07bf
000003b0: 6cfe 31bd 596a 91be cfd5 723f 34b4 43be
000003c0: 024f c63e 94e6 58be 4a49 09bf c3bc 573e
000003d0: c76a c53e 4c71 7a3e 59aa 2a3e 38db 453e
000003e0: 1eb1 c13e 54c3 673e 52ad 043f 3c19 c43e
000003f0: cb4a 0c3f 80f8 a2be ca0d 0dbf 07bc 823e
-0.85958326 -0.23634797 -0.34615883 -0.136398 0.031832416 0.048524704 0.062411197 0.18896417
-0.062085528 0.28529754 -0.21884687 -0.017678672 -0.1689648 0.19679825 0.24384451 -0.23928487
-0.046752084 0.41195458 -0.34858626 -0.06328848 0.11969635 -0.27994457 0.066902295 0.20322765
-0.23955534 -0.22260958 2.566901 0.179328 -0.53924453 -0.14187633 0.12370611 -0.36240995
0.43197617 -0.29444253 0.32782385 0.25718242 -0.63070583 0.11097953 -0.65973127 0.022655519
-0.26407284 0.4613502 -1.9814496 0.2926757 -0.31884545 -0.860835 -0.21134439 0.5847934
0.09289478 0.8365477 0.40673223 0.5679937 0.4737927 0.18272722 -0.026690979 0.14264666
-0.41455194 -0.34337285 -0.19315529 -0.23989257 0.43064702 -0.39827034 0.20229833 -0.13391104
0.1990452 -0.68396705 -0.22285604 0.20122582 -0.44731236 -0.02577934 -1.2234285 -0.4539953
0.74060005 -0.23248003 -0.04960291 0.7104651 0.5815486 0.10045892 0.0044976333 0.021767415
0.38761768 -0.13900344 -0.24837536 0.564095 -0.5057109 -0.41712412 0.18120383 0.23820168
0.41563424 -0.41774675 0.25978798 0.3352439 0.16011435 0.15429905 -0.18414877 -0.025851863
-0.107980944 -0.3956549 -1.8039815 -0.48577845 -0.41028228 -0.4880353 -0.24236856 0.17338057
0.16702722 0.22490598 0.41262174 0.22933674 0.3638826 0.44036075 0.47362304 -0.010147518
0.38864398 -0.08729219 -0.33177865 0.37695122 0.16849561 -0.056197736 0.17076702 0.4296532
0.28462946 -0.44838497 -0.19248743 -0.23966984 -0.2745986 -0.43622604 0.86943024 -0.36147457
0.32964218 0.03989415 -0.31951186 0.47809806 0.107482255 0.39195198 0.31788436 0.20409371
0.33969662 0.32441944 0.67078215 0.31366515 -0.55818063 -0.10836891 -0.31620625 0.18715623
0.3399192 -0.27030587 0.6727573 0.26510814 -0.3458942 -0.9308415 -0.47828615 0.563874
-0.5596113 -0.3420092 -1.9126168 -0.6024013 -0.57670057 -0.27707872 0.053227324 0.45086566
0.1566716 -0.14739354 0.53811413 0.040132474 0.4195525 -0.26017493 0.18343374 0.54010755
0.29373935 -0.2437315 -0.39470455 0.38380787 0.004920793 -0.20028548 0.3651802 0.4602106
0.023423504 -0.45590907 -0.42407662 -0.32671514 -0.07838255 -0.20589995 0.76611567 0.012968482
0.37973425 -0.24719666 -0.48411086 0.3959033 0.3915064 0.62484485 0.114944145 0.22992301
0.30272722 0.096874654 0.5738332 0.35412276 -0.5795247 -0.7006264 0.16292484 0.20131929
0.7501747 -0.27999145 0.24732764 0.2255105 0.34571305 0.6532214 0.20743251 -0.051682953
0.1457444 -0.28594226 -1.7522892 -0.1347985 0.22072524 -0.66917956 -0.07408325 -0.8548618
0.029336868 0.3542352 0.41129187 0.36235705 0.2973143 0.6275986 0.27733 0.0579114
0.34420612 -0.14943169 -0.21975431 0.40728354 0.030302431 -0.10933519 0.24937329 0.3950425
0.37421447 -0.25677034 -0.35433656 -0.528426 -0.043455526 -0.2840145 0.94857496 -0.19111711
0.38732153 -0.21181709 -0.53627455 0.210681 0.38558027 0.24457282 0.16666545 0.19321907
0.37830442 0.22633106 0.51826966 0.38300502 0.54801625 -0.31830215 -0.55099165 0.25534078

fc4.bias f4 [21]
00000000: 5cc9 a23e 0c1f d5be 3ce0 b5be ff0b b2be
00000010: 994d 313f 752b f0be 554e 283f 3011 c3be
00000020: 88bb 633f c0ca 6c3f 2562 9ebe 0990 0b3f
00000030: 2d5f 803f 003b f2be 6830 5e3f 153c 8b3f
00000040: febf 6e3f a9da e2be 4bad 513f e353 5d3f
00000050: 384b 3f3f
0.3179425 -0.4162525 -0.3552264 -0.34774777 0.6925903 -0.46908155 0.65744525 -0.3809905
0.88958025 0.9249687 -0.30934253 0.54516655 1.0029045 -0.47310638 0.8679261 1.087771
0.93261707 -0.4430745 0.8190505 0.86456126 0.7472415
