MRTAWorld_DQN/Prueba1/Caso1/DQN_model_3Tasks_Caso1.pth (torch, 7668 bytes, 8 tensors)

fc1.weight f4 [16, 17]
00000000: a64b 6cbe 91dc bc3b 4cfc 05be 4ea8 183e
00000010: 276d d13d 9dc4 9d3d 82ed 503f 6825 403f
00000020: a6bd 523f 17f0 9abe ce89 3abd 5389 19be
00000030: e123 0bbc 6c8c ec3c 779d 183d dd49 f1bc
00000040: 60ce d4bc ef84 7f3e bbab 36bf 0068 80be
00000050: 30fe d63e 1260 cb3e 7ea4 ec3e 6cb0 12bf
00000060: 2bd1 e6be bfb6 6fbe 91dc c2be 62e3 13bf
00000070: 14a8 843e 6f52 ac3d 2037 01bd fe28 f5bb
00000080: ab4b 8d3e 387c bdbe fb9f 553f 531a 9f3e
00000090: 7646 e73e bfa5 04bf 67b6 92bd d3c8 6fbf
000000a0: 265f 18bf 2620 e5be 53bf 15bf 74d2 143f
000000b0: 665d 19bf 72a0 b13e 4d9f a93d bba8 2bbe
000000c0: 83ab cd3e 1748 183e 4170 423e 7288 7c3f
000000d0: d3ed 443f 95f3 c43e 0287 bebe 4d2a 21bf
000000e0: f891 c7be 30fb 68be a6bd a2be fd50 c7be
000000f0: fbdb 1abe 37e1 313e 5043 69bf a911 243e
00000100: 87c7 2a3e b8e4 fbbd 8c42 01be ca80 30be
00000110: 07e8 35be 427a a2bc 6e10 193e 6de3 eabc
00000120: 8b67 dcbe 8036 15bf 5908 36be ba8c 9cbe
00000130: c880 00bf 4f81 c53e 9b5b 993e b22b 1dbd
00000140: 0f32 01bd b135 99be 6d68 b4bd bb58 11be
00000150: b836 07be 741e 6a3f ce10 bdbe 8c17 b1be
00000160: fcf0 1e3f b4bf 79be 983d 06bf 9540 56bf
00000170: 2be1 0f3e 516b ff3e aef2 6f3f 7942 edbe
00000180: 9748 2dbf c71b 5d3e 318b ddbd 8f47 71bd
00000190: 995b 223e ca18 e73d e5f5 653f 7cb7 533d
000001a0: 90a0 4c3d 0009 a2be 186d 44bf 7865 b83e
000001b0: 587e d1be 0845 00bf 1fb1 ec3d 3104 043e
000001c0: ab63 033f fb39 0bbf 8d8e 243d 16b0 863c
000001d0: 1a7f 7fbe 6493 edbd 1e0f 79bd 304a debe
000001e0: e2c8 76bc 475a d1be 0c19 933e 698d 9cbe
000001f0: bfa0 62bf 3bc1 3fbf 74f9 27bf eea1 5fbe
00000200: 2713 94be 80af b13e cded d3bd ed61 5a3e
00000210: 6a55 ed3d aeeb f4be 9235 8ebe a520 f43c
00000220: 8b22 113e 64ab 1a3f b275 a5bf 4aed 16bd
00000230: 1c59 953e 7956 0e3e acb4 533e 9cd0 8fbc
00000240: 6b86 103e 121e 27bf 7298 cf3d 7666 a2bf
00000250: 7a8f 53bd c923 de3d 2d99 3ebe e44a d43d
00000260: 2f2b 3e3d b246 46bc 5fab 4b3d 3064 2fbc
00000270: f8ee 31be e68e 0cbe edd3 26be 7df6 253f
00000280: abb4 3c3f 059f 323f 9c17 b3be a559 e4be
00000290: 2689 ee3d 31f9 d9b8 72fd 393b 3496 ddbc
000002a0: 2204 39bc 830e 59ba bf52 64bf f2ff 29bf
000002b0: 74e4 c1bd 75e8 fa3e 7924 1ebe dc08 e63e
000002c0: e696 623e 8957 e63d 2ada 993d 68b3 04bf
000002d0: 71d6 19bf 2ffa abbe 891b 8abe b623 68be
000002e0: e6cc ee3c 5e2a 7dbd 41bf 2ebe 290d 48bf
000002f0: 91fd 09bf 3a83 91bd 7f15 133f cda7 2cbe
00000300: dd63 cf3e 6a90 f1bd 3cf7 613e 140c 443b
00000310: 09ae aabe 35c5 cabe 700a 91be 825e 8c3e
00000320: 12ce 75be 98c7 d23d 2d8b 1c3e 195f 8c3d
00000330: 657f d53e 0f1e f3bd 0d9d 273f 3d96 f33d
00000340: 4347 96bb 0084 3dbf 075c 26be 953e 01bb
00000350: aa7d 7a3e 07d3 a2be c2d8 5ebe f899 45be
00000360: cce6 40ba 2d50 66be 2071 3cbe bf95 53be
00000370: b3ce 6d3d 55f5 433f 6236 08bf c069 9fbf
00000380: 403d 2fbf 7a9a 223f 602b 2e3f 79f0 433e
00000390: f9d7 f0be cc9b c3be ccac ff3d ecf9 5a3f
000003a0: 26ab 9d3e de47 e2bd a9f6 053e 66f6 e8bb
000003b0: 1fff 993d 0998 01bd 745e 953d 8bde 23bf
000003c0: 1207 acbe 2989 8d3e 0bd4 8a3e f399 033f
000003d0: baf2 00bf d00c 57be 0606 9dbe cfe1 583e
000003e0: 863a 723e 23fb 18be 0d39 b3be 864d 2b3e
000003f0: 0f0c a33d 0993 d43d ecfb 103e 8651 9ebe
-0.23075733 0.0057635983 -0.13084525 0.14907953 0.10225897 0.07703517 0.8161241 0.7505708
0.8232063 -0.302613 -0.045541577 -0.14993791 -0.008492441 0.028875552 0.037259545 -0.029454166
-0.025977314 0.24953054 -0.7135579 -0.25079346 0.41990805 0.39721733 0.46219248 -0.5730045
-0.45081457 -0.23409556 -0.38058904 -0.57768834 0.25909483 0.084141605 -0.031546712 -0.0074816933
0.27596793 -0.37008834 0.83447236 0.3107477 0.45170945 -0.5181541 -0.07163697 -0.9366581
-0.59520185 -0.4475109 -0.5849506 0.58133626 -0.5990814 0.34692723 0.08282337 -0.16763584
0.40169916 0.1487125 0.18988134 0.986457 0.7692539 0.38467088 -0.37212378 -0.6295517
-0.38978553 -0.2275207 -0.31785315 -0.38928977 -0.15122978 0.17371069 -0.91118336 0.16022362
0.16677676 -0.12299484 -0.12623042 -0.17236629 -0.17764293 -0.019833688 0.14947674 -0.028672898
-0.43047747 -0.58286285 -0.17776622 -0.30576116 -0.50196505 0.38575217 0.29952702 -0.03837175
-0.03154188 -0.29923776 -0.0880898 -0.14194004 -0.13204467 0.9145272 -0.36926883 -0.34588277
0.6208646 -0.24389535 -0.52437735 -0.83692294 0.14050739 0.49886563 0.93729675 -0.46339777
-0.6768889 0.21592627 -0.10817564 -0.058906134 0.15855254 0.11284025 0.8982833 0.051688656
0.04995781 -0.3164749 -0.76728964 0.36014915 -0.40916705 -0.50105333 0.11557221 0.12892224
0.51323956 -0.54385346 0.04017501 0.016441386 -0.24950829 -0.11600378 -0.060805432 -0.43415976
-0.015062543 -0.4088919 0.28730047 -0.30576637 -0.8852653 -0.7490422 -0.6561501 -0.21839115
-0.28920862 0.34704208 -0.10348091 0.21326418 0.11588557 -0.4783606 -0.27775246 0.029800722
0.14173333 0.6041777 -1.2926543 -0.03684739 0.29169548 0.13900174 0.2067439 -0.017555527
0.14113776 -0.6528026 0.101364985 -1.2687519 -0.0516505 0.10846669 -0.1861312 0.10365847
0.0464279 -0.012101816 0.04972398 -0.010705039 -0.17376316 -0.13726386 -0.16291781 0.64829236
0.7371318 0.69773895 -0.3497895 -0.44599643 0.11647253 -0.00010393782 0.0028379825 -0.027049161
-0.011292489 -0.00082800555 -0.8918876 -0.66406167 -0.09467402 0.49005476 -0.154436 0.44928634
0.22127876 0.11247165 0.075123146 -0.5183625 -0.60092837 -0.33589312 -0.26974133 -0.22669873
0.029150438 -0.061807983 -0.17065145 -0.7814508 -0.53902537 -0.071051076 0.57454675 -0.16860886
0.40505877 -0.11795123 0.22066969 0.0029914426 -0.33335903 -0.39603582 -0.28328276 0.27415854
-0.24004391 0.10291976 0.15287466 0.06854076 0.41698757 -0.118709676 0.65474015 0.1189389
-0.004586132 -0.7402954 -0.16246043 -0.001972114 0.24462 -0.31801626 -0.21762374 -0.19297016
-0.000735861 -0.22491522 -0.18402529 -0.20662592 0.05805845 0.7654622 -0.5320798 -1.2454147
-0.68452835 0.6351696 0.68034935 0.19134702 -0.47039774 -0.382048 0.1248413 0.855376
0.30794638 -0.11048864 0.13082375 -0.007109451 0.075193636 -0.031639133 0.07293406 -0.6401145
-0.33599144 0.27643707 0.271149 0.5140678 -0.5037037 -0.21000981 -0.30668658 0.21179889
0.23655137 -0.14939551 -0.35004464 0.16728792 0.07961284 0.10379607 0.141586 -0.30921572

fc1.bias f4 [16]
00000000: 8926 ca3f c470 6c3f 8c13 8d3f b0b6 4b3f
00000010: 4a69 843f c0de b1bc 4d6b 823f 7686 aa3f
00000020: 5b9b bd3e 507d a63f fd50 8f3f 7a00 443f
00000030: 4b0b 873f fa53 86be ed80 5f3f 0e01 843f
1.579301 0.92359567 1.102159 0.79575634 1.0344632 -0.02171266 1.0188996 1.3322284
0.3703259 1.3006992 1.1196591 0.7656323 1.0550321 -0.26235944 0.873061 1.0312822

fc2.weight f4 [16, 16]
00000000: 52bf 71be 1db4 f6be 0a01 62be c8b3 ea3c
00000010: c2ec 453d f565 393f 75a7 6cbe 54d8 7dbe
00000020: d18f 43bf 70ef 71bf 7e50 20bf b7ce 1ebf
00000030: 43e9 edbd 2206 d4bd d813 07bf 2a4c 38bf
00000040: a439 3d3e 41cd 9a3f dcb8 09bf ef11 983d
00000050: 1bd6 1bbf 2846 38bf cb74 2bbe 43b8 063f
00000060: f57b c93f 6540 f0bd afcc 683f 3ba1 313f
00000070: e308 d3bc 4721 e6be 752e 4b3e e4fd 083f
00000080: 6f0b 26bf 5ae4 223f 09dd 1dbd a571 2a3f
00000090: 0b9b 873e ca4a 46bf 2fa6 91bd e1b9 3a3f
000000a0: 7787 443f 9e85 4f3f ad6e 033f 2996 013f
000000b0: 2a14 803f 70a9 0ebf 42bf d13e 2889 ae3e
000000c0: 86b2 583f 81d2 d9bc 6dd6 863f 3fad 4c3f
000000d0: e91e 303f a87b 8ebf a83d 803f b0b8 983d
000000e0: 237a 293e f6ce 5d3f 17c7 48be 2a20 e9be
000000f0: eeb3 3d3e d9a7 7cbe 1a30 e23e 31ea bb3e
00000100: 9aa4 16c0 5563 15bf f88a cfbd 7d9e 2c3f
00000110: e62b ccbd 2c1f 373f d833 af3e 7f52 14bf
00000120: 03a4 0cbe f80c 0f40 8920 cb3e 2b42 813e
00000130: 6553 cf3e aa36 81bf b207 b3be 1b2b 043e
00000140: 6ff1 ec3f d2a1 1dbe 8a33 db3e eee2 073f
00000150: 2a68 573f db82 b3bf a23d 743f d335 e13e
00000160: 448b 13bd f819 ba3e f410 bfbe 2ac4 a6be
00000170: c8ed 16be 8a0a f43e e9dc c03e 91e9 ecbd
00000180: 2410 f5bf f4cd 26be 2956 89bf 9426 09bf
00000190: fcd7 7ebf 0bd1 923f 2162 1cbf 30f2 48be
000001a0: b605 603f e5ff 03bf 9fee 113f d3e4 053f
000001b0: a563 f6be 0ea3 dbbe 2f6c ddbd 3a8c a73e
000001c0: 1df9 95c0 9e4a c93d eab4 283f 3a47 f13e
000001d0: 8da4 a9bd b763 74bf 0e45 1a3f 254f 7a3e
000001e0: d940 22be e577 03c0 db7c f73e 7d43 7b3e
000001f0: c8e2 78be c5fb 373e f10e 08be 67b1 e1bd
00000200: 5ab1 81be 85aa 8a3f 0cb9 4c3f e1c3 a53e
00000210: 3d1c 023f f0d0 d3bf 63fb e83d ca6d 0abd
00000220: 270e 21bf 5e15 df3e 4ced 4e3f a340 223f
00000230: 9de1 2f3f 3b00 14bf d243 4e3f 97c6 053f
00000240: 77fa 3840 7ed9 833f 5345 163f 4c97 39bf
00000250: 238e 853f da03 38bf 7713 ea3e d53f 8b3e
00000260: 5d27 6bbf abb0 47bf 4e33 51bd b2bb a63e
00000270: bada dfbd 9126 b03f 0d6c 4e3f 66a9 10be
00000280: 388b 3e3f 0fc2 7b3d 9035 7b3f 56c5 be3e
00000290: 5b36 0b3f be86 3dbf 3a4e 303f 3e23 cebe
000002a0: a203 4e3f 3b17 623f e2fa 283f 9088 f73e
000002b0: 42bb 92bd d274 a83c 9693 083f 9c8d 303f
000002c0: 2733 afba 49ab 99be b274 0d3d e659 0dbf
000002d0: b5bb 05bf 13f5 893f 5ec3 913d bafd d9be
000002e0: 846c af3c 706b 71bf 866f fcbe 585b afbe
000002f0: a7ea 93bf 05ca 893e 2d31 8ebe 5636 2bbf
00000300: ec99 8ebf 3055 06bf 080a e5be f99f 14bd
00000310: 24d4 d9be f967 8d3f 4d8a f93d 5fb5 9ebe
00000320: 628f fd3d 9150 47bf 5120 52be 97a8 82be
00000330: 3dad 41bf d55c dabe db2f 1bbf 92d9 3a3d
00000340: f88f 9dbf a1a0 bdbd 316f 01bf 97a9 9abe
00000350: 3da1 edbe 9bf7 8a3f 1d29 70bf 9360 90be
00000360: ca84 97bd ec90 edbe db1d c0be a415 a3bd
00000370: cad4 803e 7385 8abc bfe4 0abf dd30 eabe
00000380: 2634 bdbf 7cb7 4fbf c7e0 eb3e 5a58 983d
00000390: fb9c 0a3e 0055 8f3e acaf 15bf 5e1f 06bf
000003a0: ad32 d1bf b37d 8f3e f127 e4be 291f 95be
000003b0: 7caa 483f 9d58 5abf df0d a8be a940 67be
000003c0: f7c4 823f 955c cd3e 4ad6 5dbe 6709 013f
000003d0: f59a 003f e91d b1bf 74a8 8f3e a840 c23f
000003e0: 370c 84be 58d2 073f 4010 a0be 26b9 d0be
000003f0: 3bda 403f a932 b7be 330a 703e 07c8 b1bc
-0.23608139 -0.4818429 -0.22070709 0.02865018 0.048321493 0.724212 -0.23110755 -0.24789554
-0.7639132 -0.9450598 -0.6262282 -0.6203417 -0.11616757 -0.10352732 -0.52764654 -0.7199122
0.1847902 1.2093889 -0.537977 0.074252956 -0.60873574 -0.7198205 -0.16743772 0.5262491
1.5740954 -0.11731032 0.9093732 0.69386643 -0.025761073 -0.44947264 0.1984194 0.53512406
-0.64861196 0.63629687 -0.038540874 0.6657966 0.26485476 -0.7745787 -0.07111775 0.7293988
0.767692 0.8106326 0.5134075 0.5061975 1.0006154 -0.5572729 0.4096623 0.34089017
0.84647405 -0.026589634 1.0534188 0.7995185 0.68797165 -1.1131487 1.0018816 0.07457101
0.16550498 0.8664392 -0.19607197 -0.45532352 0.18525669 -0.24673404 0.44177324 0.3670211
-2.3537965 -0.58354694 -0.10133928 0.67429334 -0.099693105 0.7153194 0.3421924 -0.5793838
-0.1373444 2.2351665 0.3967326 0.25245795 0.40493312 -1.0094807 -0.3496681 0.12907068
1.851118 -0.15393761 0.4281276 0.5308064 0.84143317 -1.4024309 0.95406544 0.43986377
-0.036021486 0.36347938 -0.37317622 -0.32571536 -0.14739144 0.4766429 0.3766854 -0.11567987
-1.9145551 -0.16289502 -1.0729419 -0.5357449 -0.99548316 1.1470045 -0.6108723 -0.19623637
0.87508714 -0.5156234 0.5700473 0.52302283 -0.48122898 -0.42897838 -0.1081165 0.32724172
-4.6866593 0.09828685 0.6590105 0.47124654 -0.08283339 -0.9546465 0.6026162 0.24444254
-0.1584505 -2.0541928 0.48337445 0.24537463 -0.2430526 0.17967136 -0.1328695 -0.11020165
-0.2533062 1.0833288 0.7996986 0.32376006 0.5082434 -1.6548138 0.11376073 -0.03379611
-0.6291222 0.4357099 0.80830836 0.6337988 0.68703634 -0.5781285 0.80572236 0.5225615
2.8902872 1.0300748 0.5869953 -0.72496486 1.0434002 -0.71880877 0.45717975 0.27197137
-0.9185694 -0.7800395 -0.05107432 0.32565075 -0.10930391 1.376177 0.8063362 -0.1412712
0.7443118 0.061464366 0.98128605 0.3725993 0.54379815 -0.74033725 0.68869364 -0.40261263
0.80474293 0.88316697 0.66007817 0.48346376 -0.07164623 0.020563517 0.533502 0.6896608
-0.0013366685 -0.30013493 0.034535117 -0.552153 -0.52239543 1.0777916 0.071173415 -0.4257639
0.021414049 -0.9430456 -0.49303836 -0.34249377 -1.1555985 0.2691194 -0.27771893 -0.66879785
-1.1140723 -0.52473736 -0.44734216 -0.036285374 -0.42544663 1.1047355 0.12184582 -0.3099775
0.12380864 -0.7785731 -0.2052014 -0.2551925 -0.75654966 -0.4264895 -0.60619897 0.045617647
-1.2309561 -0.09259153 -0.5056029 -0.30207512 -0.46412078 1.0856813 -0.93812734 -0.2819868
-0.073983744 -0.4639963 -0.37522778 -0.07963112 0.25162345 -0.016909337 -0.5425529 -0.45740405
-1.478154 -0.8113935 0.4606993 0.07438727 0.13536446 0.27994537 -0.5847118 -0.5239161
-1.634359 0.28025588 -0.44561723 -0.29125336 0.7838514 -0.85291463 -0.32823083 -0.2258326
1.0216359 0.40109697 -0.21663776 0.5040497 0.50236446 -1.3837253 0.28058207 1.5175982
-0.2579057 0.53055334 -0.31262398 -0.40766257 0.75332993 -0.35780838 0.2344139 -0.021701826

fc2.bias f4 [16]
00000000: d725 30bf e430 323f 6e82 6d3f 1ac6 8d3f
00000010: 578d 08be 23ab 203f 19e5 71bf ed4a c8be
00000020: 9d54 6a3f d197 dc3e 9b41 403f 1480 60bf
00000030: 3ed3 78bf 62f1 19bf 000b 3cbf 903d 653f
-0.6880774 0.6960585 0.92777145 1.1076081 -0.13335167 0.62761134 -0.944902 -0.39119664
0.9153536 0.43084577 0.75100106 -0.8769543 -0.9719733 -0.60133946 -0.73454285 0.8954706

fc3.weight f4 [16, 16]
00000000: ef8b 9bbd 3dd5 a4be 3032 413f 4e63 433f
00000010: bcb2 043e 899a 713f 45aa 9dbf 4b0c 64bf
00000020: bec9 ae3e 44dd f6be 47b4 c53c 3d01 68bf
00000030: 81d0 01bf 1e5d 67be 5cbd 073f 114a bd3f
00000040: 2057 59bf 71cb cb3f dec6 953f a64e 5ebc
00000050: 1503 da3f 4795 43bf 99c4 493f 649f 283c
00000060: f0db 7b3f 3209 53bf a94e 0d3f c74f 52bf
00000070: 9b11 4fbe f9d2 a4bc 28a4 14bf 74bc 9ebd
00000080: 7640 d43d f97c f1be 0556 923d 2901 6f3f
00000090: 6bd9 f5be 25fb 543f 3c1e bcbf d9fd a9bf
000000a0: 2356 803f 760b 943f ff79 fc3e 407d 24be
000000b0: 069a 1bbf 42cc 2cbf 1138 bc3e 5979 3b3e
000000c0: bff2 2ebf ffa5 dcbd ef1b 3c3e 446c d13e
000000d0: 7ea8 b63f 2a06 203f 45af 72bf aa99 e9bf
000000e0: d098 203f 36a8 a63f cfb3 6b3f 2f5e 0cbf
000000f0: 71ca 26bf 2905 31bf b8ba dcbd d70d 38be
00000100: 6484 b6be 8014 eb3e 80f7 3f3f 7fe5 5e3e
00000110: 6ad8 023e dad2 b83d 716d d4be 95d8 dabf
00000120: 4c37 253e 3a4c 0bbf 578e 103e 1669 58bf
00000130: a30a 0bbf 84cd 33be d3c8 a23c e5c1 343f
00000140: 2409 e0be 445c 623f c4e7 2b3e e586 003f
00000150: 4af9 d7bf b219 723f 8f6e 42bc 3fbe c9bf
00000160: 3e9e 0ebf e880 963d 9449 003f 7671 703e
00000170: b1f1 273d e1fc 1dbf 135a ccbf 6456 cc3e
00000180: c3a0 223f 31f9 883e 00c6 07bf b2d4 b4bf
00000190: 4ef4 3ac0 67c2 04bf ab83 123f 6830 4c3e
000001a0: fb18 10bf cf85 d63f 8380 61bf a774 2b3f
000001b0: 1bc2 a93d b50c 4e3f 76ac c6be 1326 6fbe
000001c0: 4928 b93e 8249 f7be 2262 23bf b300 5cbf
000001d0: f928 60bd cdb7 17bf f288 063e 88d4 653f
000001e0: c281 c4be 8cf0 b4be 22f9 1dbf 686b 533e
000001f0: e87c 9b3e 18fe 1d3f d5c8 2d3f a8e4 94be
00000200: ca7e 5f3d 1620 8d3e 1bd9 febe 280e 96bf
00000210: bee5 4dc0 259a afbe de5b 943e fd83 193e
00000220: 1cc3 21bf 6c1d 473f ca1c 3bbf 602f 253f
00000230: 02d6 8b3e d126 5a3f 2530 16be c168 153e
00000240: c4f1 2b3f dd5a 29bf 69ad 89be 6e9e 8cbe
00000250: 97d3 91bf 0f78 48be 05ef e63d e8ea 923f
00000260: 031c a9be 1f66 e13d 7c7c 24bf 5d97 d13d
00000270: 873e 123f d571 0c3f 01e8 e33e 357f 5e3d
00000280: d69e 8a3f d8b3 d2bf 0d18 42bf 693d d5bc
00000290: 42cb 37c0 55ef 243f 9d65 6cbf 84fa b5be
000002a0: 8f4e 78bf c59f 5bbe 13c2 1dbf a8e9 a13e
000002b0: 7b54 f43d e35d aa3e c2c0 3c3f 929d ef3e
000002c0: 8a44 b3be a3a1 84bd 5d6c 65bc e811 8c3f
000002d0: 2725 bb3f 6ba5 2e3f ea56 02bf a0ee 10bf
000002e0: f903 a73e 5871 22bf caa0 3c3f 4c91 1dbe
000002f0: 6ddb 00be 4e9b 4ebf 7864 a73c 05a6 533d
00000300: d7d6 933d 501d 013e 0d0e 7c3e dc43 e1be
00000310: ebdd 2840 cf39 02bf a399 873f 0782 0040
00000320: 8961 423e 4450 87bf 08b5 58be 0028 4abe
00000330: 97aa 0b3f 524f 1abc b5cf 063f b3ef d93c
00000340: f958 43be cfab 713f 11cc 343e 8a85 96bc
00000350: 2f0b cebf b5e5 113f 3610 27bf 6d54 0fc0
00000360: d3f5 e33e 5e95 d93f 02ad 6cbe d0cf 91be
00000370: d48d 1ebf 0346 ebbe 51cd 5dbf 4d42 853f
00000380: 4543 173e d280 20be ecda 02bf 1bc1 1fbf
00000390: aa3e 2bbf 883f 0bbf 34af 863f 5c15 6b3f
000003a0: 654e 81bf 0f52 fa3c 1375 0cbe 0ae8 2d3f
000003b0: 7b3e 0d3f 1348 d73e fb62 b6bd da0e 85bf
000003c0: 112e 4c3e 22a4 dd3d 47ca d4be b899 f0be
000003d0: 4bc3 793e 22aa de3c 0cd6 903f 357e f33f
000003e0: 4cc6 71bf 4ebb 83bf b2ad 2b3e 01ba e83e
000003f0: 4c9f 413f 9760 783d 63c0 60be fc49 2ebf
-0.075950496 -0.32193938 0.75467205 0.763234 0.12958807 0.94376427 -1.2317587 -0.8908126
0.34138292 -0.48215687 0.024133814 -0.9062689 -0.50708777 -0.22594115 0.53023314 1.4788228
-0.8489857 1.592146 1.1701314 -0.013568556 1.703219 -0.76399654 0.7881561 0.010291908
0.98382473 -0.82435906 0.5519815 -0.8215298 -0.2022156 -0.02012013 -0.5806298 -0.07750788
0.103638574 -0.4716566 0.07145313 0.93361145 -0.4801744 0.83195716 -1.4696727 -1.3280593
1.0026287 1.1565998 0.49311826 -0.16063404 -0.60781896 -0.6749917 0.36761525 0.18308009
-0.6833915 -0.10773849 0.18370031 0.40902913 1.427017 0.62509406 -0.9479869 -1.825002
0.62733173 1.3020084 0.9207124 -0.5483121 -0.6515265 -0.691485 -0.10777801 -0.1797403
-0.3564788 0.45914078 0.7498703 0.21767233 0.12777868 0.09024592 -0.41489747 -1.7097346
0.16134375 -0.5441319 0.14116798 -0.8453535 -0.54313105 -0.17558867 0.019871151 0.7060836
-0.43756974 0.88422036 0.1678763 0.5020583 -1.6872952 0.9457046 -0.01186718 -1.5761184
-0.5571021 0.07348806 0.5011227 0.23480782 0.04100198 -0.6171399 -1.5964988 0.3990966
0.6352655 0.26752618 -0.530365 -1.412741 -2.9211612 -0.51859134 0.5723216 0.1994034
-0.5628812 1.6759585 -0.8808672 0.6697487 0.08288976 0.8048814 -0.38803452 -0.23354368
0.36163548 -0.4829827 -0.63821614 -0.85938567 -0.054726575 -0.5926483 0.13138178 0.8977742
-0.38380247 -0.35339773 -0.6170827 0.20646441 0.30368733 0.6171584 0.6788457 -0.290807
0.054564275 0.27563542 -0.49775013 -1.172307 -3.2171474 -0.3429729 0.2897634 0.14991756
-0.6318834 0.7777927 -0.73090804 0.64525414 0.27311713 0.8521548 -0.14666803 0.14590742
0.6716578 -0.6615427 -0.26890114 -0.27464622 -1.1392697 -0.19577049 0.11276058 1.1477938
-0.33029184 0.11005806 -0.6425245 0.102339484 0.5712666 0.54861194 0.44512942 0.054320533
1.0829723 -1.6461134 -0.7581795 -0.02603026 -2.8717809 0.6442769 -0.9234255 -0.3554269
-0.9699487 -0.21447666 -0.6162426 0.31623578 0.11930176 0.33274755 0.73731625 0.46799904
-0.3501323 -0.06476142 -0.014002887 1.0942965 1.4620713 0.6822116 -0.5091387 -0.5661411
0.32620218 -0.634542 0.73682845 -0.15387458 -0.12583704 -0.80705726 0.02043365 0.051672
0.07218712 0.12608838 0.24614735 -0.43997085 2.6385448 -0.5086946 1.0593761 2.0079362
0.18982519 -1.057137 -0.21162808 -0.19741821 0.54557174 -0.0094183255 0.52660686 0.026603555
-0.19076909 0.94402784 0.1765597 -0.018374223 -1.6097163 0.5699113 -0.6525911 -2.239528
0.44523486 1.6998708 -0.23112872 -0.2847886 -0.6193516 -0.45951852 -0.8664141 1.0410858
0.14771755 -0.15674141 -0.511153 -0.6240403 -0.6689249 -0.54393816 1.0522218 0.91829467
-1.0102049 0.030556707 -0.13716535 0.6793219 0.5517346 0.42047176 -0.08905598 -1.0395157
0.19939448 0.108223215 -0.41560575 -0.46992278 0.24390905 0.027180735 1.1315322 1.902289
-0.944432 -1.0291536 0.16765478 0.4545441 0.7563369 0.06063899 -0.2194839 -0.6808164

fc3.bias f4 [16]
00000000: d6a4 823f 3230 5a3f 9696 243f 99e1 3e3f
00000010: 6b8e 893f ec4f b2bd 973f 07c0 963f 0bbf
00000020: bccb 04bf 8443 7dbf 35a2 27bf 67c9 ad3f
00000030: 3531 07be 77a4 903e 5f8b 97bf ad5a 8fbf
1.0206554 0.8522979 0.64292276 0.74562985 1.0746588 -0.0870665 -2.1132562 -0.543939
-0.51873374 -0.98931146 -0.65481883 1.3577088 -0.13202365 0.28250477 -1.1839408 -1.1199547

fc4.weight f4 [13, 16]
00000000: 7029 c73e d0bb 42be bd04 493e 0c86 a2be
00000010: 1795 f8be a0e8 8a3e 6997 803e 28c8 e8bd
00000020: b3cb 783d dba2 c63e d34c dabd 42dd 78be
00000030: a411 bcbc ad9c 373e 9fff 92be 475d 803e
00000040: 0a42 b23e 6cff a73e f859 7d3d 980f 843d
00000050: 4440 9e3e a00d 823f 655c af3e b82a 0bbf
00000060: ca62 443e 7628 cfbe 4ae1 7bbe 15f6 0dbe
00000070: 565e ab3e 6651 6e3f dda0 30be 07fb 4fbe
00000080: e81d 8e3f 30d4 74be 614b a43e d41e 393d
00000090: 7ebd 323f a0a9 ce3e 3406 ddbe 75dd 89be
000000a0: 9b0f ddbd 1522 a6bc 8e94 2f3f 7c6c 9a3e
000000b0: 57c7 3abf 82e9 f73e c495 25bf 00c2 28bf
000000c0: c648 0e3c 6788 673e d4e4 fd3e 7fc8 5f3f
000000d0: 0e6a 483e f268 3fbe a326 623e e36b 30be
000000e0: 7e25 643d 9a3f 4abe cbcb 88be c746 97bd
000000f0: 8ea0 0b3f a415 6e3f 9905 6ebe 7212 75bf
00000100: c906 0b3f 477e 653f 2a56 073f 4658 533e
00000110: c365 a73e 385e 80be 925e 00bf cc1f 0abf
00000120: 18f0 92be ac38 d1be 3576 09bf f69f 283e
00000130: cb72 43bf 728c a53e 7b4b 1cbf 45cb 29bf
00000140: 9937 fb3e 49d7 39bd 56da 0e3f b545 6b3f
00000150: a2ac 523e bd18 8d3c d6de cdbe c56e d0be
00000160: 42cd 64bf b80e cabe 4322 70be e0e9 e63e
00000170: 9e50 1cbe 633b da3d f841 a1be ea01 ffbe
00000180: b8fb 4e3e e4fc 573f 92a9 5cb9 2820 123f
00000190: ea33 293f 48f1 f93e 4ca6 30bf 82b0 1bbf
000001a0: 0853 32bf 708f 01bf fbf7 13bf 9f47 143f
000001b0: e890 c53d 3ecf 57bc f594 9ebe 5ad2 97bd
000001c0: 066d 06be dc3a 433e 23a8 f83e d448 163f
000001d0: 18dc 593e 9a59 223f ca04 c63e b7ef c5be
000001e0: c810 b33e ffa6 12bf 837a d3be d874 8cbc
000001f0: acf9 e7be 9505 793f 404c c2be 405c 0dbf
00000200: ae82 cb3e 017b 293f 05a1 c33e c22f 493e
00000210: cdc5 423f 7ccf 1c3c bef9 b9be 967b b3be
00000220: b3f3 bcbe b32f e8be c9b2 e9be 3525 aa3e
00000230: 5459 063f 3cf4 da3e 3114 30bf df09 49bf
00000240: 5560 053f 5f29 3e3f 45c6 403a 15c7 b63e
00000250: 2944 e23e 6f1e 003e 833e 43bf 7cd5 61be
00000260: b47e 02bf 0d11 49bf 3838 54bf f114 9a3e
00000270: 2a0e 763f 9083 f23e f9dd 2fbf 5eee 55be
00000280: 7bd6 c53e 5265 03bf cf47 273f 11b8 493f
00000290: cb67 6e3e c2ed 203f 3848 38bf aeb0 05bf
000002a0: 3147 02bf cd91 f8be 53b7 863e 6304 4c3f
000002b0: ea6b 9cbf 0a67 b03e 293f d5be 8aaf a4be
000002c0: 5024 9a3e 6d38 153f 926d e83e 419a d83e
000002d0: 7d8b 353e dcc6 073f 3c1f 84bf 1d96 dabe
000002e0: 7298 24bf fc52 34bf 5f04 adbe a822 1c3f
000002f0: 244d b4be c43f a73d 0f12 a4be 3101 84be
00000300: 0a30 b23e 89f3 1f3f 27e8 c23e 8ef1 f33e
00000310: 83af db3e 6835 563e 568f 11bf 7f2b 1abf
00000320: 1016 08bf 3a25 f5be 6140 30bf f5a9 103f
00000330: 2595 bdbe e042 b03d 7b3b 51be 29f4 f4be
0.38898802 -0.19016957 0.19630714 -0.31742895 -0.48551247 0.27130604 0.25115517 -0.11366302
0.060741138 0.38796124 -0.10659184 -0.24303153 -0.02295763 0.17930861 -0.28710648 0.25071165
0.3481601 0.3281206 0.06185338 0.06448287 0.30908406 1.0160408 0.3425018 -0.5436206
0.1917831 -0.40460557 -0.2459766 -0.13863404 0.3347041 0.93092954 -0.17248864 -0.20310603
1.1102877 -0.23909068 0.3208876 0.045195416 0.6982039 0.4036379 -0.43168795 -0.2692677
-0.10793992 -0.020279923 0.6858605 0.30160892 -0.7296042 0.4842034 -0.6468165 -0.6592102
0.008684343 0.22610627 0.49588645 0.8741531 0.19571707 -0.18692377 0.22085051 -0.17228656
0.055699818 -0.19750825 -0.26717982 -0.073865466 0.5454186 0.9300177 -0.23244323 -0.9573127
0.5430723 0.8964581 0.5286585 0.20639142 0.32694826 -0.25071883 -0.501443 -0.5395477
-0.28698802 -0.4086355 -0.53695995 0.1646727 -0.76347035 0.32333714 -0.61052674 -0.6632579
0.49065855 -0.045371328 0.55801904 0.9190324 0.20573667 0.01722371 -0.40209073 -0.4070951
-0.893757 -0.39464355 -0.2345057 0.45100307 -0.15265128 0.10655858 -0.31495643 -0.49806148
0.2021321 0.84370255 -0.00021044005 0.57080317 0.6609484 0.48816895 -0.6900375 -0.60816205
-0.69657946 -0.50609493 -0.57800263 0.57921785 0.09646779 -0.013171969 -0.3097302 -0.07413168
-0.13127527 0.19065422 0.48565778 0.58704877 0.21275365 0.6341797 0.3867553 -0.3865945
0.3497374 -0.57286066 -0.41304407 -0.01714556 -0.45307672 0.9727414 -0.379488 -0.5521889
0.39748138 0.66203314 0.38208786 0.19647124 0.7608307 0.0095709525 -0.3632335 -0.35055226
-0.36904678 -0.45348892 -0.45644215 0.33231512 0.52480054 0.4276446 -0.6878081 -0.7853069
0.52100116 0.7428188 0.0007353763 0.35698763 0.44192627 0.1251161 -0.7626726 -0.22054094
-0.50974584 -0.7854164 -0.82898283 0.30094102 0.9611536 0.47366 -0.6869808 -0.20891711
0.38640198 -0.5132648 0.65343946 0.7879649 0.23281781 0.6286279 -0.719852 -0.52222717
-0.5088988 -0.48548737 0.2631174 0.79694194 -1.2220433 0.34453613 -0.4164975 -0.32165176
0.3010583 0.58289224 0.45396096 0.42305186 0.17728992 0.5303781 -1.0322032 -0.42692652
-0.64295113 -0.70439124 -0.33792397 0.6099038 -0.35215104 0.08166459 -0.32045028 -0.2578216
0.34802276 0.6248098 0.38067743 0.4764523 0.42907342 0.2091881 -0.5685934 -0.6022262
-0.53158665 -0.47879964 -0.68848234 0.56509334 -0.3702785 0.086065054 -0.20432846 -0.4784253

fc4.bias f4 [13]
00000000: 8ba7 1dc0 d272 b1bf 971e 143f 38bc 74bf
00000010: 04d3 e53f aa1c 74be 8df6 0a3f 5960 25bf
00000020: be5f 8a3f 4d31 a43f c73f 313f 09b7 983f
00000030: 43de cc3f
-2.463351 -1.3863165 0.57859176 -0.955997 1.7955022 -0.2383906 0.54282457 -0.6460014
1.0810468 1.2827545 0.6923794 1.1930858 1.6005329
