MRTAWorld_DQN/PruebasDef/PruebaDef5p2/DQN_model_3Tasks_CasoX.pth (torch, 7348 bytes, 8 tensors)

fc1.weight f4 [16, 12]
00000000: 5d65 c440 6bdc c640 5bd2 d340 9563 ce40
00000010: 883b e340 a8b9 8e40 16fa ae40 0f90 8c40
00000020: 78a8 8740 3d37 4741 8242 4141 0e66 4041
00000030: ad80 bfc0 7135 cec0 41f1 d0c0 816c dcc0
00000040: ec82 e5c0 2d04 96c0 0022 a2c0 4bb3 7bc0
00000050: e63f 74c0 7197 4dc1 45ed 40c1 d782 3ec1
00000060: 5d5c c9c0 45c4 d0c0 e86e ddc0 fb9c d4c0
00000070: 28f0 ddc0 b4b2 93c0 d08e a3c0 df63 86c0
00000080: ff72 86c0 676f 48c1 8dc4 3dc1 898f 3ec1
00000090: bf9e c340 3ba0 c440 94af d840 6a86 ce40
000000a0: 62f7 e140 c780 8940 411f a740 8968 8540
000000b0: 4d92 8140 18e7 4941 21be 3941 109c 3f41
000000c0: f130 c440 c583 d240 3d86 d340 45d2 d940
000000d0: db1d d240 dff7 8a40 3169 a240 5ba4 8640
000000e0: 11a6 7740 a5c3 4a41 0f49 3f41 418a 3c41
000000f0: 99e4 c8c0 82f9 cec0 6402 e2c0 1807 cbc0
00000100: 030d e2c0 13dc 8dc0 c61c a7c0 5dc3 8ec0
00000110: a406 78c0 f3b8 49c1 aa48 3bc1 d2dd 3bc1
00000120: ce1c c3c0 5ef3 d0c0 2679 d9c0 9b00 d6c0
00000130: 2383 dbc0 11f2 87c0 fba2 aec0 db41 7dc0
00000140: d022 70c0 5e32 4dc1 d544 41c1 dafc 3fc1
00000150: c419 c7c0 23d2 bfc0 e685 dbc0 67a8 d6c0
00000160: ea33 d8c0 ea99 88c0 f66c a5c0 0914 86c0
00000170: 4628 87c0 7040 49c1 9408 3bc1 feeb 40c1
00000180: bae1 c3c0 0f8d d3c0 9e83 d1c0 917b d8c0
00000190: 1185 d7c0 60a0 95c0 b816 aac0 f322 7fc0
000001a0: 959c 75c0 d9de 4ac1 e40d 3dc1 d0de 3fc1
000001b0: 91f4 c3c0 a9c8 c1c0 a0bd dcc0 ce0a dec0
000001c0: e633 d1c0 4390 89c0 4ab6 a8c0 53e2 8cc0
000001d0: 4242 74c0 7dca 4cc1 1852 3bc1 8200 38c1
000001e0: 2e3c d0c0 2458 c0c0 09fa d1c0 ee80 d2c0
000001f0: aff0 dbc0 d437 8fc0 899e b3c0 37cb 8fc0
00000200: 1292 85c0 2fc3 4dc1 10c8 38c1 d1c5 39c1
00000210: dcad c540 64e2 c840 02af d840 0bd1 cc40
00000220: 11b8 df40 a5a3 9240 b15a a340 1b31 7b40
00000230: 3735 8040 b8cb 4841 ae38 3f41 a853 3c41
00000240: 5c65 c5c0 5da1 c4c0 c806 d2c0 ce64 d0c0
00000250: cd39 dfc0 0480 90c0 148e acc0 a212 8cc0
00000260: ed36 81c0 0d27 4bc1 8c72 41c1 379b 3fc1
00000270: 42e1 bfc0 6278 cec0 c745 d8c0 df59 d0c0
00000280: ee62 dec0 aa62 96c0 8dec abc0 55e9 7fc0
00000290: 42bc 88c0 b820 4bc1 a790 41c1 768b 39c1
000002a0: 2799 bd40 7504 c740 9cdb de40 1eda c940
000002b0: a545 e040 4971 8640 1f1a a840 fb25 8040
000002c0: dc7c 8240 782c 4441 0e91 3941 631f 3941
000002d0: 947c c6c0 2348 cdc0 9627 d6c0 e626 dec0
000002e0: df11 dec0 27ae 87c0 212a aec0 c4e2 81c0
000002f0: 0ff7 84c0 c1ff 47c1 0a59 3bc1 3216 3ec1
6.1373734 6.2144065 6.619428 6.449656 7.101017 4.460163 5.468028 4.3925853
4.239315 12.450986 12.078737 12.024916 -5.9844575 -6.4440236 -6.52945 -6.888245
-7.1722317 -4.6880097 -5.0666504 -3.9328182 -3.8164 -12.849473 -12.057927 -11.906943
-6.292525 -6.5239587 -6.9197884 -6.6441627 -6.935566 -4.6155643 -5.111183 -4.1996913
-4.2015376 -12.527198 -11.860486 -11.910043 6.113128 6.1445594 6.771433 6.453908
7.061448 4.29697 5.222565 4.1690106 4.049109 12.618919 11.608918 11.975601
6.1309743 6.578585 6.6101365 6.8069177 6.5661445 4.3427577 5.0753407 4.207563
3.869511 12.672765 11.955337 11.783753 -6.277905 -6.4679575 -7.062792 -6.344616
-7.0640883 -4.4331145 -5.2222624 -4.461348 -3.8754053 -12.607654 -11.70524 -11.741655
-6.097266 -6.529708 -6.7960386 -6.687574 -6.859758 -4.248299 -5.457395 -3.9571445
-3.7521248 -12.824797 -12.079305 -11.999231 -6.221895 -5.9944015 -6.860095 -6.708057
-6.756337 -4.2687883 -5.169551 -4.1899457 -4.223666 -12.578232 -11.689594 -12.057615
-6.1213045 -6.610969 -6.5473166 -6.765084 -6.7349935 -4.675827 -5.3152733 -3.9865081
-3.837682 -12.679406 -11.815891 -11.991898 -6.1236043 -6.0557446 -6.8981476 -6.938819
-6.5375853 -4.29886 -5.272252 -4.4026275 -3.816544 -12.799436 -11.707542 -11.500124
-6.507346 -6.0107594 -6.561772 -6.5782385 -6.8731303 -4.475565 -5.6131024 -4.4935565
-4.174081 -12.860152 -11.548843 -11.610795 6.177473 6.2776356 6.7713633 6.400518
6.991219 4.582476 5.1048207 3.9248722 4.006496 12.549736 11.951338 11.770424
-6.168623 -6.1446977 -6.563328 -6.5123053 -6.9758058 -4.515627 -5.3923435 -4.3772745
-4.037955 -12.697034 -12.090466 -11.975394 -5.9962473 -6.452195 -6.7585177 -6.5109706
-6.9495764 -4.699544 -5.372626 -3.9986165 -4.2729807 -12.695488 -12.0978155 -11.596548
5.9249454 6.219294 6.964308 6.3078756 7.0085015 4.2013288 5.2531886 4.0046363
4.0777416 12.260857 11.597914 11.570163 -6.2027073 -6.4150558 -6.6923323 -6.9422483
-6.9396815 -4.240009 -5.4426427 -4.0589314 -4.1551585 -12.49994 -11.709238 -11.880419

fc1.bias f4 [16]
00000000: 9e09 b4c1 3d03 b341 cd55 b241 4f07 b4c1
00000010: e7e5 b3c1 5f80 b141 ef9e b441 ba8e b341
00000020: 2c3b b341 00cd b341 ea08 b341 cbff b1c1
00000030: 6c4e b141 126c b141 8aaa b2c1 4de9 b141
-22.504696 22.376581 22.291895 -22.503569 -22.487257 22.187681 22.577604 22.44469
22.403893 22.475098 22.379353 -22.249899 22.163292 22.177769 -22.333271 22.238916

fc2.weight f4 [16, 16]
00000000: 5c47 4941 fe7b 4ac1 4ef5 46c1 bca2 4841
00000010: c233 4a41 bffc 46c1 557c 4ac1 a051 48c1
00000020: c9a5 44c1 f3ff 46c1 0c6a 44c1 151f 4541
00000030: adec 41c1 7a36 47c1 cb8c 4641 c74d 49c1
00000040: 280d 4ac1 c8ca 4d41 e4a6 4541 6c20 4cc1
00000050: db29 4ec1 395f 4c41 7006 4941 19eb 4c41
00000060: 2ba4 4a41 5314 4c41 071b 4b41 ae07 48c1
00000070: 8164 4741 0c89 4541 4676 48c1 b1f2 4741
00000080: 6c29 4441 3cb3 47c1 eea1 46c1 57c7 4c41
00000090: ff71 4641 cc0c 4cc1 d60c 4cc1 19e0 47c1
000000a0: e3c3 4dc1 267c 45c1 47b6 45c1 74f8 4641
000000b0: 1650 48c1 f20c 4dc1 bf08 4941 9d27 4bc1
000000c0: 7eee 4541 2e09 48c1 cfbc 48c1 95b1 4c41
000000d0: e2c5 4841 2398 49c1 20a0 4bc1 5149 48c1
000000e0: 2ca8 4cc1 7a29 4dc1 e068 49c1 7d40 4541
000000f0: 87a2 48c1 7f32 46c1 ca30 4941 01aa 4cc1
00000100: f527 4441 e062 4ac1 67c5 43c1 fa2b 4941
00000110: 4fb9 4b41 fa92 4cc1 415e 49c1 b371 4ac1
00000120: b5ce 47c1 138b 48c1 0c1b 48c1 0741 4641
00000130: 80a3 45c1 a8e9 4bc1 b349 4741 a808 47c1
00000140: f572 4bc1 cdc7 4d41 ba77 4641 a745 4dc1
00000150: 9751 4bc1 7c49 4641 d849 4d41 5d99 4941
00000160: 33f2 4d41 80a9 4541 eedf 4441 031c 48c1
00000170: 4e9f 4b41 e741 4d41 9acc 47c1 dc33 4641
00000180: bbb8 46c1 c787 4841 98ee 4a41 b1d7 48c1
00000190: b60d 48c1 42a2 4b41 bf11 4b41 0c3c 4c41
000001a0: 3065 4741 1bf3 4c41 7f9f 4b41 daa0 47c1
000001b0: 1892 4541 e882 4c41 bcc7 45c1 0fd5 4841
000001c0: a387 4bc1 91df 4c41 d89c 4541 e3c4 4bc1
000001d0: 5fad 4dc1 9c96 4741 c76f 4941 dffe 4941
000001e0: fa1e 4a41 2bd3 4d41 4922 4941 1d36 4bc1
000001f0: 677e 4b41 8632 4a41 6da0 45c1 1dda 4a41
00000200: 3590 46c1 8142 4e41 0bf7 4c41 781d 48c1
00000210: 559e 4cc1 24ea 4541 d60e 4e41 6746 4641
00000220: ca5b 4c41 8f30 4841 9a0c 4541 3121 4ac1
00000230: b20c 4a41 2734 4c41 8d0b 46c1 2335 4741
00000240: b112 4b41 a8f5 4bc1 c91c 4cc1 15cd 4b41
00000250: d297 4b41 6610 4bc1 53a8 48c1 fe1a 46c1
00000260: 4550 4dc1 73bf 4cc1 7e5a 46c1 0400 4b41
00000270: 0196 48c1 abda 46c1 6751 4a41 40ed 44c1
00000280: 7e0a 49c1 c5ab 4a41 c070 4641 3322 4dc1
00000290: 3b75 49c1 3d50 4a41 c62a 4a41 aaea 4941
000002a0: ed5e 4d41 0bcd 4d41 e1ef 4a41 954b 4cc1
000002b0: bf32 4841 9b43 4a41 20e6 49c1 e27c 4b41
000002c0: 20c3 48c1 26af 4c41 c6f5 4841 5c82 4ac1
000002d0: 1e2d 49c1 e961 4c41 4c2e 4641 de71 4841
000002e0: f3f1 4c41 1c5f 4641 0f2c 4a41 1e0f 4ac1
000002f0: 8e65 4541 7557 4841 7825 49c1 8493 4741
00000300: 7101 4c41 498f 4dc1 8008 48c1 1430 4841
00000310: 6010 4c41 3822 4cc1 a89a 4ac1 50c6 4ac1
00000320: 2432 4ac1 07c6 4dc1 0ab0 44c1 81ee 4441
00000330: a240 48c1 9855 4cc1 c4c9 4441 f099 49c1
00000340: e195 47c1 de9c 4841 64b3 4741 f6b0 46c1
00000350: b1d9 4dc1 69be 4a41 149d 4d41 6558 4941
00000360: 42cf 4b41 ef6b 4d41 88fe 4441 829f 45c1
00000370: b308 4b41 12d3 4741 4497 48c1 6f5b 4c41
00000380: 1380 4bc1 a277 4741 8c58 4a41 7aea 46c1
00000390: 1f46 47c1 78ad 4741 abcc 4941 c8aa 4841
000003a0: ac69 4841 6756 4b41 5168 4941 ed20 4ac1
000003b0: 403a 4541 9e30 4b41 75da 47c1 f725 4a41
000003c0: 6e4b 4bc1 acd1 4941 637e 4b41 6176 4ac1
000003d0: 0bbd 4dc1 47bc 4d41 d402 4e41 8753 4841
000003e0: 58f8 4a41 f4da 4c41 f845 4541 427c 48c1
000003f0: 5c2b 4c41 3b54 4d41 b810 4ac1 fe02 4741
12.579922 -12.655272 -12.434889 12.53973 12.637636 -12.436706 -12.6553545 -12.519928
-12.290475 -12.437488 -12.27589 12.320088 -12.120282 -12.4508 12.409373 -12.581489
-12.628212 12.862007 12.353245 -12.7579155 -12.885219 12.773248 12.564072 12.807397
12.66508 12.754962 12.694098 -12.501875 12.462037 12.345959 -12.528875 12.496751
12.260113 -12.481258 -12.414534 12.798667 12.402831 -12.753124 -12.753134 -12.492211
-12.860324 -12.34281 -12.357001 12.4356575 -12.519552 -12.81566 12.564635 -12.697171
12.370726 -12.502241 -12.546096 12.793355 12.548311 -12.599643 -12.726593 -12.5178995
-12.791058 -12.822626 -12.588104 12.328244 -12.53968 -12.387328 12.574411 -12.791505
12.259755 -12.649139 -12.235694 12.573236 12.732741 -12.785883 -12.585511 -12.652759
-12.487966 -12.533954 -12.506603 12.390876 -12.352417 -12.744545 12.455493 -12.439613
-12.715566 12.8612795 12.40423 -12.829505 -12.707419 12.3929405 12.830528 12.599942
12.871631 12.353882 12.30467 -12.506839 12.726393 12.828589 -12.487452 12.387661
-12.4201 12.533149 12.68325 -12.552659 -12.503347 12.727114 12.691833 12.76466
12.462204 12.809352 12.726439 -12.47677 12.348167 12.78196 -12.361263 12.552016
-12.720614 12.804582 12.350792 -12.735568 -12.854827 12.47427 12.589789 12.624724
12.632563 12.864055 12.57087 -12.700711 12.71836 12.637335 -12.351666 12.67825
-12.410207 12.891236 12.810313 -12.5071945 -12.788655 12.369663 12.878622 12.392188
12.772409 12.511855 12.315577 -12.633103 12.628099 12.7627325 -12.37782 12.450473
12.692063 -12.747475 -12.757028 12.737569 12.7245655 -12.691504 -12.541095 -12.38159
-12.832097 -12.796741 -12.397093 12.687504 -12.536622 -12.428386 12.644874 -12.307922
-12.565062 12.666936 12.402527 -12.820849 -12.591121 12.644589 12.635443 12.619791
12.835675 12.862559 12.683564 -12.768453 12.512389 12.641505 -12.618683 12.717989
-12.547638 12.792761 12.560003 -12.656826 -12.573515 12.773904 12.386303 12.5278
12.80907 12.39822 12.6357565 -12.628691 12.337294 12.521352 -12.571648 12.473515
12.750352 -12.847482 -12.502075 12.511738 12.753998 -12.758354 -12.662758 -12.673416
-12.637241 -12.8608465 -12.292978 12.3082285 -12.5157795 -12.770897 12.299259 -12.600082
-12.474092 12.538298 12.481297 -12.418203 -12.865647 12.671487 12.850849 12.584081
12.7381 12.838851 12.312141 -12.351442 12.689624 12.489031 -12.53693 12.772323
-12.718768 12.466707 12.646618 -12.432245 -12.454619 12.479851 12.612468 12.541695
12.525799 12.708594 12.587968 -12.6330385 12.326721 12.699369 -12.490834 12.634269
-12.705915 12.613689 12.718356 -12.653901 -12.858653 12.858466 12.87569 12.520392
12.685631 12.803455 12.329582 -12.530336 12.760586 12.833064 -12.629082 12.4382305

fc2.bias f4 [16]
00000000: d6bf acc1 2f75 af41 07ca b0c1 5177 b1c1
00000010: 7858 aec1 238f b141 2134 b041 116b af41
00000020: 866e ae41 1c54 b1c1 27a6 b141 d235 b141
00000030: d4e9 b0c1 9873 b141 9424 b041 cbc3 ae41
-21.59367 21.932219 -22.098646 -22.18326 -21.793198 22.194891 22.025454 21.927279
21.803967 -22.166069 22.20613 22.15128 -22.114174 22.181442 22.01786 21.845602

fc3.weight f4 [16, 16]
00000000: d952 4641 1c5a 48c1 32a9 4c41 29ae 4741
00000010: 1647 4541 b4ab 4bc1 6def 4cc1 f4c5 49c1
00000020: 8b13 4dc1 808c 4d41 24f3 4bc1 13d1 4ac1
00000030: 4f1a 4c41 9d45 4ac1 0fb5 4cc1 3242 47c1
00000040: 8d10 43c1 90d9 4a41 19c9 4bc1 9b03 48c1
00000050: 64c4 47c1 b3d6 4a41 70c4 4b41 a231 4b41
00000060: da71 4c41 a04c 45c1 34c9 4c41 e828 4d41
00000070: 3987 4cc1 90b2 4a41 b722 4a41 ad8e 4941
00000080: 4c90 47c1 924e 4a41 c997 45c1 5d61 48c1
00000090: b6ab 4bc1 09af 4941 aba6 4441 24d2 4741
000000a0: 6480 4b41 b52f 45c1 d654 4541 8afd 4741
000000b0: 838c 47c1 11c5 4a41 1d2a 4941 7d85 4841
000000c0: d1b0 47c1 0090 4541 8deb 48c1 cfff 46c1
000000d0: 1e6b 4bc1 3b7a 4641 9aaa 4d41 4f93 4841
000000e0: 7b03 4641 a39b 47c1 0320 4d41 4df5 4c41
000000f0: 9004 49c1 05f7 4841 a5de 4b41 1e1d 4741
00000100: 79f1 47c1 e4ea 4541 77e5 46c1 bcb3 45c1
00000110: d96c 49c1 d314 4a41 628e 4841 3c18 4741
00000120: a9f5 4841 fc8d 4dc1 61c5 4641 bc77 4a41
00000130: e2d8 49c1 c21c 4a41 4ee0 4a41 0a94 4741
00000140: c158 44c1 4f04 4941 16e8 44c1 e6bb 45c1
00000150: 5dcb 48c1 50ef 4941 860d 4541 6bc3 4241
00000160: 6e92 4841 075d 4ac1 7772 4541 33ea 4941
00000170: a26b 47c1 8445 4741 5ac2 4541 8348 4641
00000180: 3125 4241 a20c 4ac1 afb8 4641 015a 4941
00000190: 5d19 4541 1dcc 49c1 0c1b 4dc1 6050 4bc1
000001a0: 0b9f 47c1 0602 4b41 5b3d 4dc1 8e4d 4dc1
000001b0: 7718 4a41 fa48 4cc1 3772 4cc1 2607 4cc1
000001c0: e424 48c1 3744 4741 f61e 48c1 1e49 4cc1
000001d0: fdb7 48c1 aa86 4a41 9598 4a41 0502 4b41
000001e0: 7fca 4a41 9dec 4bc1 9042 4a41 fc46 4741
000001f0: 4adf 48c1 54aa 4a41 76b0 4741 f904 4c41
00000200: c156 4041 8cb0 4bc1 7af1 4341 8e1b 4941
00000210: f7e0 4741 04b8 47c1 78ae 45c1 0300 48c1
00000220: 8622 46c1 5a5e 4a41 30e6 47c1 d3fe 44c1
00000230: 1fb6 4541 ed4c 4ac1 e642 48c1 1975 4ac1
00000240: e60b 4141 be72 4ac1 eaf3 4741 7768 4c41
00000250: ce73 4241 40a8 4ac1 91cc 49c1 c830 4cc1
00000260: cb25 4ac1 1178 4641 7bdf 49c1 f5b9 46c1
00000270: 3503 4841 0570 46c1 0b97 4ac1 e29c 4bc1
00000280: 8d4c 4241 1980 49c1 bc67 4841 0e48 4341
00000290: 553d 4741 4354 4bc1 282e 46c1 7246 47c1
000002a0: 69cf 45c1 99e2 4841 a7a1 49c1 5152 4ac1
000002b0: 9562 4441 b07c 48c1 47ff 46c1 0b7a 44c1
000002c0: 3273 43c1 40de 4641 717b 41c1 d933 43c1
000002d0: 10a9 47c1 21b3 4041 9088 4641 3f1c 4541
000002e0: 5b86 4441 990c 45c1 b3ca 4541 391b 4641
000002f0: c101 47c1 ebcf 4641 5d69 4341 d773 4741
00000300: 9418 4bc1 01f2 4741 e626 46c1 352d 47c1
00000310: 024a 47c1 29db 4b41 e253 4741 c6af 4b41
00000320: 001b 4641 a60d 48c1 47d2 4741 db9f 4441
00000330: 2453 45c1 0439 4b41 947c 4c41 7525 4941
00000340: 35ca 46c1 69ca 4c41 1894 4cc1 c9ae 48c1
00000350: 18a1 4ac1 54f3 4741 523e 4c41 fd03 4841
00000360: e648 4b41 a394 4ac1 4026 4c41 df5d 4641
00000370: ea05 47c1 298a 4841 4e6b 4541 1005 4841
00000380: 4be3 4341 ce61 44c1 310e 4441 3a10 4441
00000390: ac28 4541 eb66 4ac1 a04a 48c1 f0c6 47c1
000003a0: 2e35 49c1 f3ca 4341 562f 45c1 c98d 4ac1
000003b0: 3368 4741 f524 48c1 3c26 48c1 091f 43c1
000003c0: 81bf 46c1 4cb5 4641 3097 49c1 771d 4ac1
000003d0: a306 49c1 c0e7 4b41 8b32 4641 1313 4c41
000003e0: 1d6c 4741 f412 49c1 8269 4b41 4750 4541
000003f0: 7ebe 48c1 a274 4841 c8fb 4a41 fca2 4641
12.3952265 -12.521999 12.791307 12.48002 12.329855 -12.72942 -12.808454 -12.610828
-12.817271 12.846802 -12.7468605 -12.6760435 12.756423 -12.641995 -12.794204 -12.453661
-12.191541 12.678116 -12.736596 -12.50088 -12.485447 12.677417 12.735458 12.699617
12.777796 -12.331207 12.799122 12.822487 -12.783013 12.668594 12.633475 12.597333
-12.472729 12.644182 -12.349557 -12.52377 -12.729422 12.605233 12.29069 12.488804
12.718845 -12.324147 12.333212 12.499399 -12.471805 12.673112 12.572782 12.53259
-12.480668 12.347656 -12.5575075 -12.437453 -12.713652 12.404841 12.854151 12.535964
12.37585 -12.475497 12.820315 12.809888 -12.563614 12.5603075 12.741857 12.444609
-12.496453 12.369846 -12.431022 -12.35638 -12.589074 12.630084 12.534761 12.443417
12.559976 -12.847164 12.423188 12.654232 -12.61545 12.632021 12.679762 12.473642
-12.271668 12.563552 -12.306662 -12.358374 -12.549649 12.620926 12.315802 12.172709
12.535749 -12.647712 12.3404455 12.619678 -12.463778 12.454472 12.359949 12.392703
12.13408 -12.628084 12.420089 12.584474 12.318692 -12.612332 -12.819103 -12.707123
-12.476329 12.687994 -12.827479 -12.831434 12.630973 -12.767817 -12.7778845 -12.751745
-12.5090065 12.454154 -12.507559 -12.767851 -12.544919 12.657877 12.662251 12.687993
12.6744375 -12.745267 12.641251 12.45483 -12.554514 12.666584 12.480581 12.751214
12.02118 -12.730602 12.246454 12.569227 12.492423 -12.482426 -12.355095 -12.500003
-12.383429 12.648035 -12.493698 -12.312213 12.356963 -12.643781 -12.516333 -12.653588
12.065405 -12.653013 12.497049 12.775504 12.153273 -12.666077 -12.612443 -12.7619095
-12.634227 12.404313 -12.617061 -12.4204 12.500783 -12.4023485 -12.661876 -12.725801
12.143689 -12.593774 12.525326 12.205091 12.452474 -12.708072 -12.386269 -12.454699
-12.363137 12.555322 -12.601966 -12.645097 12.274068 -12.530441 -12.437324 -12.279796
-12.215624 12.42926 -12.092637 -12.200158 -12.478775 12.043733 12.40834 12.319396
12.282802 -12.315576 12.361987 12.381646 -12.437928 12.425761 12.213223 12.465781
-12.6935005 12.496583 -12.384497 -12.448537 -12.455568 12.741006 12.457979 12.730413
12.381592 -12.503332 12.488837 12.289027 -12.332798 12.70142 12.780415 12.571645
-12.424367 12.799417 -12.786156 -12.542672 -12.66433 12.496906 12.765215 12.500974
12.705297 -12.661288 12.759338 12.397918 -12.438944 12.5337305 12.338697 12.501236
12.242991 -12.273878 12.253465 12.253962 12.32243 -12.650126 -12.518219 -12.486069
-12.575483 12.237048 -12.324057 -12.6596155 12.462939 -12.509023 -12.509335 -12.195077
-12.421754 12.419262 -12.599411 -12.632194 -12.56412 12.74408 12.38734 12.754657
12.463895 -12.567127 12.713259 12.332099 -12.546507 12.528475 12.68647 12.414791

fc3.bias f4 [16]
00000000: 8f61 afc1 669b ad41 091e ae41 bdc8 ad41
00000010: cbb0 ae41 98e9 ab41 ea76 adc1 9a68 ae41
00000020: b951 aac1 66cb aac1 3920 aac1 d8e3 ab41
00000030: b7ae ad41 49d4 ab41 9897 acc1 78ba ae41
-21.922636 21.700878 21.764666 21.723017 21.836325 21.48906 -21.683064 21.801075
-21.289904 -21.349316 -21.265734 21.486252 21.71031 21.478655 -21.57402 21.84105

fc4.weight f4 [13, 16]
00000000: 370d 98bd 37e4 cd3d 6102 03be 30d3 b43d
00000010: 89c5 8cbe 2187 513d 16b3 6b3c 9e7c 00bd
00000020: 01a5 13be 256c 9c3d f274 ac3d 38d8 433e
00000030: 0fd9 9a3d d456 d83b 120c 083d d2f0 a0bd
00000040: a788 1fbe 69c9 853e fdb3 90bc 3db2 863d
00000050: a681 ecbc 6194 803e 2c24 2fbe f67d 593e
00000060: 8961 e03d 7a85 773e f63c 253d b54e f4be
00000070: 573d 36be 7bd2 5a3d d4af 573e cede 00be
00000080: 5807 8bbe e888 673e 303a 833e 104b acbd
00000090: d04c 9e3d 3894 f4bd a3e2 e13d 8e10 433e
000000a0: 69f3 673e 4379 47be d6a6 1c3d d920 03bf
000000b0: 575b 9e3d c7b7 c6bd c00b 563d a274 02bd
000000c0: 9e33 0d3e ddde fabd d494 973d 7f15 283e
000000d0: e510 0c3e e5d2 2c3e 7a33 41be 5707 363d
000000e0: 60f9 6f3e 8b9d 0b3e b48a 46bc 59c2 88be
000000f0: 260e 81be 8ce3 df3d ecb1 14be 42ea 2bbd
00000100: 6aba d940 59a4 ccc0 6348 d9c0 8376 d8c0
00000110: a69a d4c0 5a21 d2c0 65d2 d740 d933 cec0
00000120: e0e8 d140 12fa d640 62be d240 bdde cec0
00000130: 9526 d6c0 0826 cec0 6ae8 d640 2659 d5c0
00000140: 0a42 1bbe 852d 37be 8a1f 233e b1fc 1b3d
00000150: 2c82 723e 8417 00bd 4082 5f3e f32d c0bd
00000160: f6d0 4d3d 85c8 3f3e 345a 603e 0fe9 00be
00000170: c664 43bd d29f 333e 4216 bfbd 90ce b6bd
00000180: 878a b240 09cb bac0 6910 bbc0 cac5 b3c0
00000190: a523 b7c0 6e48 b7c0 445f bb40 df4b b1c0
000001a0: 5f25 b840 2fbd b540 69af b740 0fea adc0
000001b0: 9940 b0c0 17be bac0 ae8a af40 6bfd b7c0
000001c0: c956 22bc fe66 7cbd 9fc1 5ebd 065c d6bd
000001d0: 7ddc 683e 6c03 7c3d c08c 3dbe 955d 7a3e
000001e0: 3de1 803e ae14 aa3c c6c8 3c3e 83c8 93be
000001f0: 1133 c0bd 528b 313e 9d68 833d 9d95 9cbd
00000200: 0b05 a940 e473 aac0 98eb a3c0 1fa9 a9c0
00000210: 8ad9 a8c0 06e6 a0c0 2e86 a340 b222 afc0
00000220: a9a8 ab40 c6ae ac40 aa0b a140 f3a5 a5c0
00000230: 38de adc0 0317 a9c0 93f6 ae40 d67d afc0
00000240: cc34 da40 0316 dfc0 fe5f d4c0 4396 dfc0
00000250: 3f85 dfc0 c876 ddc0 01be dc40 5752 dec0
00000260: 5b18 db40 4ebb db40 aa67 dd40 016a d3c0
00000270: 8583 d3c0 6033 dcc0 1dfe d440 271b d2c0
00000280: e72a 29bd a02f 5c3e c9a6 96bd 6a07 773c
00000290: a4ba 083e 5470 9e3d 93e2 d83c 9d2a 733e
000002a0: 89b1 853e 2c1c dbbd 4d8e c73e a3da c1be
000002b0: a2e2 0ebe 4de6 4cbe e0ed 393e 8430 333e
000002c0: 9e42 e240 3193 ddc0 465a d8c0 5956 d6c0
000002d0: a6f9 dfc0 c9c1 d5c0 5e8b d940 28dc d7c0
000002e0: adf3 db40 3cd9 d840 109d df40 7889 dcc0
000002f0: 24ac e0c0 bf7c e3c0 7a1b d440 22a5 ddc0
00000300: 4a62 aa40 d4e6 acc0 243d a5c0 9ee5 a9c0
00000310: d4ff a2c0 b842 a3c0 73fc aa40 d7eb aac0
00000320: d895 a040 3886 af40 a4a6 9e40 797e adc0
00000330: 5200 a9c0 9a5d b0c0 8c28 ad40 6758 aac0
-0.074243955 0.10053294 -0.12793876 0.08829343 -0.27494457 0.05115426 0.014385959 -0.031368844
-0.14418413 0.076378144 0.08420743 0.1912545 0.07560932 0.0066021476 0.033214636 -0.07858433
-0.15579472 0.26130226 -0.01766395 0.06576965 -0.028870415 0.25113204 -0.17103642 0.21239457
0.10956103 0.24172011 0.04034134 -0.477163 -0.17796837 0.053423386 0.21063167 -0.12584993
-0.2715404 0.2261082 0.2563033 -0.084127545 0.077294946 -0.11942333 0.11029556 0.19049284
0.22651447 -0.19479851 0.038245045 -0.51221997 0.077322654 -0.097030215 0.0522573 -0.03184951
0.13789222 -0.12249539 0.074014336 0.1641445 0.1367832 0.16877325 -0.18867293 0.044440594
0.23434973 0.13634317 -0.01211803 -0.26710775 -0.25206107 0.10932073 -0.14520997 -0.041971453
6.8040056 -6.395062 -6.7900863 -6.764467 -6.643878 -6.566571 6.744433 -6.443829
6.559677 6.718026 6.58574 -6.4646897 -6.6922097 -6.4421425 6.715871 -6.6671324
-0.1516191 -0.17888458 0.1593 0.038082782 0.23682469 -0.031272426 0.2182703 -0.09383764
0.05024811 0.18728836 0.2190941 -0.12588905 -0.047703527 0.17541435 -0.09330417 -0.089261174
5.57941 -5.8372846 -5.845753 -5.617894 -5.723101 -5.7275915 5.855379 -5.5405116
5.754562 5.6793437 5.7401624 -5.4348216 -5.5078855 -5.8357043 5.4856787 -5.749685
-0.0099083865 -0.06162166 -0.05438387 -0.10466771 0.2274036 0.0615267 -0.18510723 0.24449761
0.25171843 0.020761814 0.18435964 -0.28863916 -0.0938474 0.17338303 0.06416438 -0.07645724
5.2818656 -5.326647 -5.122509 -5.3018947 -5.276555 -5.028079 5.1101294 -5.4729853
5.3643384 5.3963346 5.032674 -5.1765075 -5.4333763 -5.284059 5.4675994 -5.484111
6.818945 -6.971437 -6.636718 -6.9870925 -6.9850154 -6.9207497 6.898194 -6.9475513
6.846723 6.8666143 6.9189043 -6.60669 -6.6098046 -6.8812714 6.6560197 -6.5658145
-0.04130068 0.21502542 -0.073560305 0.015077451 0.13352448 0.07736269 0.026475227 0.23746724
0.2611201 -0.10698733 0.38975754 -0.3786212 -0.13953641 -0.20009728 0.18157148 0.17498976
7.070632 -6.9242177 -6.7610197 -6.6980405 -6.9992247 -6.6799054 6.7982626 -6.7456245
6.8734956 6.776518 6.9879227 -6.891781 -7.0210133 -7.108978 6.628354 -6.926408
5.324498 -5.4031773 -5.1637135 -5.3092794 -5.093729 -5.1018944 5.3433166 -5.341289
5.0182915 5.485134 4.957842 -5.4216886 -5.281289 -5.511426 5.4111996 -5.3232913

fc4.bias f4 [13]
00000000: f430 40c0 1673 e1c0 016c f6c0 bd95 fcc0
00000010: def1 22c1 e394 f3c0 7df4 10c1 0d7a 06c1
00000020: 9756 09c1 aede 28c1 14ae 07c1 adc0 27c1
00000030: f714 0bc1
-3.0029879 -7.0452986 -7.700684 -7.8932786 -10.18405 -7.6119246 -9.0596895 -8.404798
-8.58364 -10.554365 -8.48 -10.48454 -8.692618
