MRTAWorld_DQN/PruebasDef/PruebaDef3/DQN_model_2Tasks_CasoX.pth (torch, 6004 bytes, 8 tensors)

fc1.weight f4 [16, 2]
000000 a8 9b 91 3d d8 91 14 c0 0d 59 c4 3e 59 3a 29 3f
       0.07109767 -2.3214016 0.3834919 0.66104656
000010 3c e6 c7 bf f1 7c cb 3a 84 b6 02 bf ba 4d 17 bf
       -1.5617137 0.0015524906 -0.51059747 -0.59102976
000020 73 59 8d bf d8 72 1a bf 69 fc 8e be 5d c7 25 3f
       -1.1042923 -0.6033149 -0.2792695 0.6475733
000030 74 45 75 3f 79 14 4e be bb 79 33 3f 7e 08 ba 3e
       0.958091 -0.20124997 0.7010762 0.36334604
000040 c4 83 1e 3f 1d 3d 4d bf b2 a4 be bf 8b fc b2 3d
       0.6191981 -0.80171376 -1.4894011 0.08739575
000050 e3 95 4a bf 11 9e fd 3d 32 2a b7 3d 30 64 b7 3f
       -0.7913496 0.123836644 0.08943595 1.432745
000060 f6 5e 5b 3f 5a b2 23 3f 6c e9 9b 3f a4 af 4e bd
       0.85691774 0.6394402 1.218061 -0.050460473
000070 6d 80 25 bf 2c 4b 3a bf aa 02 f5 3d a0 dc ae 3f
       -0.6464909 -0.72770953 0.11963399 1.366108

fc1.bias f4 [16]
000000 89 57 f4 bf da 45 b7 3f ef 76 9f bf 00 b9 6c 3f
       -1.9089214 1.4318192 -1.2458171 0.9246979
000010 21 c1 48 3e 1a 7c 96 bf 12 32 2c c0 56 9e bb 3f
       0.19604923 -1.1756623 -2.690556 1.4657695
000020 dd 22 b3 3f 29 a6 a0 bf a4 6b 23 40 3e 42 c0 bf
       1.3995014 -1.2550708 2.5534449 -1.5020216
000030 42 0f bc bf 9d 28 1d c0 36 18 e5 3f 43 f8 ba bf
       -1.4692156 -2.4556038 1.7898014 -1.4607013

fc2.weight f4 [16, 16]
000000 02 91 a0 c0 a9 18 9b be 45 b8 73 c0 ec 97 a6 3e
       -5.017701 -0.30292252 -3.808122 0.32537782
000010 a7 b8 ef 3e 84 6d 95 be 17 6c 2b be 48 4e 9e bb
       0.46820566 -0.29185116 -0.16740452 -0.004831109
000020 0f 09 62 3f 0b df 68 c0 08 2f 77 be 1a 69 37 bf
       0.8829507 -3.6386135 -0.24139035 -0.7164475
000030 3a b6 0a be 67 98 31 bd cb bf 02 3f d7 d8 4b bf
       -0.13546076 -0.043358233 0.510739 -0.79627746
000040 b7 2e 83 c0 59 65 86 bd 15 21 5c c0 fb 13 1f 3f
       -4.0994525 -0.06562299 -3.4395192 0.6213986
000050 58 8a b6 be c6 3c 13 bf 01 5a b8 be 17 ce 2e 3e
       -0.35652423 -0.5751461 -0.36006168 0.17070805
000060 dc 06 2a 3f 2a 12 26 c0 15 11 a8 3e 43 5d 24 bf
       0.66416717 -2.5948586 0.32825533 -0.64204806
000070 8c 63 32 bf 11 c3 83 be 7d 65 0e 3f 4c 79 2c bf
       -0.69683146 -0.2573476 0.5562361 -0.67372584
000080 a9 ca 83 c0 38 24 00 3f 45 28 33 c0 30 db 0d 3f
       -4.118489 0.50055265 -2.7993329 0.5541258
000090 72 4e b1 be 97 63 2b be 5f 11 54 bf 38 de ee bd
       -0.34630162 -0.1673721 -0.82839006 -0.116634786
0000a0 8b 9d fe 3d dc 48 d9 bf f6 90 70 3f fe 23 74 bf
       0.12432393 -1.697536 0.9397119 -0.9536742
0000b0 b9 62 82 bf cf 0b 23 bf 4b 34 22 3f ff 45 30 bf
       -1.0186378 -0.63689893 0.6336104 -0.68856806
0000c0 db 7e 8b c0 a8 9a b5 bd 37 4b 34 c0 02 ce e4 3e
       -4.3592353 -0.08867389 -2.8170907 0.4468842
0000d0 70 99 48 3d fe c4 75 be 55 70 15 bf 3b d0 d9 be
       0.048974454 -0.24000928 -0.5837453 -0.4254168
0000e0 a4 ff ca bd b6 48 19 c0 60 52 07 3f d2 95 26 bf
       -0.09912041 -2.395063 0.5286007 -0.6507236
0000f0 dc 51 a3 be f5 d8 0d bf 15 cf 0c 3f a8 4d e7 be
       -0.3189839 -0.55409175 0.5500348 -0.45176435
000100 96 ba 6f c0 86 77 be 3e 08 83 48 c0 76 66 27 3f
       -3.7457633 0.37200564 -3.1329975 0.6539072
000110 a4 e9 77 be bc eb 59 be 68 7e c6 be dc 2c 7b 3e
       -0.2421022 -0.21281332 -0.38768315 0.24528831
000120 60 17 0e 3f 22 37 f9 bf cc cc 34 3f 9a 09 85 bf
       0.5550442 -1.946995 0.70624995 -1.0393555
000130 86 b5 54 bf 63 7f 54 bf 0f 86 ec 3e a1 3a 58 bf
       -0.8308948 -0.83006877 0.4619603 -0.8446446
000140 14 a2 5f c0 6d a5 96 3f a2 df 09 c0 47 86 87 3f
       -3.4942675 1.1769234 -2.1542745 1.0587853
000150 1c f9 a8 be 1b e7 59 bf cb 25 a9 bf a7 08 87 3f
       -0.33002555 -0.85118264 -1.3214658 1.0549515
000160 be 43 25 3f 8d e9 bf be 21 d5 9f 3f ed b6 8f bf
       0.6455649 -0.37482873 1.2486917 -1.12277
000170 ff 1d 61 bf f1 65 ab bf 8e e0 7a 3f 56 5a 84 bf
       -0.87936395 -1.3390485 0.97998893 -1.0340068
000180 83 66 a3 40 8b fd 97 3f e4 ef 34 40 e8 31 6b 3e
       5.1062636 1.187425 2.8271418 0.22968256
000190 21 0a 80 bf 9f 8b 13 bf 4d 47 8d bf b7 0a b7 3f
       -1.0003091 -0.5763492 -1.1037384 1.4300145
0001a0 b2 f2 6a 3f 74 46 61 40 05 3b 94 3f cc 5f 08 bf
       0.91776574 3.519925 1.1580511 -0.53271174
0001b0 79 2e 9b be 0d f3 24 bf 5c 08 4b 3f 76 b5 00 bf
       -0.30308893 -0.64433366 0.7930963 -0.5027689
0001c0 f3 80 80 c0 32 3f 4e 3f da f0 0f c0 ee 21 27 3f
       -4.015741 0.8056518 -2.2490754 0.6528615
0001d0 e4 9d da be 66 d0 12 bf 46 7d 0f bf 5b a9 2b 3f
       -0.42698586 -0.5734924 -0.5605053 0.6705529
0001e0 8f 59 e9 3e 36 bb 79 bf 0f 48 8b 3f 55 60 26 bf
       0.4557614 -0.97551286 1.0881366 -0.6499074
0001f0 dc 6e 4e bf 62 7b 2c bf ca 72 1d 3f 6b 7b 24 bf
       -0.8063791 -0.6737577 0.6150328 -0.6425082
000200 fc 2e 78 c0 b3 18 2c 3f cf 66 2c c0 e3 3e 23 3f
       -3.8778677 0.6722519 -2.693775 0.6376783
000210 6e b1 f4 be 90 d0 a2 be 12 72 17 bf 62 6a f3 3e
       -0.47791618 -0.31799746 -0.5915843 0.475421
000220 3a 81 d5 3e 3a 70 5c bf 5f d5 82 3f 1d 67 42 bf
       0.41700155 -0.86108744 1.0221366 -0.7593859
000230 80 1c 07 bf 6f 6d 73 bf ab ae 7b 3f bb cf 07 bf
       -0.5277786 -0.9508886 0.983134 -0.53051347
000240 17 b9 81 c0 13 1b 2a 3e b4 d9 4a c0 b2 2e 12 3f
       -4.053844 0.1661189 -3.1695375 0.571025
000250 64 b5 5c 3c be ae 06 bc 35 bd 10 bf c7 70 31 be
       0.013470981 -0.008220373 -0.56538707 -0.17328177
000260 2e 81 76 3e 7a f5 12 c0 13 f5 d7 3e 8b 87 e2 be
       0.24072716 -2.2962327 0.42179164 -0.44244036
000270 14 9b 1b bf b9 84 01 bf 78 b1 32 3f aa c9 07 bf
       -0.60783505 -0.50593144 0.69802046 -0.5304209
000280 fd 99 8d c0 cd 73 c6 bd 30 ee 77 c0 c2 d3 d8 3c
       -4.4250474 -0.09690056 -3.8739128 0.026468161
000290 21 e9 9b 3e 1f 63 cf be 18 0a d5 3d 85 18 b3 bd
       0.304513 -0.4050531 0.10402316 -0.08744911
0002a0 b6 9f f2 3d 66 e4 77 c0 b0 9d 4b 3e f0 1f 62 bf
       0.11846869 -3.8733153 0.19884372 -0.8832998
0002b0 af e7 67 be 28 ec 3a 3d 5e 28 0f 3e 16 85 2f bf
       -0.22646974 0.045635372 0.13980243 -0.6856245
0002c0 9f 8c f9 40 2a 09 77 3d aa d1 92 40 7e 82 99 be
       7.7984157 0.060311474 4.5880938 -0.2998237
0002d0 65 bb 94 3d 9b 22 a0 3e 8a 06 2a be bd 9f 17 bf
       0.07262305 0.31276402 -0.16604057 -0.59228116
0002e0 00 c5 bd be d3 c0 87 40 41 3e ff 3e 8c 66 36 be
       -0.37064362 4.242288 0.49852183 -0.17812556
0002f0 4e c2 13 be 4a 43 26 be 10 cd 8c bc 0a 95 90 3e
       -0.1442959 -0.16236606 -0.017187625 0.28238708
000300 df 8e a6 40 07 54 a9 3f 8f d9 3f 40 96 13 60 3e
       5.2049403 1.3228768 2.9976537 0.21882471
000310 c3 15 63 bf 1c 86 2a bf cb 80 6e bf 0d b1 c4 3f
       -0.8870508 -0.66610885 -0.9316527 1.5366532
000320 08 04 56 3f b5 72 54 40 0e 0c 9d 3f 2d 06 e8 be
       0.835999 3.3195012 1.2269304 -0.45317212
000330 2d e3 ca be b7 0d 80 bf a4 42 0d 3f ee 94 df be
       -0.39626446 -1.0004185 0.5517981 -0.43668312
000340 40 21 7b c0 31 1b 3c 3e b8 1e 56 c0 80 58 39 3f
       -3.9239044 0.18369748 -3.345625 0.72400665
000350 eb dd 45 be 46 ca b7 be d4 b9 15 bf ca e8 e1 bd
       -0.19322936 -0.3589651 -0.58486676 -0.11030729
000360 b1 62 03 3f 72 28 09 c0 6b 06 b5 3e e8 88 86 bf
       0.51322466 -2.1430936 0.3535646 -1.051053
000370 73 5a d8 be 3a d1 20 bf e7 24 07 3f 7c f1 55 bf
       -0.42256507 -0.62819254 0.52790684 -0.835716
000380 04 0b 7d c0 da 15 aa 3d b0 31 34 c0 04 5c dd 3e
       -3.9537973 0.08304949 -2.8155327 0.43234265
000390 67 fe b6 3c 67 d9 62 bd 19 0a 92 be 19 44 ef 3c
       0.022338105 -0.055383112 -0.2852333 0.029207276
0003a0 26 01 f8 3e ed 4a db bf 6f 06 02 3f 12 e8 09 bf
       0.48438376 -1.713224 0.50791067 -0.53869736
0003b0 8d db 4d bf d2 27 83 be b6 d2 33 3f c5 23 27 bf
       -0.8041313 -0.25616318 0.70243394 -0.65288955
0003c0 0a 73 4c c0 65 aa 4c 3f a0 f6 3b c0 5d e8 48 3f
       -3.1945214 0.799475 -2.9369278 0.7847956
0003d0 26 cb e9 be b9 0e 2c bf 51 aa 64 bf a8 6f 8e 3f
       -0.45662802 -0.67209965 -0.8932238 1.1127825
0003e0 d3 dc a2 3f ef 28 a7 bf 24 f4 95 3f 5b 7a 8f bf
       1.272364 -1.3059367 1.1715131 -1.1209215
0003f0 40 69 49 bf 38 04 7a bf f3 e2 91 3f 3d 2d 4e bf
       -0.78676224 -0.9766269 1.1397384 -0.8053778

fc2.bias f4 [16]
000000 83 8d 45 3d e4 9b 9c 3d 3a 90 d0 3e 60 08 1e 3e
       0.04823066 0.07646921 0.40735036 0.15432882
000010 70 c0 32 3f e2 90 8b 3f 24 34 84 3f fe 59 21 3f
       0.69824886 1.090359 1.0328412 0.6302794
000020 09 cc 20 3f 06 23 82 3e d9 c1 cb 3d cb 68 b6 bd
       0.6281133 0.25417346 0.09949083 -0.089067064
000030 d8 ff a7 3f 70 15 b7 3e 65 4a cd 3e 94 da 61 3f
       1.3124952 0.35758543 0.4009582 0.8822415

fc3.weight f4 [16, 16]
000000 97 30 10 c0 b3 02 5b 3f a7 e5 16 40 f3 fc 1d 40
       -2.2529657 0.85550994 2.3577669 2.4685638
000010 3f 64 bc 3f 52 f8 c9 3f 0a 95 ee bf 21 15 e9 3f
       1.4718093 1.5778906 -1.8639233 1.8209573
000020 17 45 e9 3f 94 f7 cd 3f c4 ad 39 3f 2b 32 25 c0
       1.822421 1.609118 0.7253077 -2.581187
000030 7e 45 e6 bf 4f c0 8d 3f 65 96 bd 3f 17 3e 8b 3f
       -1.7989957 1.1074313 1.4811522 1.0878323
000040 58 a3 3e 40 5e 6c c6 3f 2b fb 21 3f d0 7c 95 3e
       2.9787197 1.5501821 0.63273877 0.29196787
000050 90 b8 99 3f 97 0e 91 3f a6 b1 e5 3e 73 c2 98 3f
       1.2009449 1.1332577 0.44862098 1.1934341
000060 bb 10 b2 3f 97 e9 33 3f 41 45 fa 3f 66 66 f9 bf
       1.3911356 0.70278305 1.9552385 -1.9484375
000070 30 95 0a 3f be f6 91 3f ce d7 83 3f 4a f6 f6 3f
       0.5413389 1.1403425 1.0300233 1.9293911
000080 92 e0 93 c0 9f 7b bf bf cf 5e 83 bf dc f9 ef bf
       -4.6211634 -1.4959601 -1.0263308 -1.8748126
000090 59 80 79 bf 72 4b 9c 3c 35 0b 92 40 e7 42 d2 be
       -0.9746147 0.019078944 4.563868 -0.41066667
0000a0 5f b3 03 bf cd 8c c4 bf e3 de 4b c0 c0 0c 96 40
       -0.51445574 -1.5355469 -3.185479 4.6890564
0000b0 0f bf 93 40 ce 96 b1 bf 24 6f a4 bf 83 7c fb bd
       4.6170726 -1.3874147 -1.2846417 -0.12279608
0000c0 54 9d 4a 40 3c 7a fb 3f c8 34 7b 3f e6 86 6d 3f
       3.1658525 1.9646678 0.9812741 0.92783964
0000d0 be 02 d3 3f db a2 fc 3f 97 78 20 be 21 45 f2 3f
       1.6485212 1.97372 -0.15671001 1.8927346
0000e0 c6 bd d7 3f 20 e5 b1 3f fe 37 0f 40 42 df 42 c0
       1.6854789 1.3898048 2.2377925 -3.0448766
0000f0 84 66 12 3e 63 98 bd 3f 35 88 da 3f c4 13 14 40
       0.14296919 1.481213 1.7072817 2.3137064
000100 db 60 a5 3f 1c 1c b5 3f 48 44 d8 3f 3c 5b f8 3f
       1.2920183 1.4149203 1.6895838 1.9402843
000110 66 04 d5 3f 61 0f f3 3f 49 1f 54 bd d1 6c d3 3f
       1.6641967 1.8989068 -0.05178765 1.6517583
000120 f8 5d 06 40 97 d6 c8 3f a8 65 f2 3f 0f 75 6c c0
       2.0994854 1.5690488 1.8937273 -3.6946447
000130 d2 af 88 3d 2a 6d de 3f 2f fc e0 3f 24 bd 00 40
       0.0667416 1.7377064 1.757696 2.0115442
000140 82 5f 82 c0 57 35 f7 bf 24 7a 58 bf 94 ea 7f bf
       -4.0741587 -1.9313153 -0.8456137 -0.9996731
000150 b3 55 f8 bf b8 a0 ec bf 1f db be be cc 1b d2 bf
       -1.9401153 -1.8486547 -0.3727655 -1.6414733
000160 5c 1c c9 bf ab bc 9b bf 4c 32 0b c0 ca 69 11 40
       -1.571178 -1.2166952 -2.1749449 2.2720819
000170 c6 3c 7c be 16 c6 a6 bf fa 71 be bf f0 ff 0c c0
       -0.24632558 -1.3029201 -1.4878533 -2.2031212
000180 3f 9d 8d c0 28 81 e2 bf 06 fd 79 bf 97 58 ed bf
       -4.425445 -1.7695665 -0.9765171 -1.854266
000190 44 e4 62 bf ca 1b 65 3d ce df 97 40 07 32 f5 be
       -0.88629556 0.055934705 4.74607 -0.4788973
0001a0 cd c0 0c bf cc 83 d5 bf e4 98 54 c0 60 4b 9e 40
       -0.5498169 -1.6680846 -3.3218317 4.946701
0001b0 49 b9 92 40 f2 7a ba bf 16 aa 8b bf b5 82 72 be
       4.585118 -1.456877 -1.0911281 -0.23682673
0001c0 93 92 08 c0 27 2a b4 bf 69 f9 ad bf 63 26 c6 bf
       -2.1339462 -1.4075364 -1.3591739 -1.5480465
0001d0 57 0b ee bf 7c a3 00 c0 78 2b 46 3e 61 8e 09 c0
       -1.8597211 -2.0099783 0.1935252 -2.149315
0001e0 b3 fd e5 bf 46 56 c4 bf d7 67 19 c0 8a 0e 3e 40
       -1.7968048 -1.5338829 -2.396963 2.9696374
0001f0 90 45 14 be f6 00 b8 bf 81 c1 d0 bf ed 33 01 c0
       -0.14479661 -1.4375293 -1.6309053 -2.0187943
000200 b0 4d f3 3f 5d 41 df 3f f8 11 e3 3f 21 1c cf 3f
       1.9008083 1.7441822 1.7739859 1.6180459
000210 ab 36 01 40 c3 6c f0 3f 70 69 c1 bd 85 d5 d4 3f
       2.0189617 1.8783191 -0.09443939 1.6627661
000220 c6 aa e6 3f 12 bc c8 3f 49 0a be 3f 20 3b 70 c0
       1.8020866 1.5682395 1.4846889 -3.7536087
000230 20 1d ec be 17 83 df 3f 99 d1 b1 3f bd 71 0a 40
       -0.4611597 1.746188 1.3892089 2.163192
000240 3f 54 8a c0 fa 74 cb bf 93 21 6a bf 8c 49 ff bf
       -4.322784 -1.5895073 -0.9145748 -1.994432
000250 5f de 83 bf 3b 56 eb 3d 14 71 8e 40 84 2e 75 be
       -1.0302237 0.114910565 4.4513035 -0.23943526
000260 e3 74 f0 be 80 3f b7 bf 0a 99 3a c0 5f 6d 9d 40
       -0.46964177 -1.4316254 -2.9155908 4.919601
000270 17 b4 90 40 82 d2 cb bf 41 a7 a3 bf 1d e2 73 be
       4.5219836 -1.5923617 -1.2785417 -0.23816724
000280 09 99 32 3e 3a 2e ac 3f 6d 26 fa 3f b3 73 05 40
       0.17441191 1.3451607 1.9542977 2.0851867
000290 7e 65 c7 3f 59 f2 e2 3f 90 91 ea bf 86 1c df 3f
       1.5577848 1.7730209 -1.8325672 1.743058
0002a0 43 33 d6 3f 65 05 ed 3f 37 bc 9b 3f 73 28 44 c0
       1.6734394 1.8517271 1.2166814 -3.0649688
0002b0 f4 5f e9 bf fd 45 cf 3f 53 41 bc 3f 9c 07 cb 3f
       -1.8232408 1.6193234 1.4707435 1.5861697
0002c0 dd 0f a0 3e b4 80 c1 3f 3e 62 09 40 94 c1 05 40
       0.31262103 1.5117402 2.1466212 2.08994
0002d0 3b 33 cf 3f 8a 99 be 3f a7 3a ad bf bf 0e f9 3f
       1.6187509 1.4890606 -1.3533524 1.9457625
0002e0 cf fe e6 3f 2e e5 db 3f 95 9d 72 3f c1 8a 3f c0
       1.8046511 1.7179315 0.947717 -2.9928439
0002f0 de a0 d4 bf 89 cf c5 3f cb 51 d7 3f c3 0a c1 3f
       -1.6611593 1.545396 1.6821836 1.5081409
000300 5f 85 12 c0 0a f1 91 bf 62 e7 62 bf ac 52 c7 bf
       -2.2893903 -1.1401684 -0.8863431 -1.5572104
000310 bb aa 5d bf 74 88 7b bd 88 cc 48 40 53 84 c4 be
       -0.8658864 -0.06140943 3.1374836 -0.38382205
000320 ef c9 6f be 66 52 5b bf 2d 76 1a c0 96 30 ad 40
       -0.23416875 -0.85672605 -2.4134629 5.412181
000330 fb af 52 40 a8 24 4e bf d5 9e 02 bf ed 6f 73 be
       3.291991 -0.80524683 -0.5102361 -0.23773165
000340 c8 4a fc 3e 5d 28 b9 3f 6c 28 0b 40 a5 24 08 40
       0.49275804 1.4465443 2.1743422 2.1272366
000350 ea 83 cf 3f 0f e4 be 3f 4f 02 e6 bf 77 a5 fe 3f
       1.6212132 1.4913348 -1.7969455 1.9894246
000360 b1 e8 ff 3f b2 8a d3 3f 39 2a 5b 3f 93 f4 5a c0
       1.9992887 1.6526701 0.856113 -3.4211776
000370 8f 3d e5 bf bf b3 e1 3f 04 84 dc 3f b9 4b b2 3f
       -1.7909411 1.7632979 1.7227788 1.3929359
000380 e3 42 a0 3f ce 53 ca 3f 38 ea 00 40 a5 49 c0 3f
       1.2520412 1.5806825 2.0142956 1.5022475
000390 f8 63 08 40 3c ad 06 40 ba 66 f5 be ee 41 05 40
       2.1311016 2.1043234 -0.47929937 2.082149
0003a0 20 26 00 40 ce f7 da 3f 24 61 d9 3f 8b e9 77 c0
       2.002327 1.7106874 1.698277 -3.8736293
0003b0 7a f3 93 be 0a 08 f0 3f 47 4e d4 3f ad 14 0d 40
       -0.28896695 1.8752453 1.6586388 2.204387
0003c0 8e fe 63 bf a4 5c af bf b1 54 cc bf ef 78 b0 bf
       -0.89060295 -1.3700147 -1.5963346 -1.3786906
0003d0 16 8f f8 bf f1 95 06 c0 1a ef 22 3d ae 33 0d c0
       -1.9418666 -2.1029017 0.039778806 -2.2062793
0003e0 82 a0 f5 bf e9 b4 cb bf f5 8f fc bf f2 ac 4f 40
       -1.9189608 -1.5914584 -1.9731432 3.2449307
0003f0 27 01 4c bc 23 73 a9 bf c3 41 b9 bf 4a 12 12 c0
       -0.012451447 -1.3238262 -1.4473194 -2.2823663

fc3.bias f4 [16]
000000 84 e9 e9 bc 0a 50 75 40 78 82 52 40 50 14 80 40
       -0.028553732 3.8330102 3.2892132 4.0024796
000010 df c5 38 40 11 0f 82 c0 a6 5b 6f 40 c7 e6 8f c0
       2.887077 -4.064339 3.7399688 -4.496921
000020 f6 87 ac 3f cd ce 3f 40 ad 05 2e bf fc f9 d1 bf
       1.3478992 2.996997 -0.6797741 -1.6404414
000030 f9 71 c0 3f 31 cb 6d bf 62 ee 1d 40 1d 56 9e c0
       1.5034782 -0.9288817 2.4676747 -4.948012

fc4.weight f4 [3, 16]
000000 d2 f4 9d bf 9b 70 15 bf 57 b9 c2 bf 7d 9d 84 bf
       -1.2340338 -0.5837495 -1.5212811 -1.0360562
000010 9a 24 84 bf fc d9 86 3f 26 c5 c7 bf 75 c2 b6 3f
       -1.032367 1.0535274 -1.560704 1.4278094
000020 15 5e 72 be 2e 0d 9c bf 96 7c 2a bf ca 73 b0 bd
       -0.23668702 -1.2191522 -0.66596353 -0.08615835
000030 98 ca 07 bf 71 e7 f3 be 0f 90 76 bf 63 d9 f2 3f
       -0.5304351 -0.47637513 -0.96313566 1.8972591
000040 53 ab a3 bf 13 4a 55 be 14 83 88 40 ca 0e a3 be
       -1.2786659 -0.20829038 4.2660007 -0.3184722
000050 d7 e0 2e bf 68 6a 6d 3e 47 3f 87 40 4c 4d 02 3f
       -0.6831183 0.23185122 4.2264743 0.50899196
000060 89 6c 10 bf 90 cf 8f 40 35 ea 68 bf 95 8f 51 bf
       -0.5641561 4.494087 -0.9098237 -0.81859714
000070 7f 3d 80 40 1e 52 58 bf 5f 2a 4a bf dd 24 3b 3f
       4.007507 -0.845003 -0.78970903 0.73103124
000080 a6 96 a2 bd 86 92 5b bf c6 b8 82 40 b6 61 5b bf
       -0.0793889 -0.8577045 4.0850554 -0.8569597
000090 38 ef 25 bf 53 67 7b 3f 10 64 8c 40 93 a8 2e 3f
       -0.64818144 0.98204535 4.3872147 0.68225974
0000a0 c8 4e 4e bf 17 70 80 40 d0 8d 0e bf 5d ec 0e bf
       -0.8058896 4.013683 -0.5568514 -0.5582941
0000b0 07 b1 13 40 09 45 10 bf dd 3a 47 bf 76 4d 13 3f
       2.30768 -0.5635534 -0.77824193 0.5754007

fc4.bias f4 [3]
000000 01 7a 1a c1 23 fc 30 3f b6 ca 52 40
       -9.654786 0.6913473 3.2936225
