MRTAWorld_DQN/Prueba1/Caso3/DQN_model_5Tasks_CasoX.pth (torch, 19572 bytes, 8 tensors)

fc1.weight f4 [32, 27]
00000000: 931a a6be 61cb 743f 72dd 11bf ab08 593e
00000010: e2c5 05bd 610d 9abe fd1f 52bf 4acb 103f
00000020: 255b f9be 4267 52bd c0ee 2e3e 97ac 80be
00000030: a09f b8bd a31a c7be 6d49 c1bd 13a3 ddbe
00000040: 24c5 f0bd b99e 99be e045 a0be a4b3 c7be
00000050: 6196 11be 1c0e a93c c197 13bd 2a5b 313d
00000060: 0d9d 46bc bc00 10be 7444 933d ddd7 17bb
00000070: 8814 c7bc baef a8bd 2f0f 2e3d 0a41 70bd
00000080: 828c 4abc e11e 743c 58a7 0739 a107 a93d
00000090: 274e c13c f440 ad3e ce8e 8d3e 7e04 043f
000000a0: c52f bdbf 911b 813e 7484 a2be b84e 35be
000000b0: c5a3 933e ac8a 483e bfa9 33be 6e54 e0bc
000000c0: 36f3 2bbd 5bc5 0dbd 528b c43d bf4a eabb
000000d0: 33e6 9d3d c0b1 5b3d 5ccb 173b 51ff adbc
000000e0: 6e5f 233c 3a66 663c 6343 ab3c 7215 293c
000000f0: b630 41bd d29c 5ebd 7d9a 02bd cd97 6a3d
00000100: c34c 733e b453 5a3e 42ba 573e 0374 6e3e
00000110: 0fb1 9cbf 8fba 25be 95f5 88be 5c74 f7bd
00000120: b19a 81be a775 993e dcf6 04bc c6ef c4bc
00000130: c023 333c 1735 d13a bfd3 433d 4b84 1f3e
00000140: ab53 223e 0773 813d 725d 473d 1163 86bd
00000150: 64ac 183d 24df 8bbd cb0f a23d 7310 f23a
00000160: 9eec 4d3d dd46 9bbd 1a66 46bd 0f4f 893e
00000170: 1c35 8e3e 5fbf ad3e 6094 8d3f 80df 843e
00000180: caf4 debe 3245 aa3e f078 663e ecb2 4ebf
00000190: db92 bb3e f6e9 c03c 7a0f 30bc ddfc 7a3a
000001a0: 0ec3 aabc ac9c 2bbd eda6 fb3b 53ff 8abc
000001b0: 797d 113e 5433 86bc 28ce 553e e887 6bbe
000001c0: 189f 333e 9f53 063e a9a1 2cbe 8f1b 933d
000001d0: 9e7e 103e aa16 bd3d 7135 033f b8a5 35bf
000001e0: 93d8 243e 254a 893f 597d cf3e bf4b 56be
000001f0: 3ff2 f0be 20fb c0be 58de 3b3e 6809 95bd
00000200: bcc5 4a3d f72c 4fbd 5d8c 24bd 4c32 8abc
00000210: d368 7e3d 652b 50bc 8cfb cfbb 7528 5ebe
00000220: d1bf c1be 350a b5be 0e2d 2bbb e9c1 eb3d
00000230: 08e8 9d3e 5f8b 913e 971e f73e 7ea1 47bd
00000240: ed33 aa3d 1630 9abe 4320 9a3c 4390 abbe
00000250: 5342 0bbe c077 96be 205e 40be 3864 1f3e
00000260: 814e 21be 2102 293e d4bf b2be 9acf f2bd
00000270: 0fdb 0b3c 8ee0 a7bd 7c97 edbd 7a70 c43c
00000280: 64c0 bc3d d2e6 5abe 71df 2d3c 7926 9d3e
00000290: 8785 4d3e f9b3 54be 1905 fcbd fd1d 0b3d
000002a0: f456 2ebd 3184 23be 0972 b13e 35db f13d
000002b0: 18fd 94be 343c c8bc 7c44 cfbe 58e5 02be
000002c0: a35e 693d fd7c 1bbc 98a0 80be 4ac6 b63d
000002d0: 0ddd a2be 6671 663d 7c4a d5bc e958 f0bb
000002e0: 70ef 2dbe 0112 86be 6882 64be 2121 4e3e
000002f0: 9181 30b9 f042 29be 1ee4 963e 5e03 73be
00000300: 1977 eb3d b5ca 08be cce1 be3d 839c 713e
00000310: b053 38bf 1c32 c5bd a483 fe3d 93b2 9f3e
00000320: 68da 24be e462 85be 169b aebe c43d dc3d
00000330: 178a c33b 4e36 4a3c 954d e7bd dbf6 293e
00000340: 670c cabd 48df bcbc 4c29 81ba 4781 0cbe
00000350: 4b1a cd3d 5803 8dbd dce1 2fbe 1e59 4a3d
00000360: 5dec a9bb d1eb ab3c a2ec b4bc ea1f 6f3c
00000370: ed79 c5bc 471f 21bc 7435 96bc 32ee 893c
00000380: 5933 a6bc 7f19 6b3c 8fea a93e f9da 443f
00000390: ac3a 213f 9142 923e c94d 643e 1ab0 5fbf
000003a0: e799 303e 3eb8 ea3d df9f 3ebf 8f1b 673e
000003b0: 2c6a 85bc ce20 873c 77c6 ef3b 1dd6 c13b
000003c0: 3340 0c3b 0c62 833c 4f46 0cbb 3541 e2bd
000003d0: 3501 30bd 5955 f4bc 7678 5bb9 af51 0f3e
000003e0: 4a83 ccbd 84ed bf3d dc3f b43d f405 92bc
000003f0: e78f 583d d95a 65bf 0ee6 9ebe ba88 5c3f
-0.3244215 0.9562283 -0.56978524 0.21194713 -0.03265942 -0.30088332 -0.8208006 0.56560194
-0.4870235 -0.051368006 0.17083263 -0.25131676 -0.09014821 -0.3888751 -0.09437833 -0.43288478
-0.117563516 -0.30003908 -0.3130331 -0.39004242 -0.14217521 0.02063661 -0.036033396 0.04329983
-0.012122405 -0.1406278 0.07190791 -0.0023169436 -0.024301782 -0.08248849 0.04249495 -0.058655776
-0.012362601 0.01489994 0.00012936944 0.08253408 0.023596836 0.33838618 0.27648014 0.51569355
-1.4780203 0.25216344 -0.3174168 -0.1770581 0.28835884 0.19584149 -0.17545222 -0.02738401
-0.04197999 -0.03461204 0.09596886 -0.0071500237 0.07709923 0.053636312 0.0023161983 -0.021239908
0.009971483 0.014062459 0.020906156 0.010320054 -0.047165595 -0.054348774 -0.031885613 0.057273675
0.23759751 0.21320993 0.21067145 0.23286442 -1.2241534 -0.16184448 -0.26749864 -0.12082741
-0.25313333 0.29972574 -0.0081154965 -0.024040114 0.010933816 0.0015961257 0.04780936 0.1557781
0.1585223 0.06320768 0.0486731 -0.06561864 0.03727378 -0.0682967 0.079131685 0.0018468037
0.050274484 -0.075818755 -0.048437215 0.2681813 0.27774894 0.33935067 1.1060905 0.25951767
-0.43546134 0.33255917 0.22507071 -0.80741763 0.3663548 0.023549061 -0.010745877 0.0009574423
-0.020844962 -0.04189746 0.007679811 -0.016967451 0.1420802 -0.016381897 0.20879424 -0.23001063
0.17541158 0.13117836 -0.16858543 0.07182991 0.141108 0.092328385 0.5125342 -0.7095599
0.16098242 1.0725752 0.4052532 -0.20927332 -0.4705982 -0.37691593 0.18346536 -0.07277185
0.04950498 -0.05057999 -0.040172923 -0.016869687 0.062111687 -0.012705659 -0.0063471254 -0.2169512
-0.37841657 -0.3535935 -0.0026119384 0.11511595 0.30841088 0.28426644 0.48265526 -0.048737995
0.08310685 -0.30114812 0.018814212 -0.335085 -0.1359952 -0.29388237 -0.18785906 0.15565574
-0.15752603 0.16504718 -0.34911978 -0.11856003 0.008536114 -0.08197127 -0.11601159 0.023979414
0.09216383 -0.21377113 0.010612355 0.30693415 0.20070468 -0.20771779 -0.1230566 0.033964146
-0.042563394 -0.15968396 0.34657314 0.118093885 -0.29099345 -0.02444277 -0.40481937 -0.127828
0.05697502 -0.009490249 -0.25122523 0.089245394 -0.31809273 0.05626049 -0.026036493 -0.0073348177
-0.1698587 -0.2618561 -0.22315371 0.20129825 -0.00016832935 -0.16529441 0.29470915 -0.23731753
0.114973255 -0.13358577 0.09320411 0.2359486 -0.72002697 -0.09628698 0.12427452 0.3119093
-0.1609894 -0.2605201 -0.34102696 0.10753968 0.0059673893 0.012342049 -0.112940945 0.16598074
-0.09865647 -0.023055688 -0.0009854226 -0.1372119 0.100147806 -0.068854034 -0.17176002 0.049401395
-0.0051856474 0.02098647 -0.022085492 0.014595011 -0.02410599 -0.009834117 -0.018336035 0.016837213
-0.020288156 0.01434934 0.33186767 0.76896626 0.6298015 0.2856641 0.22295298 -0.87378085
0.17246209 0.11460923 -0.74462694 0.22569107 -0.016285978 0.016495135 0.00731736 0.005915417
0.002140057 0.016037963 -0.0021404212 -0.110475935 -0.0429699 -0.029825853 -0.00020930343 0.13996004
-0.09985979 0.093714744 0.08801243 -0.017825104 0.05287161 -0.8959175 -0.31034893 0.8614613

fc1.bias f4 [32]
00000000: 7852 2f3f beea 0cbf 05d1 71bf 43b1 4a3f
00000010: 304b 683d ddf8 693f ee07 323f 2f0a 523f
00000020: 090b f73e bbbf 373f 1b36 7c3f c92e 6dbf
00000030: 8214 aabe ffcc 523f 4e87 563f efd8 1a3f
00000040: cc6b d2be 5ef3 c13e 1eea 013f 35e4 6f3f
00000050: a6aa 423f 015d 573f e8ff 0d3f c1ed 58bf
00000060: 1725 78bf d1a2 293f 86a0 67be 15dd 0f3f
00000070: 25a3 2c3f 804b 033f dc50 203f 2964 313f
0.6848521 -0.5504569 -0.94459563 0.7917673 0.05671233 0.9139536 0.6954335 0.8204679
0.48250607 0.7177693 0.9852006 -0.92649513 -0.3321877 0.8234405 0.8380021 0.60487264
-0.41097867 0.37880987 0.5074786 0.9370759 0.7604164 0.8412629 0.55468607 -0.84737784
-0.96931595 0.66264063 -0.22619829 0.5619672 0.6743644 0.5128708 0.6262338 0.6929346

fc2.weight f4 [32, 32]
00000000: d033 a2be 95ea 123f a156 c3be 3121 c6be
00000010: ccac ac3e 5482 7bbe 23b4 573f 2c20 463e
00000020: 7440 673e 93eb bd3e bd7f da3e 6a13 363e
00000030: e4f8 313e efd1 03be f481 9e3e f32c 7b3e
00000040: 6c6a 2ebf 0602 f03e 4e95 f93d 5a1c 4d3f
00000050: 086f 0a3f f95a 88be 9604 5e3f b2b7 d5bd
00000060: a49a 7cbf f259 3d3d 4358 c23e e1b4 97be
00000070: 75bb a63e d46d 4c3e d0f4 473e 2841 963e
00000080: 6e57 0c3f 91d0 21bf e6f7 c2bd a8b3 f53e
00000090: ea47 593f 51be 073f 1a46 0c3f cab4 c73d
000000a0: 6ad0 fc3d 8c6e 353f ad8a d03e 0610 acbd
000000b0: 4722 d63e d764 0b3e fa24 ec3e 92d7 363e
000000c0: c83f bc3e 0d9e a03e 4897 99bd 40e7 0b3e
000000d0: 1a16 ee3d abc2 133f 70f7 343f 7f1d 86be
000000e0: 2165 e3be 56e7 1c3f db12 433f a3da 743d
000000f0: 5082 2e3f e163 e03e 5da5 883d 4049 b7be
00000100: 4192 b0bd e573 89bf b9f3 0cc0 e1c6 24bf
00000110: c8a8 06bf 1dd8 cbbd 12a7 88be d899 97be
00000120: 10d8 0640 24c1 a6bf ef80 de3d 1b32 16c0
00000130: d6a1 ecbe d42e ab3d fda9 27be 42a6 25be
00000140: cd81 a53d f92e dd3e c569 a93e 9513 b63d
00000150: 01d4 f13d 6a9b 06be 6ecf 37bf 018c 14c0
00000160: 1544 a9bf a854 8a3e 1419 a6bf 58d2 973d
00000170: cb8b f53e bfdd 183e 613c f1bc dceb 4cbe
00000180: 41fe f83e 76fe 51bf 96b8 d6be 605c 1cbf
00000190: 6f16 06bf a31d f23e 0c76 61be 4156 cd3e
000001a0: f3d5 ef3e 8c04 f23d f368 0e3f 66e9 8bbf
000001b0: 7e1a 23bf 080b 4c3f 623a ecbe f70b 173f
000001c0: ea76 27bf 2981 e3bd a394 5e3f 76c4 b0bc
000001d0: 0991 afbd f6ec a4bd fdb1 cebd 57a6 7fbf
000001e0: 2193 4d3e 6506 52be 3159 60be 61e4 403d
000001f0: 4520 503e ab7e b8be 197c 903e d69e a13e
00000200: 2625 5a3e a7dd bbbf f1a4 633f d8e3 f13f
00000210: 6d10 61bd 86d3 e6be b71a 91bd 7123 083f
00000220: 0a2e ce3d 1bb2 20be 462c 39be 16c5 fbbe
00000230: 08f9 4b3f f84b 453e 8e90 57bf 348a f5be
00000240: 9d89 af3e 15f0 5c3e 3a21 ed3e 8b3e 6fbc
00000250: c729 873e 9772 bcbe f7af 613f eb65 0abf
00000260: 191b 843f 672c 8cbe 1be3 ba3f c3dc 5ebf
00000270: 690e 46bf aa3f 15bf e23b 473e 70cf a2bf
00000280: bc4f 73bc ea75 3f3f a78b 8cbd a8b8 03bf
00000290: 387a 4a3f f2ff 193e c4f0 d83e 157c e6bd
000002a0: 1746 dabe 5aba 5e3f 164a fd3e c6e9 c93c
000002b0: 9e27 c53d bbca b2bd cf91 053f a15a 76be
000002c0: fd5f 13bf 6081 6ebe 2417 2abd ed29 6e3e
000002d0: cd2b 723e de3d 9a3d ce68 4a3f 8331 303c
000002e0: 7806 b9bf 4bf0 093e ecc4 c03e ce1d 8a3e
000002f0: 57ce 153e 32c0 f23e cea5 f13e 99dd bc3e
00000300: 9e95 d83e 3325 d53e f5cb afbe d18c c8be
00000310: 15dc 3e3e bf63 9d3e 2bb8 883e 97b6 88bd
00000320: 715b 373e 12ef 593f 8cce 73bd b3db 45bd
00000330: f22f 583f e00b dc3d c8d8 993e 7446 88be
00000340: 466a 9a3f 2a9e 993d f563 dcbd 456c 5b3e
00000350: 7ed2 5b3e 317f c03e 1e7a 673e 29cc 0f3d
00000360: 4ae2 adbf 329b d83e 263b a1be 5280 0a3e
00000370: e3bd b33e 644a 1e3e 51fc f8bd 10c2 573e
00000380: 0872 0fbf e16a 443f d66a 8abe 003c 1ebf
00000390: 0ebe 3dbe 630b 0fbe 0fae dcbe d754 9bbe
000003a0: b044 7cbf cb4f 7ebd 8aea f9be 6ec7 093e
000003b0: 6aff 443d d274 98be 3052 62bd ca24 60bf
000003c0: 9994 9d3e d00c fdbe 0d02 12bf 1e99 ecbe
000003d0: aa6e 38bf d7ee 63be bfb5 6abe 2bb4 303f
000003e0: 61f4 90bf c89c 1bbf fd32 84bf f696 17be
000003f0: ab83 8ebf fadb 80be ee21 223e bad7 80be
-0.31680155 0.57389194 -0.3815203 -0.38697198 0.33725584 -0.24561435 0.8425924 0.1934821
0.2258318 0.3709379 0.42675582 0.17780843 0.173801 -0.12873052 0.3095852 0.24528866
-0.68131137 0.46876544 0.12186681 0.80121386 0.5407567 -0.26631907 0.8672575 -0.10435428
-0.9867346 0.046228357 0.37957963 -0.29630187 0.32564893 0.19963771 0.19526982 0.29346585
0.5482091 -0.6320887 -0.09519939 0.4798863 0.8487536 0.53024775 0.54794466 0.0975128
0.12344439 0.70871806 0.407308 -0.08401494 0.41823027 0.13612686 0.4612196 0.17855671
0.3676741 0.31370583 -0.07499558 0.13662434 0.11625309 0.57718915 0.7069006 -0.2619438
-0.44413093 0.6129049 0.76200646 0.05977882 0.6816759 0.43826202 0.066721655 -0.35798073
-0.08621646 -1.0738493 -2.2023757 -0.64365965 -0.5260129 -0.0995333 -0.26689965 -0.2960956
2.1069374 -1.3027692 0.10864436 -2.3468082 -0.4621722 0.08358541 -0.16373439 -0.16176704
0.08081398 0.431999 0.33088508 0.08890454 0.11808015 -0.13145223 -0.7180089 -2.3210452
-1.3223902 0.27017713 -1.2976403 0.07413167 0.47958216 0.1492834 -0.029447736 -0.20011848
0.4863148 -0.820289 -0.41937703 -0.61078453 -0.5237798 0.47288236 -0.22017688 0.4010487
0.46842918 0.118172735 0.5562889 -1.0930603 -0.637123 0.7970433 -0.46138293 0.5900263
-0.65415823 -0.1110862 0.8694555 -0.021578055 -0.08572585 -0.08053009 -0.10092542 -0.9986319
0.20075656 -0.20510252 -0.21909024 0.0470928 0.2032481 -0.3603414 0.2821968 0.31566495
0.21303234 -1.4677018 0.88923556 1.8897657 -0.054947305 -0.45083255 -0.070851736 0.5317908
0.10067375 -0.15692942 -0.18083295 -0.49173802 0.79676867 0.19267261 -0.8420495 -0.47957003
0.34284678 0.21575959 0.46314412 -0.014602314 0.2639906 -0.36806175 0.88159126 -0.54061764
1.032077 -0.27377626 1.4600557 -0.87055606 -0.7736574 -0.5830027 0.19456437 -1.2719555
-0.014850553 0.747893 -0.06862574 -0.5145364 0.7909274 0.15039042 0.4237119 -0.112541355
-0.426316 0.870031 0.49470586 0.024647605 0.09626697 -0.08730074 0.5217561 -0.2405801
-0.5756834 -0.2329154 -0.041525975 0.23258181 0.23649521 0.075313315 0.7906617 0.010753992
-1.4455099 0.1347057 0.3765024 0.26975864 0.14629494 0.47412258 0.4719681 0.36887816
0.4230165 0.41629943 -0.34335294 -0.39169934 0.18638642 0.30740163 0.2670301 -0.06675451
0.17905976 0.8513042 -0.05952315 -0.048305225 0.8444816 0.107444525 0.30048203 -0.2661625
1.2063682 0.075008705 -0.10761253 0.2142802 0.21467015 0.3759704 0.22605178 0.03510681
-1.3584683 0.42305905 -0.3149044 0.13525513 0.3510581 0.15458065 -0.121575005 0.21070123
-0.5603337 0.76725584 -0.27034634 -0.618103 -0.18529531 -0.13969187 -0.43101546 -0.30338165
-0.9854231 -0.062087815 -0.48811752 0.13454983 0.048095144 -0.29776627 -0.05525416 -0.87556136
0.30777434 -0.49423838 -0.5703438 -0.4621057 -0.7204386 -0.22259079 -0.22920893 0.69024915
-1.1324579 -0.60786104 -1.032806 -0.14803681 -1.1133932 -0.2516783 0.15833256 -0.25164586

fc2.bias f4 [32]
00000000: 0e5d 3d3f 93e6 4a3f 380f 9e3e 827a 753f
00000010: 9f05 01be 1a80 123f 1a19 403f a671 a6bf
00000020: 9c56 66bf db5b f9be 1994 623e 0954 0b3f
00000030: bd6c 623f 4a86 46bf 5137 313f a0d0 04bf
00000040: 1dc5 233f 40fb 403f 811d 023f c079 5abf
00000050: 4bc4 a3be 9a65 f73e d8a9 d63d 3a73 27bf
00000060: efae 0fbf 2634 45bf c4ad 4e3f 8df5 433f
00000070: 11a8 343f d88e 783e e7de 2bbf 2e0f 1b3f
0.73970115 0.7925808 0.30870986 0.9589006 -0.125998 0.5722672 0.750383 -1.3003433
-0.89975905 -0.48702893 0.22126807 0.544251 0.8844717 -0.7754866 0.6922503 -0.51880836
0.63972646 0.7538338 0.5082627 -0.85342026 -0.31985697 0.48319703 0.10481614 -0.65410197
-0.561263 -0.770327 0.80733895 0.76546556 0.7056895 0.2427324 -0.67136997 0.6057004

fc3.weight f4 [32, 32]
00000000: 9008 8cbe 4f62 24bf c909 a73e 3421 4ebc
00000010: d44e 97bc 6b6a fcbe 3ad3 15bf ca00 ef3e
00000020: f580 d6bd 4f22 003f 8a7d 6d3f f441 dc3e
00000030: 02b6 75be 8c97 95bc 5ceb 26bf 30cc 8bbd
00000040: 724c 86be 6528 02bf eba8 373f 3bfb 4a3e
00000050: a7d4 953e 9c1a 02be 6b75 76bf d08e 183f
00000060: f439 0d3f f0ab 5040 3e0f c53e 1a4c 2abf
00000070: 7207 a8be 0cb4 4d40 425c 933e e249 783e
00000080: b578 6abe 8a7e 6d3f 3533 7ebf 623f d63e
00000090: 9e75 a13f d5d0 98bc 6f87 e73e c701 32bf
000000a0: 05e3 34bf c64f 39be f05f f3be 8407 503e
000000b0: 0187 5e3f 45ed 3bbe e2b3 223f 929c 2bbe
000000c0: b9a8 8e3d be05 fdbe d2ad 383f 2709 a5be
000000d0: fc24 8abf aeb6 543d dcf0 b6bf f1c9 b9be
000000e0: 9c28 c23d f296 95bf c5f4 163f cefc 113f
000000f0: 9335 c43e 1cbc 5abf d378 e9be e091 3e3e
00000100: f71c 473f 19b9 b1be d053 5dc0 d486 1abd
00000110: d893 5e3f 0c81 c7bd 51d3 54bf 4c98 bf3d
00000120: bb6e 303e 7ee7 473e e0e8 213f 9157 57be
00000130: cea3 c5be e43c 9c3d 51c5 e7be 87fc 8cbe
00000140: 1303 00bf db1d 0c3f 1a2d 90be 70a3 5bbe
00000150: 4a03 f23d 69f7 acbf bac9 c93f 8aba 52bd
00000160: 29bc 933d 99d4 19c0 5138 d1bc 71f9 c2be
00000170: 180b a63e 81b6 2bc0 4bc8 2b3f 0359 4c3f
00000180: 2a92 0cbd d002 b5be c4ca 4ac0 0f46 403e
00000190: 6cb3 1e3f cfe9 d7bd 4e39 d4be 749b 9dbd
000001a0: 09f1 ebbd b0f8 293d 619c 79bf 8633 71bf
000001b0: 77ae adbd de72 ac3d e1bd e33d 121c 403e
000001c0: 3a21 7dbe ca02 733e 1732 65bf 82bb a93d
000001d0: 1272 dd3e 7257 74bf 197e 4f3d f5a8 13be
000001e0: db83 9abe 3f55 193f c61d a4be 4ba5 013f
000001f0: 9b8b 943d 4082 2ac0 b32d 6d3d d663 123f
00000200: ae35 813d fb4c 163e 783f 5140 ca8c e9bd
00000210: 968f aa3e b4ed f73d 7487 c6bd fb96 833d
00000220: 3503 4c3b 2ea4 a7bc ff9e 8e3f 9314 533f
00000230: a845 b83d 38ad 26be e9d6 4f3d bdf5 e2be
00000240: e56f 523c 793a 913e f01d 383e 7d3e 4abe
00000250: eeee 473f 4842 e03c 4d5d 1bbe 4a7d 573e
00000260: 9858 b33e 288d fe3b 5afa 58be 6a6f 8fbe
00000270: 73d8 b13e 48be 2340 f57c 563e bc84 85bf
00000280: 3568 423c 75fa c03d 8f24 d93f 1fc3 99bf
00000290: 5049 34bf 45b3 b33e 29ee 843e d686 df3e
000002a0: ed36 923f 1a15 d7bd 4cc9 653f 39b9 4a3f
000002b0: 43fa 26be e2ca 133f f0ec 5cbe 098b 113e
000002c0: af01 46bd 3ea8 07bf 2a6d 773e 593b 423e
000002d0: e85e f73d 56e8 db3e 37e0 b13f ba01 e43e
000002e0: 85e8 8bbd 5176 1540 d9e0 41bf f6a7 63bf
000002f0: 0325 1abf 192b 3840 7e96 b33e dea9 613e
00000300: a16a d2bc d816 913e ecd6 80c0 1487 41bf
00000310: 0d93 2b3f f997 5fbc b750 2fbe c816 6dbe
00000320: 93b6 063f 234f 353e 8d86 b6be 8b9a eebe
00000330: 7ec5 6cbd 6919 113f ba6c e83d 62a5 b4bd
00000340: 9819 8bbe c5e2 473c 965d 86bf 3bfe 93be
00000350: e461 f53d 9328 03bf 6184 b03f 99c4 26bd
00000360: 416f c6be 1ccc c0bf d994 50bf 7689 863e
00000370: 9466 633e 41ae 19c0 a183 773e e9f7 dfbf
00000380: 97c4 733e 92d0 863d 3b3c 56bf e525 f13e
00000390: 7cf4 973f 45a3 bf3d a5c2 e6be 5ce0 c6be
000003a0: 0b99 38be ff13 1cbb 922e 043f b564 973e
000003b0: 98ac 9b3e 8509 12bf 9cc7 2dbd d957 37bf
000003c0: 13c0 ff3e 852c 9b3e e063 943e eff7 3ebf
000003d0: 685f 96be b82e 2dbe 5802 1140 f3e4 9dbd
000003e0: a148 1abe 1ac6 eebf d9b8 f83e 5dcd 06be
000003f0: 56a1 e23e 3477 48c0 df75 6ebe 41ef 18bf
-0.27350283 -0.64212507 0.32624653 -0.012581158 -0.018470205 -0.4929994 -0.5852543 0.4668029
-0.10473815 0.5005235 0.9276968 0.43019068 -0.23995212 -0.01826074 -0.6520288 -0.06826055
-0.26230198 -0.5084289 0.71742123 0.198224 0.29263803 -0.12705463 -0.96272916 0.59592915
0.55166554 3.2604942 0.3848819 -0.6652237 -0.3281818 3.2141142 0.28781325 0.24246934
-0.22897609 0.9277121 -0.99296886 0.41845232 1.2614019 -0.018654266 0.45220515 -0.6953396
-0.70658904 -0.18096837 -0.47534132 0.20315367 0.8692475 -0.1835223 0.6355573 -0.16758946
0.06965775 -0.49418443 0.7214023 -0.32233545 -1.0792537 0.05193203 -1.4292254 -0.36286882
0.09480402 -1.168669 0.5896724 0.57026374 0.38322124 -0.8544328 -0.45599994 0.18610334
0.7777857 -0.3471153 -3.4582405 -0.03772624 0.8694434 -0.097414106 -0.83134943 0.0935522
0.1722974 0.19521901 0.63245964 -0.21029498 -0.38601536 0.076288015 -0.45267728 -0.27536413
-0.5000469 0.54733056 -0.2815941 -0.21449065 0.118170336 -1.3513004 1.5764687 -0.05144743
0.07213623 -2.403601 -0.025539549 -0.38080934 0.3243034 -2.6830142 0.671025 0.7982332
-0.03431908 -0.35353708 -3.1686258 0.18776725 0.61992526 -0.10542642 -0.4144997 -0.07695666
-0.11520583 0.041496933 -0.9750424 -0.94219244 -0.08480542 0.08420347 0.11120201 0.18760708
-0.24719706 0.23731533 -0.89529556 0.082877174 0.4325109 -0.9544593 0.050657365 -0.1441992
-0.30178723 0.598957 -0.32053965 0.5064284 0.0725319 -2.6641998 0.05790491 0.5718359
0.06309067 0.14677803 3.2694988 -0.114038065 0.33312672 0.12105885 -0.096938044 0.064252816
0.0031129841 -0.02046403 1.1142272 0.8245327 0.08997661 -0.16277015 0.050742064 -0.44328108
0.012844061 0.28364924 0.1798017 -0.197504 0.7809895 0.027375355 -0.1517231 0.21043888
0.3502853 0.007768292 -0.21189252 -0.2801469 0.3473545 2.5584888 0.20946105 -1.0431132
0.011865665 0.09422771 1.6964282 -1.2012671 -0.70424366 0.3509771 0.25962952 0.4365756
1.1423012 -0.10502072 0.8976028 0.7918888 -0.16306405 0.5773145 -0.2157476 0.14213194
-0.04834145 -0.5299109 0.24162737 0.18967952 0.12078649 0.42950696 1.389655 0.44532567
-0.06831459 2.3353465 -0.75733715 -0.88928163 -0.60212725 2.8776305 0.35075754 0.22037455
-0.02568561 0.2833774 -4.0262356 -0.7559674 0.67021257 -0.013647073 -0.17120634 -0.23153222
0.52622336 0.1770597 -0.3564953 -0.46602282 -0.05780553 0.566794 0.11348863 -0.08820607
-0.27167964 0.012200062 -1.049731 -0.289049 0.11981562 -0.51233786 1.3790399 -0.040714834
-0.38756755 -1.5062289 -0.81477123 0.2627675 0.22207099 -2.4012606 0.24171306 -1.7497531
0.23805462 0.065827504 -0.83685654 0.47099224 1.1871486 0.09357313 -0.45070377 -0.38843048
-0.18027131 -0.002381563 0.5163356 0.2956902 0.30405116 -0.57045776 -0.04242669 -0.7161842
0.49951228 0.30307403 0.2898245 -0.74597067 -0.29369664 -0.16912353 2.265768 -0.07709684
-0.15066768 -1.8654206 0.48578528 -0.13164277 0.44263715 -3.1322756 -0.23287152 -0.5974007

fc3.bias f4 [32]
00000000: 160f 6ebf 2c59 903f 1f94 4ebe 7048 9fbe
00000010: 2623 313d 77fb 87bf e91e 4fbe e271 3d3f
00000020: 4de9 173f d071 5fbf c1c8 22bf 6a90 8abf
00000030: 413e ebbd 5325 80bf 0d4d 6a3f b123 19be
00000040: e0b0 043f ac19 b6bf 324e debe e830 b53d
00000050: 5b34 44bf e627 523f d01d a4be 897c 42bf
00000060: 990f c43f 8df9 013f d3d8 a03e d4f6 d73e
00000070: 8c17 25bf 21e0 d9bd 3017 5a3f 5d47 2e3f
-0.9299177 1.1277213 -0.20173691 -0.31109953 0.04324641 -1.0623616 -0.20226635 0.74001896
0.59340364 -0.8728304 -0.63587576 -1.0825322 -0.11486483 -1.001139 0.9152382 -0.14955021
0.5183239 -1.4226584 -0.43419033 0.08847219 -0.7664239 0.8209213 -0.32053995 -0.75971276
1.531726 0.5077141 0.31415424 0.42180502 -0.64489055 -0.10638452 0.8519163 0.6807764

fc4.weight f4 [31, 32]
00000000: 353b 183e 46fa dc3c 8e08 053f 23b6 42bd
00000010: 3a7b 4cbd 4daf babf aa48 c23d f420 163c
00000020: 0449 8e3d 81ee 423f 176f 213e 2336 073e
00000030: 41e1 653e 02a7 1bbd 11dc 27be 9b92 2abd
00000040: 578e cdbe e733 c93d 5c58 1c3d aca2 a13e
00000050: 5cca 8d3e c4ea 17bf eb4d c0be b72a aa3e
00000060: 0619 a4be a0cb 3b3e d3bd 5a3e 60c3 f5be
00000070: 869c f3bc 2bb0 003e d83d 93be 68ff f53d
00000080: 0427 d2be 4e76 f13d 1e2b eebe 3876 91be
00000090: 93ed 873e 0044 3f3f 3846 edbd ea36 4abe
000000a0: 3854 55bd 00e9 3e3e 9b02 083d 888e 99bc
000000b0: a63c 7abc a151 c8bd c483 753e d2de dd3e
000000c0: d82d d73e fb36 ff3c 6ee1 d3be b6e5 2c3e
000000d0: d91e 683d aeb1 98bd 9c14 59be 219b ecbe
000000e0: 25e1 843e 6900 ae3e 625f 973d f2e6 8cbd
000000f0: 4783 7f3d 47e8 0b3f 0e88 92bd 51cc 463e
00000100: 24f4 cebe 3666 1cbc da62 26bf 1ee5 1cbd
00000110: 9bdb 623e a9bc 163f 265b b93d e244 81be
00000120: 8083 16be 211b fa3e 469d 063e 7b1e be3c
00000130: 5511 ff3e 2b28 dcbe d81a dd3d 2fb8 cb3e
00000140: 6d5d 073f ab19 ecbd 4576 a2be 14be e13e
00000150: e8cc 283e bc47 52bf 9f87 1dbe a045 8abe
00000160: 0e70 553e ea86 923e afec 593e 7c54 6e3e
00000170: b411 c43d e520 003f efa1 803d a9cf 403e
00000180: a77f 443f fc44 43be c392 123d 4bcb 00bf
00000190: 2df8 f03e 7408 613e 9887 81bf ddf7 243e
000001a0: f2fa 963e 14e6 cdbe 5d10 b8be fdce af3d
000001b0: a850 073e 3b08 e63d bf73 bebe 1639 263f
000001c0: 2d00 90be eba4 c83e 604f e6be a524 d1bd
000001d0: 1262 adbc b089 8fbe c275 e6bd cfa3 16bf
000001e0: 0ab5 643d 1dfb 4dbe 7f10 4a3f cecb cd3e
000001f0: fba8 f0be e953 fb3e 8125 c83d 6bd1 673e
00000200: f714 f0be a18a 8b3e 563f c9bc e981 8abe
00000210: f9bb 943e afa6 c3be 45e9 4dbe 183d a23e
00000220: 4440 ba3d b91f bdbe 6840 3abe 6848 99be
00000230: a848 85be 8599 e3be 3335 b53d d203 8f3e
00000240: cf8f 693e 83a1 d5be 5a3a a2be 9942 0abc
00000250: 999a e9ba 6c53 283f 57a2 9dbe 91e8 a4be
00000260: 53f7 e83e ad2b b23d b706 b03e 4e97 d83d
00000270: 2744 98be f526 5b3e d50f d33e 8e91 7a3e
00000280: 0de9 a23e 3c77 b53e a3ad 90bf 3592 24bf
00000290: 683a 343f ada6 183f 59d7 e7bd c917 2b3e
000002a0: a032 953d 7918 0a3f 74b6 fd3d 1e7b 933e
000002b0: f72a e23d 2e2a 9b3f 4402 a03e 76e5 053f
000002c0: 8e9e b23e db2a 8dbe 9467 a9bd dabd 8a3e
000002d0: cb44 06bf 7587 23bf 0c58 8c3d 9c3b adbd
000002e0: 4c29 fcbd d2a5 d03e 4790 103f 9767 843d
000002f0: c0d4 88be 087a 98be 081e 023e f87a 92be
00000300: 7482 c4be a78c f53e 5672 95be 8a7a cebe
00000310: d686 b63d f738 3e3e 217e 0dbd 3761 cd3e
00000320: 1c30 003e 9834 1ebe 45b4 aebc a094 0abf
00000330: 2375 0a3e ddf1 87bd 12af 293e 84ec dc3d
00000340: e7ca a93e 385f afbe 7540 09be bca5 cb3d
00000350: 2d5e abbe 5564 263e b9d3 5abe b47e a3be
00000360: 1382 083f 67db 7d3e 7df1 733e 42b7 0bbe
00000370: a206 2cbe ea38 f33c a7aa 9b3e 7f2f 8b3e
00000380: 3168 643e 152d a93e 20d8 49bf 5dbf e9bd
00000390: 8522 9a3e 68ec 4ec0 fea0 71bf 0b1e 92be
000003a0: 71bd 9d3e 9309 483f d3d5 83be 8d9a 853e
000003b0: da60 a13d e58d 183f cfcc 313e 7c24 033f
000003c0: 203a 383d d1a7 dabd ab03 99bd 04bf d33e
000003d0: 266a b4be 6a3d fa3e 01df f2bd eeab 71be
000003e0: c568 2abd ed22 d73a 3382 913e 28a3 073f
000003f0: 8f2e c7be 7c97 5a3e 6053 a5bd 41b8 1ebd
0.14866336 0.026974808 0.5196618 -0.04753698 -0.049922206 -1.4584748 0.09486516 0.00916313
0.069475204 0.7614518 0.15765034 0.13204245 0.22449209 -0.038001068 -0.16392542 -0.04164372
-0.4014766 0.09824353 0.038170204 0.3156942 0.2769345 -0.593426 -0.37559447 0.33235714
-0.3205034 0.18339396 0.21361475 -0.48000622 -0.029737722 0.12567203 -0.2875812 0.120116055
-0.41045392 0.11790143 -0.4651727 -0.28410506 0.26548442 0.74713135 -0.11585659 -0.1974751
-0.05208227 0.1864357 0.03320561 -0.018744722 -0.015273249 -0.097811945 0.23976046 0.4333406
0.42027164 0.031154146 -0.41382927 0.16884503 0.056670044 -0.07455765 -0.21199268 -0.46212104
0.25953022 0.33984688 0.0739124 -0.06879987 0.062381055 0.546513 -0.071548566 0.19413878
-0.4042064 -0.009545853 -0.64994586 -0.03830444 0.22154085 0.5888162 0.09050588 -0.25247866
-0.14698601 0.48848823 0.13145933 0.023207894 0.4981791 -0.42999396 0.10796136 0.39788958
0.5287693 -0.11528333 -0.31730857 0.4409033 0.16484416 -0.8214071 -0.15383767 -0.27006245
0.20843527 0.28618556 0.21281694 0.23274416 0.09573689 0.50050193 0.062808864 0.18829216
0.7675728 -0.19069284 0.035784494 -0.503102 0.47064343 0.21975881 -1.0119505 0.16110177
0.2948833 -0.40214598 -0.35949984 0.08584402 0.13214362 0.112320386 -0.37197682 0.64930856
-0.28125134 0.39188322 -0.44982433 -0.102120675 -0.021164928 -0.28034735 -0.11252929 -0.588437
0.055836715 -0.20115323 0.7893142 0.40194553 -0.47003922 0.49087456 0.09772778 0.2263848
-0.46890995 0.27254203 -0.024566334 -0.2705224 0.29049662 -0.38213107 -0.20108517 0.31687236
0.09094289 -0.36938265 -0.18188632 -0.29938054 -0.26031995 -0.44453064 0.088480376 0.27932602
0.22808765 -0.41724786 -0.31685144 -0.00843873 -0.0017822563 0.6575229 -0.30787918 -0.32208684
0.45501193 0.08699737 0.34380123 0.10575734 -0.29739496 0.2140158 0.41223016 0.24469587
0.3181843 0.3544253 -1.130299 -0.64285594 0.7040162 0.5962933 -0.11320371 0.16708292
0.072850466 0.5394359 0.12388316 0.28804868 0.11043351 1.2122247 0.3125173 0.52303255
0.34886593 -0.2757176 -0.08271709 0.2709797 -0.5244872 -0.63878566 0.06852731 -0.08458635
-0.12312564 0.4075151 0.5647015 0.06465071 -0.26724815 -0.29780602 0.12706769 -0.28609443
-0.38380778 0.47958872 -0.29188794 -0.40327865 0.08912437 0.18576418 -0.034544114 0.40113232
0.12518352 -0.1544975 -0.021326194 -0.54133034 0.13521247 -0.06637929 0.1657069 0.10787299
0.33162615 -0.34252334 -0.13403495 0.09943721 -0.33470288 0.16249211 -0.21369828 -0.31932604
0.5332348 0.24790727 0.23822589 -0.13644126 -0.16799405 0.029690225 0.30403635 0.27184674
0.22305371 0.33042207 -0.78845406 -0.11413453 0.3010446 -3.233179 -0.9438628 -0.28538546
0.30808595 0.7813961 -0.25749072 0.26094475 0.07879801 0.59591514 0.17363285 0.51227546
0.044977307 -0.1067654 -0.07471403 0.4135667 -0.35237235 0.4887498 -0.11858941 -0.23600742
-0.041603822 0.0016413607 0.28419647 0.5298333 -0.3890271 0.21346849 -0.08072543 -0.038749937

fc4.bias f4 [31]
00000000: e076 0ec0 8a33 61be 156b 15bf a579 77be
00000010: 18b0 5a3f 3ca1 fdbe e76c 223f 9414 f0be
00000020: 14c8 1e3f 7887 643f 08f9 7dbe 2271 2c3f
00000030: aad9 143f 0061 cebe 1e3b 193f 4e64 213f
00000040: 2f2f 473f 82ad 09bf ff50 223f 1d79 5a3f
00000050: 70f4 c03e 7335 89be 806b 483f eaaa 0a3f
00000060: 83b3 763f d0c9 493f e8f8 2dbe 16a0 e63e
00000070: 41a0 273f 431d 253f f4ef e23e
-2.2260056 -0.21992317 -0.5836652 -0.24167497 0.8542495 -0.49537075 0.6344742 -0.468907
0.62024045 0.8926921 -0.24802029 0.67360127 0.5814463 -0.4030838 0.5985583 0.6304368
0.7780637 -0.53780377 0.6340484 0.85341054 0.3768649 -0.2679859 0.7828903 0.54167044
0.96367663 0.78823566 -0.16989481 0.4504401 0.65478903 0.64497775 0.44323695
