MRTAWorld_DQN/PruebasDef/PruebaDef5/DQN_model_3Tasks_CasoX.pth (torch, 7348 bytes, 8 tensors)

fc1.weight f4 [16, 12]
00000000: 3d86 03c1 8819 01c1 1f90 d6c0 74a5 d2c0
00000010: ee0b b3c0 0a29 d6c0 ba7e 0ac1 73a3 0cc1
00000020: 1871 16c1 4846 4ac1 a2e1 45c1 94bf 44c1
00000030: 964b 00c1 390f 00c1 a90c d3c0 3fa1 dac0
00000040: af49 aec0 6c8e dec0 e2fd 07c1 490b 0cc1
00000050: ccbd 13c1 e73c 4bc1 dda7 45c1 0e4d 43c1
00000060: 61cd 00c1 26f5 f7c0 acec c6c0 7db0 ddc0
00000070: a342 adc0 ad59 d2c0 0d32 0ac1 5cf4 0ac1
00000080: 7f46 13c1 c752 4bc1 f1cc 3fc1 fa4c 48c1
00000090: f711 06c1 1e3e f9c0 627d ccc0 5856 ddc0
000000a0: 8707 bfc0 8af6 d4c0 177a 07c1 cb0b 09c1
000000b0: 672d 0dc1 31f6 48c1 ff7c 40c1 f303 45c1
000000c0: dc61 00c1 a63f fac0 1a43 d7c0 756b d4c0
000000d0: 8525 b3c0 6f0f dfc0 54f7 05c1 e919 0bc1
000000e0: 422b 0ec1 4968 49c1 a19b 40c1 f89b 4cc1
000000f0: 17c7 02c1 8418 fcc0 cc0f d2c0 2fee d4c0
00000100: 5951 bfc0 405a d9c0 500a 0ec1 51b7 0cc1
00000110: 1651 0ec1 38f4 4ec1 fd64 40c1 68a8 4bc1
00000120: ae5a 0441 4d63 f340 32f3 c840 0d03 d340
00000130: ccb7 bb40 e943 d940 03d6 0c41 24a6 0a41
00000140: 9603 1141 bf4f 4641 8fa2 3e41 d0d2 4741
00000150: 8275 04c1 83de fcc0 f190 cfc0 8cdd d0c0
00000160: 5b44 b1c0 9d3c d7c0 23b4 0dc1 6555 0ac1
00000170: e5c1 15c1 895a 47c1 02da 3ec1 099c 48c1
00000180: 22ea 0441 da62 fa40 31e5 cf40 6744 d440
00000190: e949 bd40 e881 df40 c11c 0841 756d 0c41
000001a0: d3d7 1341 c38c 4b41 c306 4541 04a1 4941
000001b0: e742 0441 d5ef 0041 181c ce40 17cc d240
000001c0: 8c2a bb40 9860 de40 42a5 0541 4937 0741
000001d0: 361c 1341 1e77 4b41 08fa 4141 cea2 4941
000001e0: cd20 0641 1f25 f340 f58c c840 ea48 e040
000001f0: bb96 b840 d876 db40 6a5b 0c41 230e 0c41
00000200: cdda 0e41 3b68 4d41 d990 4541 3d70 4b41
00000210: f495 03c1 bae5 f7c0 066e c6c0 4af8 d9c0
00000220: 357e b4c0 6955 d5c0 d13b 09c1 bb9c 05c1
00000230: 26a2 0dc1 9ca1 48c1 ec38 3fc1 fbd5 49c1
00000240: 9428 0741 a86f f540 3a4f c440 11d7 de40
00000250: 4306 b640 ab19 d140 907b 0b41 495b 0e41
00000260: 72d1 0e41 7f7b 4841 0c5f 4141 32b3 4641
00000270: 0559 06c1 34b9 02c1 36f3 d0c0 a673 dcc0
00000280: a922 bfc0 5c39 dbc0 661c 0bc1 86a2 0dc1
00000290: 5b10 11c1 a690 4ec1 6138 46c1 d004 49c1
000002a0: 36fd fb40 99ed f940 0a32 c540 5fce d640
000002b0: b9ff b640 3e6d d740 e416 0d41 8a9c 0a41
000002c0: d70d 0f41 785b 4a41 b4f1 4241 09da 4841
000002d0: 2537 06c1 e70e f6c0 55a5 c7c0 3ebc d3c0
000002e0: c4cc bec0 5ee3 d6c0 35cc 06c1 0ec6 06c1
000002f0: 4095 15c1 4ba0 4dc1 e472 43c1 deb7 47c1
-8.220273 -8.068733 -6.705093 -6.582697 -5.5952063 -6.6925097 -8.655939 -8.789905
-9.402611 -12.6421585 -12.367586 -12.296772 -8.018454 -8.003716 -6.5952954 -6.8321834
-5.4464946 -6.9548855 -8.499483 -8.752755 -9.233837 -12.702369 -12.353482 -12.206312
-8.050141 -7.7486753 -6.2163906 -6.927794 -5.4143844 -6.5734468 -8.637219 -8.684658
-9.204711 -12.707709 -11.9875345 -12.518793 -8.379386 -7.7888327 -6.3903055 -6.91679
-5.969669 -6.655095 -8.467307 -8.565379 -8.823585 -12.560105 -12.030517 -12.313464
-8.023891 -7.8202696 -6.726941 -6.6381173 -5.59833 -6.970634 -8.372883 -8.693826
-8.885561 -12.58796 -12.037995 -12.788078 -8.173606 -7.8779926 -6.5644283 -6.654075
-5.97868 -6.792267 -8.877518 -8.794755 -8.894796 -12.934624 -12.024655 -12.728615
8.272139 7.6058717 6.279687 6.5941224 5.866186 6.78954 8.802249 8.665562
9.063375 12.394469 11.914687 12.488968 -8.278688 -7.902162 -6.486443 -6.5270443
-5.539594 -6.726149 -8.856479 -8.645848 -9.359838 -12.459603 -11.928225 -12.5380945
8.307161 7.824567 6.4967275 6.63335 5.915272 6.9846077 8.50702 8.776723
9.240191 12.721866 12.314151 12.60181 8.266334 8.058553 6.4409294 6.5874133
5.8489437 6.949291 8.352846 8.450997 9.194387 12.716581 12.123543 12.602247
8.383008 7.5982814 6.2672067 7.0089006 5.7683997 6.8582573 8.772318 8.753451
8.928418 12.837947 12.347863 12.714902 -8.22411 -7.746793 -6.2009306 -6.8115587
-5.640406 -6.666676 -8.577104 -8.350764 -8.852087 -12.539455 -11.951397 -12.614741
8.447407 7.66988 6.134671 6.963753 5.6882644 6.5343833 8.717667 8.897286
8.926134 12.53015 12.085705 12.418749 -8.396733 -8.170216 -6.529689 -6.8891172
-5.972981 -6.850752 -8.694433 -8.852179 -9.066493 -12.910315 -12.388764 -12.563675
7.8746595 7.8102536 6.1623583 6.712692 5.718716 6.732085 8.818089 8.663218
8.940879 12.647331 12.18401 12.553231 -8.388463 -7.689319 -6.238932 -6.616729
-5.962496 -6.715255 -8.424855 -8.423353 -9.348938 -12.851634 -12.215549 -12.482389

fc1.bias f4 [16]
00000000: 5208 8941 cd2d 8b41 a1b3 8941 8823 8b41
00000010: d6a1 8941 6945 8a41 72c5 8ac1 e042 8941
00000020: ae6b 8ac1 83a2 8ac1 8840 8ac1 87fb 8941
00000030: 1e94 8ac1 c4e7 8941 9af9 88c1 7fe7 8841
17.129063 17.397364 17.21271 17.39235 17.204021 17.283892 -17.346409 17.157654
-17.302578 -17.329351 -17.28151 17.247816 -17.322323 17.238167 -17.121876 17.113035

fc2.weight f4 [16, 16]
00000000: 963c 4741 f547 4c41 4a26 4841 bfc9 4841
00000010: 8fe0 4941 d83c 4741 1dde 49c1 43d1 4b41
00000020: 41ed 45c1 d6c6 4cc1 c791 47c1 e3cc 4941
00000030: b3da 4cc1 66e2 4741 9816 46c1 866c 4941
00000040: b70a 46c1 d084 4ac1 7ea0 4ac1 168b 4cc1
00000050: 17a8 47c1 a6f2 4ac1 2d88 4841 1139 47c1
00000060: 694c 4b41 65fe 4c41 2918 4b41 f595 47c1
00000070: 2b3a 4b41 faa6 4cc1 abe4 4941 87a0 47c1
00000080: ee02 4941 2107 4b41 1145 4941 bc26 4c41
00000090: e608 4a41 0b27 4b41 0d7f 4ac1 7306 4b41
000000a0: a957 49c1 1301 48c1 1b37 45c1 fd90 4841
000000b0: 9c46 46c1 77d4 4a41 522d 4bc1 5f3e 4d41
000000c0: 9ac7 4841 0645 4d41 1ad1 4a41 0ebd 4741
000000d0: f92f 4c41 2af4 4741 cf52 4cc1 6b61 4c41
000000e0: 2ce8 4bc1 7953 4bc1 a487 46c1 463c 4541
000000f0: 6671 4bc1 e285 4641 30ae 48c1 7207 4d41
00000100: 9e41 4741 bebe 4541 9410 4d41 328d 4841
00000110: f2ec 4641 d302 4b41 f48f 46c1 8a57 4b41
00000120: 507f 4bc1 ebc9 49c1 25d8 45c1 7109 4741
00000130: 7b13 45c1 df98 4c41 612d 4bc1 391e 4d41
00000140: 93e0 4941 9d92 4841 e0e1 4c41 42d5 4641
00000150: dbb9 4b41 9938 4c41 7fb7 48c1 063c 4a41
00000160: c75d 46c1 e9a7 46c1 7b71 4bc1 3f0d 4741
00000170: 0b64 45c1 c276 4b41 8930 49c1 b953 4841
00000180: 32e1 4a41 7f9a 4a41 5763 4b41 1174 4d41
00000190: ac87 4b41 f85e 4941 23ec 4ac1 d6b1 4a41
000001a0: d6e3 46c1 b883 4ac1 37ae 49c1 ec92 4a41
000001b0: d77a 4ac1 81e8 4a41 e0e9 46c1 a4ce 4541
000001c0: eda7 4a41 b29e 4a41 2a45 4841 28a3 4641
000001d0: d0cf 4841 cf61 4741 58a8 4cc1 b784 4641
000001e0: 6830 4ac1 f296 4cc1 64a2 4cc1 e02a 4a41
000001f0: e48f 49c1 cc52 4a41 19de 43c1 8d4a 4541
00000200: 3c46 4ac1 716f 4bc1 b27b 4bc1 9221 46c1
00000210: d5db 4bc1 e8a9 49c1 790c 4641 1c7a 45c1
00000220: 87af 4541 18af 4641 46af 4a41 973d 4bc1
00000230: b809 4b41 98e8 44c1 3ac2 4641 17e9 47c1
00000240: 1aa5 4c41 4e10 4841 a2e8 4b41 8568 4541
00000250: b422 4841 a02c 4641 4855 49c1 dec9 4841
00000260: 0f9a 4bc1 36a5 47c1 7848 49c1 4cc0 4641
00000270: 5fe9 49c1 2f9b 4941 4ddc 49c1 e590 4d41
00000280: 290c 4cc1 7801 4cc1 f34d 4dc1 dc51 49c1
00000290: 8ba4 47c1 0b72 48c1 efc2 4641 ef53 4ac1
000002a0: fe13 4841 2744 4841 e27e 4c41 8525 4ac1
000002b0: a134 4841 94ca 4ac1 c63f 4941 1e44 45c1
000002c0: af4b 4c41 61db 4841 02e2 4c41 76ad 4d41
000002d0: ac77 4b41 28cb 4841 bd9b 46c1 88e2 4541
000002e0: 2b6b 48c1 72e6 47c1 5ae5 49c1 17f5 4541
000002f0: 867d 4ac1 df26 4a41 7bd8 45c1 ac99 4841
00000300: 997a 46c1 f929 4bc1 c95d 4cc1 43c7 46c1
00000310: 3be9 49c1 f815 48c1 776c 4941 2bb6 45c1
00000320: 6f73 4941 06bc 4b41 a7fb 4641 da13 4cc1
00000330: b236 4c41 611d 4bc1 5a2d 4641 4293 49c1
00000340: 212c 4c41 1524 4c41 49a5 4b41 509d 4a41
00000350: 7319 4741 22c1 4541 7430 4cc1 f5fc 4b41
00000360: 8a80 4ac1 8d55 4ac1 b395 4bc1 f868 4941
00000370: 476c 49c1 7315 4841 3807 46c1 2867 4641
00000380: b7a6 46c1 e6d3 4cc1 f227 4dc1 e284 4cc1
00000390: e6ce 48c1 6fd5 4bc1 0810 4b41 a09f 4cc1
000003a0: 2d59 4641 0ac3 4541 3eb4 4c41 e469 48c1
000003b0: 84e1 4741 8a95 48c1 44dd 4841 9556 4ac1
000003c0: b933 4ac1 e65d 46c1 9fe9 47c1 0c8f 4bc1
000003d0: a2ac 47c1 f2ac 45c1 8105 4d41 683c 4cc1
000003e0: f2fd 4541 2b60 4a41 2969 4b41 4bd0 49c1
000003f0: df33 4841 ddf1 4bc1 6b6c 4b41 79ba 4bc1
12.4522915 12.767568 12.509348 12.549254 12.617324 12.452354 -12.616727 12.738589
-12.370423 -12.798544 -12.47309 12.612521 -12.803393 12.492773 -12.380516 12.588995
-12.377616 -12.657425 -12.664183 -12.783957 -12.478538 -12.68424 12.533246 -12.451432
12.706155 12.812108 12.693398 -12.474111 12.701701 -12.790766 12.618327 -12.476691
12.563215 12.68924 12.579362 12.759457 12.627172 12.697032 -12.656018 12.6890745
-12.583901 -12.500262 -12.3259535 12.535398 -12.392239 12.676871 -12.698565 12.827727
12.548731 12.829351 12.67605 12.483656 12.761712 12.49711 -12.770217 12.773784
-12.744183 -12.707879 -12.408115 12.327215 -12.715185 12.407686 -12.542526 12.814318
12.45352 12.359068 12.816547 12.5344715 12.432848 12.6881895 -12.410145 12.708872
-12.718582 -12.611796 -12.36527 12.439805 -12.317256 12.787322 -12.698579 12.819879
12.617328 12.535794 12.805145 12.427065 12.732875 12.763818 -12.544799 12.639654
-12.397895 -12.415994 -12.715205 12.440734 -12.336925 12.716494 -12.574349 12.52044
12.679979 12.662719 12.711753 12.840837 12.720623 12.585686 -12.682651 12.668417
-12.430624 -12.657158 -12.605033 12.66087 -12.65499 12.681764 -12.432098 12.362949
12.6659975 12.663744 12.516886 12.414833 12.550735 12.461379 -12.7911 12.407401
-12.636818 -12.786852 -12.789646 12.635468 -12.59763 12.645214 -12.241723 12.330701
-12.642147 -12.714707 -12.717699 -12.383196 -12.74117 -12.603981 12.378045 -12.342312
12.355353 12.4177475 12.667791 -12.702537 12.689873 -12.306786 12.422419 -12.494407
12.790308 12.503981 12.744295 12.338017 12.508472 12.385895 -12.583321 12.549284
-12.725112 -12.477835 -12.580193 12.4219475 -12.619475 12.600387 -12.616284 12.847875
-12.752969 -12.750359 -12.831531 -12.582485 -12.477672 -12.5278425 12.422591 -12.645492
12.504881 12.516639 12.780977 -12.63416 12.512849 -12.674458 12.57807 -12.32913
12.768477 12.553559 12.805178 12.854849 12.716717 12.549599 -12.413022 12.3678055
-12.526164 -12.493761 -12.618494 12.372336 -12.655645 12.63449 -12.365352 12.537518
-12.404931 -12.697747 -12.772897 -12.423648 -12.619441 -12.505363 12.588981 -12.356975
12.590682 12.733404 12.436439 -12.754847 12.763353 -12.694673 12.386072 -12.598452
12.760774 12.758809 12.727853 12.663406 12.443713 12.359652 -12.761829 12.749257
-12.656382 -12.645886 -12.724048 12.588127 -12.588935 12.505237 -12.376762 12.400185
-12.415702 -12.801733 -12.822252 -12.782442 -12.550512 -12.739608 12.691414 -12.788971
12.396771 12.360117 12.794004 -12.525852 12.492558 -12.536509 12.55402 -12.646138
-12.637628 -12.397924 -12.494536 -12.722424 -12.479647 -12.354723 12.813844 -12.764748
12.374498 12.6484785 12.713174 -12.613353 12.512664 -12.746549 12.713969 -12.733026

fc2.bias f4 [16]
00000000: bfc8 8741 ca6b 87c1 0ec7 8541 9b97 8841
00000010: efa7 8741 1f12 8741 41a1 8841 6ce1 8641
00000020: a771 88c1 ca06 8641 7242 88c1 8854 8841
00000030: e840 87c1 d465 8841 f3cc 86c1 c816 87c1
16.97302 -16.927631 16.722195 17.074026 16.956999 16.883848 17.078737 16.86007
-17.055494 16.753315 -17.032444 17.041275 -16.906693 17.04972 -16.850073 -16.886124

fc3.weight f4 [16, 16]
00000000: c7f0 4941 28fd 48c1 d217 4c41 a1a2 4a41
00000010: 683f 4b41 81c3 4741 4565 4a41 d180 4a41
00000020: 1a35 49c1 84a0 4541 0f17 47c1 e353 4741
00000030: f20d 4ac1 c5c7 4a41 190f 4bc1 f467 49c1
00000040: 2b6d 4b41 ac4f 4cc1 c566 4b41 e5e2 4a41
00000050: 8711 4741 3b9d 4841 db89 4b41 be78 4541
00000060: ea3e 4dc1 19e3 4b41 3552 49c1 0fc5 4c41
00000070: 09a9 46c1 11f5 4c41 66cb 4bc1 b797 4bc1
00000080: 2728 4641 d931 4cc1 8602 4c41 72cc 4c41
00000090: 8c95 4841 70f8 4c41 3f74 4c41 4086 4a41
000000a0: 724f 4cc1 8921 4841 84e4 4bc1 9037 4a41
000000b0: d137 49c1 6093 4a41 bc0c 4cc1 c0c3 4cc1
000000c0: f535 4b41 5bc8 4bc1 2330 4941 d4ae 4741
000000d0: 0c51 4a41 a630 4d41 e27b 4641 b0ba 4a41
000000e0: 63b1 4bc1 1a2d 4a41 2f7d 4cc1 c0a9 4541
000000f0: 6bad 4cc1 1168 4c41 38d1 47c1 55e0 4cc1
00000100: 3a87 45c1 bcb8 4941 0103 4cc1 37eb 46c1
00000110: 5cd9 47c1 2603 49c1 a8c5 4ac1 9d11 46c1
00000120: efb9 4541 1a3c 48c1 95c8 4441 1b2f 4ac1
00000130: 6e57 4a41 1079 47c1 a1ea 4841 b224 4b41
00000140: 5ffc 45c1 e7ba 4441 1fbe 46c1 a30b 48c1
00000150: 036a 47c1 778d 48c1 1621 44c1 712f 47c1
00000160: 5c4f 4641 8cd3 49c1 d19b 4941 7092 48c1
00000170: 3c13 4941 3f87 44c1 6654 4941 222d 4941
00000180: 3003 4dc1 6291 4a41 b525 47c1 4447 47c1
00000190: bb7d 49c1 8ddc 4bc1 d890 4ac1 da3a 48c1
000001a0: 7ae2 4441 24ac 46c1 bb3f 4541 41cc 4ac1
000001b0: c943 4a41 732f 4cc1 d4b2 4541 15a5 4941
000001c0: c4e7 42c1 021e 4941 97f0 43c1 5483 49c1
000001d0: af47 47c1 13ef 46c1 7fa9 49c1 7e37 45c1
000001e0: eafe 4541 55c5 44c1 565f 4941 e3ad 44c1
000001f0: 294a 4841 fe03 42c1 191c 4741 ddad 4441
00000200: db8e 4b41 32e6 44c1 8c39 4a41 9ddb 4641
00000210: 5143 4b41 7167 4741 500c 4841 7537 4b41
00000220: ab30 4bc1 6448 4641 5324 49c1 6b74 4441
00000230: 71e5 4bc1 32b2 4a41 34a4 46c1 3af1 48c1
00000240: 21bc 4a41 2d77 45c1 8f4d 4b41 4993 4741
00000250: fe92 4b41 e2d4 4a41 4c26 4641 5bed 4b41
00000260: ccbe 48c1 4894 4541 32fe 49c1 4aa8 4841
00000270: 1089 45c1 c918 4a41 d45d 4ac1 1c5f 47c1
00000280: 8505 4b41 a893 4cc1 d195 4a41 eebd 4c41
00000290: 6b1a 4d41 0935 4741 fd11 4c41 e2bc 4c41
000002a0: d658 48c1 eb1b 4d41 caea 4cc1 ebb7 4a41
000002b0: b16b 4ac1 23e7 4541 359b 45c1 8faa 49c1
000002c0: 69a6 4741 e353 45c1 90af 4941 5084 4841
000002d0: 8b05 4d41 344a 4b41 0d57 4c41 8ff3 4b41
000002e0: 86c4 45c1 6d81 4c41 9a11 4bc1 b228 4841
000002f0: 5720 4bc1 294e 4c41 c3d9 4ac1 1a08 4cc1
00000300: 8792 4541 d571 4cc1 515c 4a41 f2ed 4b41
00000310: 31ed 4a41 1786 4641 75da 4a41 a98c 4641
00000320: 45bb 49c1 e052 4c41 8b56 4ac1 0d32 4b41
00000330: c11b 48c1 c25a 4641 05e9 49c1 c2f9 49c1
00000340: 456d 4bc1 7b3b 4b41 e216 47c1 17d3 47c1
00000350: 6f2f 47c1 9acb 47c1 ed13 4cc1 d67f 4ac1
00000360: 0462 4b41 138f 48c1 1a73 4c41 a710 47c1
00000370: ca76 4641 61f6 4ac1 ad9a 4c41 3115 4c41
00000380: bdd4 4c41 cf07 4dc1 2063 4c41 37fa 4741
00000390: f2df 4541 e2ce 4741 0a68 4c41 9e71 4a41
000003a0: 712f 47c1 4754 4641 4b45 4bc1 0718 4c41
000003b0: 7c85 48c1 2672 4941 bdd3 4bc1 bfcf 45c1
000003c0: 8ecf 45c1 245e 4841 9342 4ac1 7388 46c1
000003d0: 7a51 44c1 a159 47c1 1bee 46c1 7b4c 45c1
000003e0: c427 4641 6656 45c1 1bd4 4441 ab5d 4ac1
000003f0: bda6 4541 0c38 47c1 1691 4841 feb0 4741
12.621284 -12.561806 12.7558155 12.664704 12.70298 12.48523 12.649724 12.656449
-12.575464 12.351688 -12.44313 12.45798 -12.628405 12.673772 -12.691186 -12.587879
12.714152 -12.769451 12.71259 12.680394 12.441779 12.538386 12.721156 12.341978
-12.82786 12.742944 -12.58257 12.79811 -12.416268 12.809831 -12.737158 -12.72454
12.384803 -12.76217 12.750616 12.799913 12.53651 12.810654 12.77838 12.657776
-12.769396 12.508187 -12.74329 12.638565 -12.576127 12.66098 -12.753109 -12.797791
12.700673 -12.736415 12.574252 12.480183 12.644787 12.824377 12.405245 12.670578
-12.730807 12.636011 -12.780562 12.353943 -12.792338 12.775407 -12.488579 -12.804769
-12.345514 12.607601 -12.750733 -12.4324255 -12.490566 -12.563269 -12.673256 -12.3793
12.357894 -12.514673 12.29897 -12.6365 12.646345 -12.467056 12.557282 12.696459
-12.374114 12.29563 -12.421416 -12.502841 -12.463382 -12.534537 -12.258078 -12.449082
12.394375 -12.614147 12.600541 -12.535751 12.567196 -12.283019 12.583105 12.573519
-12.813278 12.660494 -12.446706 -12.454899 -12.593196 -12.741345 -12.660362 -12.514368
12.305292 -12.4170265 12.328059 -12.674867 12.641549 -12.761584 12.356159 12.602803
-12.181583 12.569826 -12.246238 -12.594563 -12.455001 -12.433368 -12.603881 -12.326048
12.374735 -12.298177 12.585775 -12.292453 12.5181055 -12.125975 12.44436 12.292447
12.722377 -12.3062 12.63905 12.428617 12.703935 12.462754 12.503006 12.701039
-12.699382 12.3926735 -12.571368 12.278422 -12.743516 12.668505 -12.415089 -12.558893
12.67093 -12.341596 12.706435 12.473458 12.723387 12.676973 12.38435 12.745448
-12.546581 12.3487015 -12.624559 12.541086 -12.345963 12.631051 -12.647907 -12.46072
12.688848 -12.786049 12.661576 12.79637 12.81895 12.450448 12.754392 12.796114
-12.521688 12.819316 -12.807322 12.669902 -12.651292 12.36893 -12.350392 -12.60414
12.4781275 -12.33298 12.605362 12.532303 12.813853 12.705616 12.771253 12.746963
-12.360479 12.781598 -12.691797 12.509935 -12.695395 12.769082 -12.6781645 -12.751978
12.348273 -12.777791 12.647538 12.745592 12.682908 12.407737 12.678334 12.409341
-12.60822 12.770233 -12.646129 12.699719 -12.506776 12.397158 -12.61939 -12.623476
-12.714177 12.702022 -12.443087 -12.489036 -12.44908 -12.487207 -12.754865 -12.65621
12.71143 -12.53493 12.778101 -12.4415655 12.404001 -12.685151 12.787763 12.755174
12.801938 -12.814406 12.7742 12.498588 12.367174 12.4880085 12.7754 12.652739
-12.449082 12.395576 -12.704417 12.755866 -12.532589 12.590368 -12.739194 -12.363219
-12.363173 12.522984 -12.641253 -12.408313 -12.269892 -12.459382 -12.433131 -12.331172
12.384708 -12.333593 12.301784 -12.647868 12.353208 -12.451183 12.535421 12.480711

fc3.bias f4 [16]
00000000: 9912 8441 97cb 8541 258b 8341 4956 8341
00000010: aa18 82c1 a6c9 80c1 e797 84c1 50da 82c1
00000020: 31a0 8341 9cf9 8441 36dd 8341 9f5d 8341
00000030: fcaf 8241 aeaf 84c1 0198 8341 1f71 85c1
16.50908 16.72441 16.442942 16.417131 -16.262043 -16.098461 -16.574171 -16.356598
16.453218 16.62188 16.483013 16.420713 16.33593 -16.585781 16.44922 -16.680235

fc4.weight f4 [13, 16]
00000000: 63fb 5b3e 9243 0dbd 023a dd3d 5407 3c3e
00000010: fb24 b33d 2de1 59bd ca7c fbbd fd9a 12bd
00000020: 3af0 57be 2313 f9bd 3b6e abbd 4cc4 bcbc
00000030: e84c 5fbe 60f0 353e bbde 453e ed25 343d
00000040: 361a 983d 3528 3a3e 8868 24be 1ac4 0ab8
00000050: 5911 e9bd ae73 983d ba65 afbd f9a1 753d
00000060: 9f54 82be db2f 0abe 33b4 273e 5250 dfbd
00000070: 793c 453d ab0e 7b3d 4662 2f3e bfea 34be
00000080: be12 adbd 3909 67be 5a89 45bd 90e9 eebd
00000090: 421b 4abe f0c4 a93e 32eb 1cbe 4b1e 083e
000000a0: 0640 5e3d 84e0 753e 73e3 7cbd d4ee 223d
000000b0: c505 503e 4c38 e8bd c889 5d3b d304 d73c
000000c0: e930 29be addf d13d 8f23 b4bd 3aeb 5dbd
000000d0: fd39 58be cdce a53e eb4e 7b3c 91d2 45bd
000000e0: e9fa 3ebe aa54 2b3e 6341 fd3d 68c3 72bc
000000f0: c998 103e 339d e43d 1ea7 3d3c 5524 4c3e
00000100: f853 e1c0 be43 e7c0 3439 eac0 7dea e7c0
00000110: a2b1 eb40 8db5 de40 76be e240 9465 ee40
00000120: e470 e8c0 07d8 e1c0 6751 e7c0 2b19 e7c0
00000130: 9454 e3c0 6966 e740 e3ca e8c0 7c85 df40
00000140: cb11 633e b073 79be ab48 81be 9cc9 99bc
00000150: e3f0 fabd 0cce 57bd 9392 073e d7f8 003e
00000160: ec52 6d3d f9d1 dd3d 15af bd3d 6b35 3c3e
00000170: 74eb 4cbe 25b3 fe3d 48da 9b3d 4c4d 313d
00000180: abeb c5c0 6d66 ccc0 c380 cdc0 b8fb cbc0
00000190: e953 c440 ce14 ca40 43ce c540 611c c340
000001a0: 4a33 c6c0 87ec c3c0 52e0 c4c0 4b35 c9c0
000001b0: 7168 c9c0 657e c740 89a5 cdc0 89e1 c240
000001c0: 0547 4a3e bef7 ad3d 68ba 09bb ba0b 18be
000001d0: b018 2c3e 4096 413e e8dd 85be c5fd 143d
000001e0: 8758 ccbd 4d1b 2bbe 53e3 813d f693 79bd
000001f0: b6de a23d 2120 583d 4352 6f3d ac34 f0bd
00000200: 2bb2 c5c0 6ca6 cec0 ce97 cac0 ba65 c7c0
00000210: 05cd c440 3ebc c440 267a c340 3d19 c240
00000220: 4a94 c7c0 6e08 cfc0 f770 ccc0 9d51 cbc0
00000230: b748 cec0 980a c940 9ea8 c7c0 bdd6 cf40
00000240: 8b14 dec0 27ed e0c0 c6be dac0 b185 e3c0
00000250: e83b e140 a1a9 e240 92ea e140 f2e0 d740
00000260: 2170 d8c0 4985 dec0 52e3 e3c0 6a1a e0c0
00000270: 5c2b dec0 1e1e e540 5bc8 e2c0 f16e e540
00000280: 1677 ed3d 830a ed3c 2982 2e3b 3f0a 273e
00000290: 3797 e43d bcff b43e 697a 1d3e 96c1 3c3e
000002a0: b5d1 6ebe 1010 a9bd 94ae 22be 41d3 393e
000002b0: 0a63 7e3d fc57 2c3e be7e fa3c d175 1f3e
000002c0: 04dc d5c0 903f d5c0 8e18 d5c0 7aed dbc0
000002d0: c77f dc40 1829 d940 0c6e d740 e186 d940
000002e0: 8172 d6c0 25c0 d0c0 0a8b d3c0 38c8 d1c0
000002f0: 63d8 dac0 d1de dc40 1df8 d8c0 9268 dc40
00000300: 51f2 c1c0 51e3 bac0 8498 c0c0 a72a c2c0
00000310: 38a4 bf40 0e87 bd40 c8de c240 0367 c140
00000320: 21b4 bdc0 6562 c1c0 654a c1c0 c2d5 b8c0
00000330: b125 bac0 a496 c040 42f8 c1c0 df47 be40
0.21482615 -0.03448827 0.1080208 0.1836217 0.08747288 -0.05319326 -0.12279661 -0.03579234
-0.21087733 -0.12161853 -0.08370634 -0.02304282 -0.21806681 0.17767477 0.19323246 0.04398148
0.07426874 0.181794 -0.160555 -3.3084398e-05 -0.11380262 0.07443939 -0.08564325 0.059968922
-0.25455186 -0.13494818 0.16377334 -0.10903992 0.048153374 0.061293285 0.17127332 -0.17667674
-0.084508404 -0.22562112 -0.04822669 -0.11665642 -0.1973696 0.33158064 -0.15324095 0.13292806
0.054260276 0.24011427 -0.06174035 0.039778545 0.20314701 -0.11338863 0.0033804048 0.026247418
-0.16522564 0.10247741 -0.08795845 -0.054179408 -0.21115871 0.3238434 0.01533864 -0.048296515
-0.18650402 0.16731516 0.12365987 -0.014817096 0.14120783 0.11162796 0.011575488 0.19935735
-7.0415 -7.2270193 -7.319483 -7.247374 7.3654337 6.959662 7.0857496 7.4498997
-7.2637806 -7.0576205 -7.228687 -7.2218223 -7.1040745 7.2312512 -7.2747664 6.9850445
0.22174756 -0.24360538 -0.25250754 -0.018772893 -0.12252977 -0.052686736 0.13239507 0.12594925
0.05794041 0.10831065 0.0926191 0.18379752 -0.20011693 0.12436513 0.07609993 0.043286607
-6.185018 -6.387503 -6.421968 -6.3744774 6.135243 6.3150396 6.1814284 6.097214
-6.193761 -6.122623 -6.152383 -6.2877555 -6.293999 6.234179 -6.426457 6.090031
0.19753654 0.08494519 -0.0021015648 -0.14848223 0.16806293 0.18904972 -0.26145864 0.036374826
-0.09977823 -0.16709633 0.06342187 -0.060932122 0.07952635 0.052765016 0.05842806 -0.11728796
-6.177999 -6.457815 -6.331031 -6.231168 6.150027 6.147979 6.1086607 6.065581
-6.2368517 -6.469779 -6.3887897 -6.3537126 -6.4463763 6.282543 -6.239333 6.494963
-6.9400077 -7.0289493 -6.835788 -7.1100698 7.038563 7.0832067 7.059884 6.746209
-6.7636876 -6.95377 -7.121499 -7.0032244 -6.942793 7.1599264 -7.0869575 7.1697927
0.115949795 0.028935676 0.0026627874 0.16312502 0.111616544 0.3535136 0.15378727 0.18433222
-0.23322184 -0.08255017 -0.15886909 0.18146993 0.06210617 0.16830438 0.030578014 0.15572287
-6.6831074 -6.664009 -6.6592474 -6.872739 6.890598 6.7862663 6.7321835 6.7977147
-6.7014775 -6.523455 -6.6107225 -6.555691 -6.8389144 6.9021993 -6.7802873 6.887765
-6.0608296 -5.8402486 -6.0186176 -6.0677066 5.988796 5.922736 6.089695 6.0438247
-5.9282384 -6.043261 -6.0403314 -5.7760935 -5.817101 6.0183887 -6.061555 5.9462733

fc4.bias f4 [13]
00000000: 27bb cabf cb3d 703f bf91 5c3f 102e 853f
00000010: 5a21 0dc1 043c 913f a0d6 f0c0 b0e7 af3f
00000020: f243 f0c0 7550 01c1 040c 843f 89fe 00c1
00000030: 2c8a ecc0
-1.5838364 0.9384429 0.8615989 1.0404682 -8.820642 1.134644 -7.5261993 1.374258
-7.508294 -8.082143 1.0316167 -8.062142 -7.3918667
