MRTAWorld_DQN/Prueba1/PruebaDef4p2/DQN_model_2Tasks_CasoX.pth (torch, 6260 bytes, 8 tensors)

fc1.weight f4 [16, 6]
000000 31 5d df be fa e3 f3 3d dc 5a e6 bf 48 4d 95 bf
       -0.43625787 0.119087175 -1.7996478 -1.1664209
000010 60 b7 4e 3f e8 ae e1 3e a7 58 9b be 7d 97 32 bf
       0.8074856 0.44078755 -0.30341074 -0.697624
000020 61 8a 69 3f e0 3f d3 3f 88 27 08 bf 7d 41 4d be
       0.91226774 1.6503868 -0.5318532 -0.20044513
000030 0d fa 14 be 3a c8 08 3f 55 c8 be bf 51 28 be bf
       -0.14548512 0.5343052 -1.4904886 -1.4856054
000040 47 bc 1f 3f 70 4d 4d 3e b8 18 ae be bf cb 90 3e
       0.62396663 0.20049071 -0.34003234 0.28280446
000050 c4 5b ac 3f 53 70 8d 3f 6d ee a3 bf 0a 5b 13 bf
       1.3465505 1.1049904 -1.2807137 -0.5756079
000060 f8 2c 84 3e 2b a1 ec be e2 1b 96 bf 47 eb bd bf
       0.25815558 -0.4621671 -1.1727259 -1.4837426
000070 11 bc 7f 3e a1 05 cd 3e d0 dc bf 3d 5d e8 1a bf
       0.24974085 0.40043357 0.093682885 -0.6051081
000080 a1 3d 84 3f 5a cc 77 3f dc 07 4c bf 03 0b a0 bf
       1.0331308 0.9679619 -0.7969949 -1.250336
000090 f0 e7 84 be ad d9 e2 bd 56 ea a0 bf 45 11 d6 bf
       -0.25958204 -0.110766746 -1.2571514 -1.672402
0000a0 3d bf 4f be d2 73 42 3e a6 97 88 3e 0e 6a 54 3e
       -0.20287795 0.18989494 0.266782 0.20743582
0000b0 51 3a b7 3f b7 c2 00 40 67 d3 f8 3e 0b 90 06 3f
       1.4314672 2.0118845 0.48598787 0.5256354
0000c0 c7 14 a4 be e0 9e 24 bd 98 17 7e 3f ef de 87 3f
       -0.32047102 -0.040190578 0.9925475 1.0614909
0000d0 7d 95 3c bf ab 63 77 bf eb 97 6a be 7d 34 a3 be
       -0.736656 -0.96636456 -0.22909515 -0.31875983
0000e0 a6 27 a3 bf 18 90 ce bf 31 c6 5b 3f bf ce 08 3f
       -1.2746475 -1.6137724 0.8584929 0.5344047
0000f0 8f 6f bd be 4a 05 97 bd 8f 96 e3 bf 90 ca a7 bf
       -0.36999175 -0.07374056 -1.7780322 -1.3108692
000100 96 6a 9e 3e 50 63 8e be ef d4 38 3f 52 98 66 be
       0.30940694 -0.27810144 0.7219991 -0.22519043
000110 1e fb df bf 6f 59 87 bf 62 8b 1e 3e b3 83 89 bd
       -1.749851 -1.0574168 0.15482858 -0.06714573
000120 92 de ca 3e e9 a5 ab be 60 bb b2 3f fa 34 98 3f
       0.39622933 -0.33525017 1.3963432 1.1891167
000130 76 e9 14 be d2 65 24 be 56 46 6f be 41 8e 8f 3e
       -0.14542183 -0.16054466 -0.23366675 0.2803822
000140 af 35 ee 3f d7 24 c3 3f bc d5 b7 be 67 eb b2 3d
       1.8610133 1.5245618 -0.35905254 0.08736306
000150 4d 2d b0 3b dc fb 3d 3e ca 4c d7 bf 11 fb f0 bf
       0.005376494 0.18553108 -1.6820309 -1.8826619
000160 94 ba 87 be bb 80 b5 be 73 d8 09 3f 65 b9 ea bd
       -0.26509535 -0.35449776 0.538459 -0.114611425
000170 f5 f9 b9 bf cb f2 cc bf 8b b0 44 be fb 07 d2 be
       -1.4529406 -1.6011595 -0.19207971 -0.41021714

fc1.bias f4 [16]
000000 8d ab c2 be 21 78 c1 3e 69 83 b1 be 3e 0f 94 3f
       -0.38021508 0.37786964 -0.3467057 1.1567152
000010 f1 53 00 bf c9 3b 20 3f e4 99 83 3e 8e d7 a2 bd
       -0.50128084 0.62591225 0.25703347 -0.0795127
000020 94 f3 99 3f 07 e0 dd be 1f 76 8f 3d 1d 6b 87 3d
       1.2027459 -0.43334982 0.07004952 0.06612227
000030 4f d8 b9 3e 06 58 2d be d6 08 dd 3e 78 25 f4 3e
       0.36297843 -0.1692811 0.43170804 0.47684836

fc2.weight f4 [16, 16]
000000 3b 99 7c 3f 59 08 02 bf ce 8e 06 3f 28 f0 06 c0
       0.9867131 -0.5079399 0.5256165 -2.108408
000010 dc c9 9d 3f 17 84 1e bf f5 57 86 3f 2a e6 40 bf
       1.2327228 -0.61920303 1.0495592 -0.753512
000020 ee 4a b0 bf a4 58 e1 3f d6 70 5c 3f 2b 72 1f 3f
       -1.3772867 1.7605176 0.86109674 0.6228358
000030 52 92 09 bf 2c 7b 6c bf c5 51 78 3f f9 94 63 3f
       -0.5373889 -0.92375445 0.9699977 0.8889919
000040 18 6a a6 3f 69 95 95 bf a3 93 14 3f 1a d8 08 c0
       1.3001127 -1.1686221 0.58037776 -2.1381898
000050 fc 3b a4 3f 01 f4 9a bf 32 ee 54 3f c2 a6 39 bf
       1.2830806 -1.2105714 0.8317596 -0.7252008
000060 8f 36 ad bf 7e d7 ee 3f f1 42 4b 3f e7 d0 3f 3f
       -1.3532275 1.8659513 0.7939902 0.74928135
000070 a3 77 78 bf 75 34 79 bf 16 30 3e 3f af 64 d0 3e
       -0.9705755 -0.9734567 0.74292123 0.40701815
000080 c6 54 9e 3f b0 b0 58 bf 41 90 9f 3f 62 54 0d bf
       1.2369621 -0.84644604 1.2465898 -0.5520688
000090 1b 34 59 3f e9 b2 05 bf c1 8d 6b 3f c8 df 89 bf
       0.8484513 -0.5222612 0.92013174 -1.0771418
0000a0 76 99 15 bf 8d 4c 54 3f f3 95 9e 3f 53 a1 23 3f
       -0.5843729 0.8292931 1.2389511 0.63918036
0000b0 d9 94 80 bf 31 92 9a bf 0e 71 80 3f 15 23 4c 3f
       -1.0045425 -1.2075864 1.0034502 0.7974103
0000c0 63 07 b1 be dc 20 8f be 31 d3 c2 bf b7 ce 40 bf
       -0.34575948 -0.27954757 -1.52207 -0.7531542
0000d0 03 87 3f be 80 22 09 3f 71 21 d4 bf 77 6d a3 3f
       -0.18703847 0.5356827 -1.6572706 1.2767781
0000e0 97 07 22 be 2a 37 c5 3e 08 b2 e2 bf 86 e8 47 bf
       -0.15823208 0.3851865 -1.7710581 -0.7808918
0000f0 64 b1 a4 3f d8 69 9e 3f 62 1c e5 bf 0d fa ac bf
       1.2866635 1.2376051 -1.7899287 -1.351381
000100 e1 0a c5 3f 5a 21 61 bf b0 25 47 3f eb 23 86 c0
       1.5393945 -0.87941515 0.7779188 -4.1918845
000110 42 a2 ce 3f f2 c1 9c bf 7a 48 08 3f 61 24 6f be
       1.6143267 -1.2246687 0.5323559 -0.23353721
000120 39 49 27 c0 c1 28 23 40 5b bd 2b 3f a4 9d 6c 3f
       -2.6138442 2.5493624 0.6708581 0.9242804
000130 73 5d 03 bf f2 a4 18 bf f0 0c 24 3e c6 c5 f0 3e
       -0.5131447 -0.59626687 0.1602056 0.4702589
000140 1e 94 b3 bf 27 93 82 3f 3e 6e 64 bf f2 a4 fd 3f
       -1.4029577 1.0201157 -0.89230716 1.9815962
000150 51 59 a1 bf 86 4d 40 3f 9f 17 6d bf f0 c7 ee 3e
       -1.2605382 0.7511829 -0.9261417 0.46636915
000160 65 a6 bd 3f d8 96 dd bf 0d 3a 4c bf fd 13 bc be
       1.4816405 -1.7311659 -0.7977608 -0.36734
000170 e1 a5 23 3f cd 74 6b 3f fa 96 28 bf 20 ef 11 bf
       0.63924986 0.919751 -0.6585537 -0.570055
000180 ff e9 0c 3f 23 50 39 bf db 60 56 3f b9 24 d8 be
       0.5504455 -0.72387904 0.8374154 -0.42215517
000190 25 fa 76 3f 75 f5 a8 be 3c d1 90 3f ec 9c 8d bf
       0.9647544 -0.3299977 1.1313853 -1.1063514
0001a0 fc 7a 37 bf f2 75 17 3f 13 5c 9f 3f 70 8c 36 3f
       -0.71672034 0.59164345 1.2449974 0.7130804
0001b0 94 29 69 bf 17 9d 59 bf d9 7e 90 3f f2 fc 41 3f
       -0.9107907 -0.85005325 1.1288711 0.7577659
0001c0 21 72 d3 bf d6 b4 77 3f c0 42 82 bf e5 a8 fa 3f
       -1.6519204 0.9676031 -1.017662 1.9582793
0001d0 e8 08 86 bf ef 90 c8 3f 9c ae 17 bf 3f e7 36 3f
       -1.0471468 1.566923 -0.5925081 0.71446604
0001e0 43 84 e6 3f bd fd d1 bf 4a 0c 05 bf 3b 33 be be
       1.8009113 -1.640556 -0.51971877 -0.3714846
0001f0 d0 32 48 3f b0 44 09 3f 78 40 29 bf 0c 0d 30 bf
       0.78202534 0.53620434 -0.66113997 -0.6876991
000200 65 b9 b8 3e 5c 9e 71 bd 52 d2 8c 3f 89 ec b4 3e
       0.36078945 -0.058988914 1.1001685 0.35336712
000210 9f 4a 81 3e 49 e2 3c bf f1 fc c2 3f ce 0e 9f bf
       0.25252244 -0.73782784 1.5233442 -1.2426393
000220 7a 75 b2 3d 50 fb ca bd 5a 61 c0 3f 85 81 3b 3f
       0.08713813 -0.09911215 1.5029709 0.73244506
000230 c4 da bf bf f0 42 a3 bf 73 17 bb 3f 69 f8 6b 3f
       -1.4988637 -1.2754803 1.4616531 0.9217592
000240 ca 63 32 40 10 c3 b1 bf 91 0f a7 3f fe f5 f9 bf
       2.7873406 -1.3887653 1.3051625 -1.9528196
000250 12 19 64 3f a2 7d 1e c0 3d 9d 4d 3f e3 2c b2 be
       0.89100754 -2.476418 0.8031805 -0.3479987
000260 24 cd fd bf 95 de 19 40 ce eb 36 3f 30 c1 b0 3e
       -1.9828229 2.4042103 0.7145356 0.3452239
000270 fb ee 9a bf c8 cd a5 be d4 b2 af 3e d4 1e b4 3e
       -1.2104181 -0.3238356 0.34316123 0.3517977
000280 df 44 29 3f 24 22 68 be 15 da b0 3f 52 69 05 3f
       0.66120714 -0.22669274 1.3816553 0.5211383
000290 2e 73 c8 bc f7 20 65 bf 30 d0 bb 3f bb 9c a6 bf
       -0.024468984 -0.89503425 1.4672909 -1.301658
0002a0 3d 0f ed 3d b3 d5 53 3e fd 3f bf 3f f7 42 08 3f
       0.11575172 0.20686989 1.4941403 0.5322718
0002b0 f9 6f 99 bf 7d 59 6d bf 45 b3 c1 3f 00 e2 90 3f
       -1.1987296 -0.92714673 1.5132834 1.131897
0002c0 2e 08 a5 3f 99 7c 3a bf 15 0e 38 3f 9b e0 35 bf
       1.2893121 -0.7284637 0.7189649 -0.71045846
0002d0 3e 2e 88 3f e4 79 73 bf 4a 7c 73 3f 12 be 50 bf
       1.0639112 -0.95107865 0.95111525 -0.81540024
0002e0 82 83 67 bf 03 78 5d 3f 3f 76 a0 3f aa 70 3a 3f
       -0.9043504 0.8651125 1.2536086 0.7282816
0002f0 da 31 79 bf 28 10 4f bf 93 aa 33 3f 94 18 60 3f
       -0.9734169 -0.8088403 0.7018215 0.87537503
000300 ca b6 0a 40 8c fc d6 be e5 0a 85 3f 7e c4 07 c0
       2.1674066 -0.41989553 1.039395 -2.121368
000310 3f 96 50 3f 10 45 f6 bf 83 89 00 3f 33 00 0f be
       0.8147926 -1.9239826 0.50209826 -0.1396492
000320 62 1d e1 bf 9a f9 c7 3f 73 0f 21 3f 5b 0e d8 3e
       -1.7587092 1.5623047 0.629142 0.42198452
000330 e6 26 25 bf 6f cb 0e bf 99 3d 15 3f f4 ee 04 3f
       -0.6451248 -0.55779165 0.58297116 0.51927114
000340 3e 79 42 c0 66 2d b3 3f 95 73 0a bf 44 0e 2a 40
       -3.03865 1.399823 -0.54082614 2.6571207
000350 fe c5 ef bd 5f d8 3f 40 f1 3f 3d 3f d3 4e 65 bf
       -0.11707686 2.9975812 0.7392569 -0.895734
000360 96 6c 3e 40 55 cf 44 c0 37 03 12 3f 61 bd 1a 3f
       2.9753776 -3.0751545 0.57036155 0.6044522
000370 ff 68 93 3c af 24 ec be 97 2b 6d 3f bc a8 82 3f
       0.017994402 -0.46121737 0.9264464 1.0207744
000380 46 2e 76 bf 29 c5 20 3f d1 3e 88 bf 3c ab a2 3e
       -0.9616436 0.6280084 -1.064417 0.31771266
000390 c6 c1 09 bf b8 89 69 3f 87 d0 ac bf 73 76 a3 3f
       -0.538113 0.9122577 -1.3501137 1.2770523
0003a0 48 ff 0c 3f 14 f9 3e bf 90 8b b0 bf 7b 72 3a bf
       0.5507703 -0.74598813 -1.3792591 -0.72830933
0003b0 b1 39 74 3f 83 ac 78 3f a4 42 8f bf 54 b2 6e bf
       0.9540053 0.9713823 -1.1192212 -0.9324086
0003c0 7e 9a fe 3f 27 a4 66 bf 9a c1 a0 3f 08 37 15 c0
       1.9890897 -0.90094227 1.2559083 -2.3314838
0003d0 86 9b a6 3f ab 8a 06 c0 57 83 26 3f b1 b4 06 bf
       1.3016212 -2.1022136 0.6504416 -0.52619463
0003e0 5f 68 07 c0 30 f5 ed 3f 86 fe 52 3f 96 6c 6d 3f
       -2.1157453 1.859045 0.8241962 0.92743814
0003f0 6a 49 54 bf 32 84 72 bf 6d 87 ee 3e f1 ea cb 3e
       -0.8292452 -0.94732964 0.46587697 0.39827684

fc2.bias f4 [16]
000000 0b c5 b4 be 3e 97 06 bf ab ba 8e bc cc 27 84 bf
       -0.35306582 -0.5257453 -0.017422995 -1.0324645
000010 56 52 9a bf 9c d3 02 3f df 17 02 3e 6b ea ee 3e
       -1.2056377 0.5110414 0.12704419 0.46663222
000020 e7 fb 2a 3f d7 16 be bf dd a0 4a 3f c4 7b db bd
       0.6679062 -1.485072 0.7915171 -0.10716966
000030 27 d7 54 bf 76 51 2c 40 31 86 3f 3c 62 2e 85 bf
       -0.83140796 2.692472 0.011689709 -1.040478

fc3.weight f4 [16, 16]
000000 9f 6d 96 bf d6 69 af bf 13 f2 6a bf 47 b6 f6 3e
       -1.1752204 -1.3704174 -0.91775626 0.48185942
000010 ca fb 33 c0 ca c2 9d 3f 6d 1e 79 bf 59 08 87 3f
       -2.812243 1.232507 -0.9731205 1.0549423
000020 e9 d0 1e bf 8c a8 8f bf 09 7a de be 6a f8 5d bf
       -0.6203752 -1.1223311 -0.4345248 -0.86707175
000030 fa 90 bb bf a1 f2 65 3f 00 63 0f 3f b1 fe 9c bf
       -1.4653618 0.8982335 0.56010437 -1.2265226
000040 d4 f9 e2 be 12 5d 80 3d fd da 07 bf 22 1c e8 3f
       -0.4433123 0.06267752 -0.53068525 1.8133585
000050 81 64 31 3f 40 d6 81 bd d0 9e 96 bf 8f 58 fd be
       0.6929398 -0.06339693 -1.1767216 -0.49481627
000060 ae 0b c9 bf 58 8a d3 3f a8 fb 90 bf 89 71 a3 be
       -1.5706689 1.6526594 -1.1326799 -0.31922558
000070 41 1b 09 3f 98 25 33 c0 f3 33 87 3f 04 92 62 3f
       0.5355721 -2.7991695 1.0562729 0.8850405
000080 6b 14 2c bf ac 8a 6b bf 1e a2 90 bf db 16 00 3f
       -0.67218655 -0.9200847 -1.1299474 0.50034875
000090 e0 fa 97 bf 03 27 4a 3f 8b ab 82 bf 56 b0 a7 3f
       -1.1873436 0.7896578 -1.0208601 1.3100688
0000a0 66 aa 3c bf b8 1e d9 bf 46 11 7b bf 66 9e 7b bf
       -0.7369751 -1.69625 -0.9807323 -0.9828857
0000b0 0a 43 6c bf ae e4 0d 40 80 4d 24 3f 52 61 82 bf
       -0.92289793 2.2170825 0.64180756 -1.018595
0000c0 36 f7 4a be a5 e0 bd bd d8 c2 b2 3e 9a 63 43 bf
       -0.19820866 -0.09271363 0.3491428 -0.76323855
0000d0 37 ef ca bf cb 21 02 3e 57 d6 17 3e 41 7e 83 3e
       -1.5854253 0.12708203 0.14827858 0.25682262
0000e0 f6 17 b3 3e c9 05 29 c0 02 bf a1 3e c9 f6 8a 3e
       0.34979218 -2.640978 0.3159104 0.27141407
0000f0 64 f2 5e bf 3d 22 42 40 e0 d7 4e bd a6 ca 9c bf
       -0.8708861 3.0333397 -0.050498843 -1.2249343
000100 32 31 04 3f 76 a9 82 3f d2 9d 76 3f 53 80 a9 be
       0.51637566 1.0207965 0.96334565 -0.33105716
000110 ae 2d 6f 3f f1 95 85 bf 83 61 23 3f f6 8e a1 bf
       0.93429077 -1.0436383 0.63820666 -1.2621753
000120 3c f7 43 3f 8c 85 ef 3f be 5d 50 3f a2 18 83 3f
       0.76549125 1.871263 0.8139304 1.0241892
000130 2d d5 a8 3f 5b 94 25 c0 58 9b 2e bf 8e 99 aa 3f
       1.3190056 -2.58718 -0.68205786 1.3328111
000140 b3 93 7e 3f f4 62 a8 3f b1 f6 46 3f 65 91 00 bf
       0.9944412 1.3155198 0.7772017 -0.50221854
000150 8d fd db 3f c8 44 96 bf 77 15 56 3f 97 81 bd bf
       1.7186753 -1.173974 0.836265 -1.4805173
000160 ed af 02 3f 20 f7 fb 3f 31 36 d9 3e 6b e8 5c 3f
       0.5104969 1.9684792 0.42424157 0.8629214
000170 b9 c6 c3 3f 32 7b 0d c0 10 83 27 bf f6 61 a6 3f
       1.529502 -2.2106442 -0.6543436 1.2998645
000180 64 e6 07 bf c4 fb 56 bf 58 ea 82 bf 5c f9 06 3f
       -0.53085923 -0.83977914 -1.0227766 0.5272424
000190 25 2f 5e bf 01 6d 8b 3f 29 40 82 bf ef 95 82 3f
       -0.86790687 1.089264 -1.017583 1.0202006
0001a0 8c 44 18 bf 0f ad 9e bf 2d de 80 bf 61 a4 72 bf
       -0.59479594 -1.2396563 -1.0067803 -0.9478207
0001b0 c6 ac 8e bf 5c 77 d9 3f c2 c0 3f 3f ff 51 53 bf
       -1.1146476 1.698955 0.749035 -0.8254699
0001c0 a1 5f a0 bf 6b f7 8e bf 4e a4 44 bf ba 41 33 3f
       -1.2529184 -1.1169256 -0.7681321 0.70022166
0001d0 82 7e 26 c0 4f b6 6d 3f 77 c2 8f bf 38 85 8f 3f
       -2.6014714 0.92856306 -1.1231221 1.121253
0001e0 03 e8 2b bf 9e c5 43 bf bf 3d 9c be 8a 02 8d bf
       -0.67150897 -0.76473415 -0.3051586 -1.10164
0001f0 d0 6f 9a bf fd f7 a8 3d 45 e2 0f 3f 28 fe bc bf
       -1.2065372 0.08250425 0.56204635 -1.4765062
000200 87 f8 7c 3f 2a a7 b4 3f 7e 38 6c 3f 95 16 1d bf
       0.9881672 1.4113514 0.922737 -0.6136258
000210 b7 21 f3 3f 4b fb a7 bf ec 83 2e 3f 13 66 b9 bf
       1.8994664 -1.3123564 0.68170047 -1.4484276
000220 94 e8 0f 3f 6a 9f ec 3f ea 56 05 3f ba 63 7f 3f
       0.5621426 1.8486149 0.52085745 0.99761546
000230 a7 b2 c6 3f 4f 0e 01 c0 14 b6 4d bf 77 4d d8 3f
       1.552327 -2.0164983 -0.80355954 1.689864
000240 91 cd e9 bd 6b d3 91 be 2c 2a 5e 3f c5 f7 f0 bf
       -0.11416162 -0.28481612 0.867831 -1.8825613
000250 51 83 d9 bf e2 95 05 3e 28 22 61 3f 2d 4b a1 3e
       -1.69932 0.13045457 0.87942743 0.31502667
000260 44 5b e0 3f a3 ff 09 bf 5f 36 cf 3f d6 1a 0c 3f
       1.7527852 -0.53905696 1.6188468 0.5472845
000270 de 4a 90 be c0 e6 e3 3f 43 9a 83 bf 83 97 2a bf
       -0.2818212 1.7804794 -1.0281452 -0.6663744
000280 d9 72 c0 3f c2 ef 81 3f 8a 1b 5f 3f 76 c2 67 bf
       1.5035049 1.0151293 0.87151396 -0.905311
000290 8c ef 25 40 67 00 8a bf 6f bb 87 3f 71 88 4d bf
       2.5927458 -1.0781373 1.0604075 -0.8028632
0002a0 8a 7c 87 3f d4 e9 e5 be bb d1 41 3f 69 8a 6d 3f
       1.0584881 -0.4490496 0.7571065 0.9278932
0002b0 75 cf af 3e ac 4e b2 3f 16 6d 3b bf 59 28 47 3f
       0.34337965 1.3930259 -0.73213327 0.7779594
0002c0 f9 1e f2 bd 34 8c 83 3e af ea 14 bf 1a 4e 8d 3f
       -0.11822314 0.25692904 -0.581706 1.103946
0002d0 23 e0 22 40 c4 30 90 bd f6 2c 6d bf a7 00 d5 bd
       2.5449302 -0.07040551 -0.9264673 -0.10400515
0002e0 22 98 b1 bf 53 59 67 bf 1f db bc bf 90 5b 24 bf
       -1.3874552 -0.9037067 -1.475437 -0.64202213
0002f0 a8 2f 3e 3e ae 29 ce bd b1 d6 7f 3f f9 c8 08 3f
       0.18572867 -0.100665435 0.9993697 0.5343166
000300 e6 fd 0b 3f bd 58 e0 3e 09 13 8d 3f b4 89 8c bf
       0.54684293 0.43817702 1.1021434 -1.0979524
000310 6e db c0 3d 3b b8 c8 be 79 5b 31 3f 21 7c 5f bf
       0.09416853 -0.39203057 0.692802 -0.8729878
000320 ac 36 8a 3f b4 03 50 3f c7 38 45 3f c7 af 87 3f
       1.0797935 0.8125565 0.7703976 1.0600518
000330 04 62 0b 3f c3 35 8b bf df 63 4c bf 0c a3 5d 3f
       0.54446435 -1.0875782 -0.7983989 0.86576915
000340 2c c4 60 3f 6c 05 0b 3f 90 dd 7b 3f 8f 41 a8 bf
       0.87799335 0.5430515 0.9838495 -1.3145007
000350 28 e9 e6 3e ed 3e 44 bf 21 44 99 3f bb 24 0f bf
       0.4509976 -0.7665852 1.1973916 -0.5591542
000360 bc cd ab 3f d6 6d b6 3d 56 d6 a4 3f 7e 9e 32 3f
       1.342216 0.08907668 1.287791 0.6977309
000370 bd e4 b2 3e 42 c0 fd 3e 12 ab 55 bf 2c 8d 97 3e
       0.34940138 0.49560744 -0.8346416 0.29599893
000380 19 f5 9f 3f 60 30 bb 3f db d8 7f 3f ec f9 eb be
       1.2496673 1.4624138 0.9994027 -0.46089113
000390 c7 84 cb 3f e0 d0 94 bf 11 f1 58 3f 02 d9 af bf
       1.5899895 -1.1626244 0.8474284 -1.37381
0003a0 2c a0 08 3f c7 c1 f3 3f 2b 3a 37 3f e2 fa 71 3f
       0.533694 1.9043511 0.7157313 0.9452344
0003b0 cc 6d c1 3f 35 3a 3c c0 0d b8 70 bf 78 b3 e7 3f
       1.5111632 -2.9410527 -0.9403084 1.8101645
0003c0 8f 07 70 3e 01 c1 59 bd 4c ae 1a 3f ad 1f db bf
       0.23440383 -0.05316258 0.60422206 -1.7119042
0003d0 a6 94 b1 bf ae 90 17 3e f3 17 5b 3f bd fa f0 3d
       -1.3873489 0.14801285 0.8558342 0.117665745
0003e0 4d c9 b2 3f 9d dc 68 bf 39 90 d8 3f 6d b6 a9 3e
       1.3967682 -0.9096163 1.6919013 0.33146992
0003f0 a7 54 ff be 2c 9b e1 3f b6 8a 7b bf af b3 67 bf
       -0.49869272 1.762548 -0.9825853 -0.9050855

fc3.bias f4 [16]
000000 29 a4 fb 3f b4 1b 9c c0 d8 e2 be 3f 99 10 82 40
       1.9659473 -4.8783817 1.4912977 4.064526
000010 a2 47 f3 bf b8 c3 32 c0 07 6a 76 3f 08 aa 27 3f
       -1.9006236 -2.7931957 0.96255535 0.6549382
000020 11 78 14 c0 1c 8f 63 40 b1 28 d7 3f f7 0d 03 c0
       -2.3198283 3.5556097 1.6809293 -2.0477273
000030 4d 69 18 3e 14 71 a1 3f ef 65 42 c0 5b 6f 82 40
       0.14883919 1.2612634 -3.0374715 4.076093

fc4.weight f4 [3, 16]
000000 df bc 19 3e 09 99 32 40 37 94 ae bd 2c ff 6c bf
       0.15013455 2.7905905 -0.085243635 -0.9257686
000010 12 f4 ab 3e f2 71 60 3e 86 94 d6 3d 5e a8 cf 3e
       0.33584648 0.21918467 0.10477547 0.4055814
000020 77 a0 96 3d 60 1f f6 bf 63 ad b9 bf e6 05 42 3f
       0.07354825 -1.9228325 -1.4506038 0.7579025
000030 f3 1d 81 be c3 4d 8d bf 46 3d 5c 3e 4f 3e 0a c0
       -0.25218162 -1.1039356 0.21507749 -2.160053
000040 fd d2 96 3e b3 aa 33 bf aa 09 62 3f 24 d9 dd 3f
       0.29457846 -0.7018234 0.88295996 1.7331891
000050 cf f6 87 bf fe a1 6d bf 3f 88 55 3f bc e6 07 3e
       -1.0622195 -0.92825305 0.8341102 0.13271612
000060 5c 19 4e bf f8 4a 32 bd 32 7e e2 3d ea 63 41 3f
       -0.80507445 -0.043528527 0.11059226 0.7554308
000070 2c 0a 34 bf d8 0f 99 be 6a 74 98 bf ac a7 fc 3d
       -0.7032802 -0.298949 -1.1910527 0.12336668
000080 04 2f 96 3f ea 34 21 bf e6 7c 1d 3f 46 1c b4 3f
       1.1733098 -0.62971365 0.61518705 1.4071128
000090 5a 05 0c bf 56 ae 82 bf 76 c2 0a 3f de 7c 73 3f
       -0.54695666 -1.0209453 0.54202974 0.9511241
0000a0 a5 46 88 bf 15 1b da 3e e4 8e 33 bf a6 e8 ac be
       -1.0646559 0.42598787 -0.7013991 -0.33771247
0000b0 3f d2 ae be 41 6e b1 be 4d 80 85 bf 05 b2 01 3f
       -0.3414478 -0.3465443 -1.0429779 0.5066226

fc4.bias f4 [3]
000000 80 25 a5 c0 71 b0 63 40 27 91 6b 40
       -5.1608276 3.5576441 3.6807344
