MRTAWorld_DQN/PruebasDef/PruebaDef4p3/DQN_model_2Tasks_CasoX.pth (torch, 6260 bytes, 8 tensors)

fc1.weight f4 [16, 6]
0	0x3f219c90	0.6312952
1	0x3e95f4b1	0.29288247
2	0xbfd3230b	-1.6495069
3	0xbfb1f700	-1.3903503
4	0xbebf2d13	-0.37339076
5	0xbec599ea	-0.3859399
6	0xbec48317	-0.38381264
7	0x3f0c3258	0.5476432
8	0xbfbd5bdc	-1.4793658
9	0xbfe7477c	-1.806869
10	0x3d9d31df	0.07675528
11	0xbed35efe	-0.4128341
12	0xbf0aae68	-0.5417237
13	0x3ea45a67	0.32100222
14	0xbf9efe74	-1.2421403
15	0xc00722e6	-2.111505
16	0xbf017d40	-0.5058174
17	0xbf418a26	-0.7560142
18	0x3e893318	0.26796794
19	0xbe1c4025	-0.15258844
20	0xbfa672b1	-1.3003751
21	0xbfc56af3	-1.5423263
22	0x3f36c078	0.71387434
23	0x3eda8af2	0.42684132
24	0x3eb65535	0.35611883
25	0xbda1cadf	-0.07900023
26	0xbf95bcbf	-1.1698226
27	0xbfa7f930	-1.3122921
28	0x3c4d0619	0.012513661
29	0x3f034ca1	0.512888
30	0xbe5567e9	-0.2084042
31	0xbdfe8c21	-0.12429071
32	0xbf8f3970	-1.1189404
33	0xbfd1d437	-1.6392888
34	0x3f2c3310	0.67265415
35	0x3e98aecf	0.29820868
36	0x3f504cd8	0.81367254
37	0xbe03cb34	-0.12870485
38	0x3fa7b6ed	1.31027
39	0x4006346c	2.0969496
40	0x3f031adb	0.51212853
41	0x3f42cf0a	0.76097167
42	0x3f082e43	0.5319559
43	0xbd0a70a1	-0.033798818
44	0xbfb58cd0	-1.4183598
45	0xbfd1c033	-1.638678
46	0x3daeef0d	0.08541689
47	0x3f48f703	0.7850191
48	0xbc8819e6	-0.016613912
49	0xbf2b2efc	-0.6686857
50	0x3f357b1a	0.70890963
51	0x3f9c79af	1.2224635
52	0xbf4ece32	-0.8078338
53	0xbf31383b	-0.69226426
54	0x3eb725fb	0.35771164
55	0xbead7cd1	-0.3388429
56	0x3fb4166c	1.4069343
57	0x4003b88b	2.0581386
58	0x3f487ec2	0.7831842
59	0x3f54f259	0.83182293
60	0xbe93d162	-0.28870684
61	0xbe6f960a	-0.23397079
62	0xbfcd9edd	-1.6064106
63	0xbfd65c45	-1.6746908
64	0xbe6d5841	-0.23178197
65	0x3ecbfbe3	0.39840612
66	0x3eb9d285	0.36293426
67	0xbf10fe4a	-0.56638014
68	0xbf9a8b75	-1.2073809
69	0xbfe37611	-1.7770406
70	0x3f31eaeb	0.6949908
71	0x3e41f7c6	0.18942174
72	0xbe44a69b	-0.1920418
73	0xbdd0a936	-0.101885244
74	0xbf9ca38b	-1.2237409
75	0xbfcbe5d2	-1.592951
76	0x3f45b8af	0.7723493
77	0x3f3e25e4	0.74276567
78	0x3f42f2a3	0.76151484
79	0xbdeb3750	-0.114851594
80	0x3f972a39	1.180976
81	0x3fdd1b0f	1.7273883
82	0x3f2679e7	0.6502976
83	0x3f011542	0.5042306
84	0x3e5ff944	0.21872431
85	0xbef22a6c	-0.4729799
86	0xbf4c722a	-0.798617
87	0xbfc7cf06	-1.5610054
88	0x3f060215	0.52346927
89	0x3d2bee5e	0.04197537
90	0x3eaf60bd	0.34253493
91	0xbe8db1f4	-0.2767483
92	0x3f3cb10a	0.7370764
93	0x3f9816ab	1.1881918
94	0xbf952726	-1.1652572
95	0xbf7aa496	-0.9790739

fc1.bias f4 [16]
0	0x3e94c993	0.2906004
1	0x3e7d6ed4	0.24749309
2	0x3f0647c2	0.52453244
3	0xbed30eac	-0.4122213
4	0x3bb1897b	0.0054180003
5	0xbf811b3b	-1.0086435
6	0xbf33ada0	-0.70186806
7	0xbd75eae8	-0.060038477
8	0x3fafe490	1.3741627
9	0xbf475ef7	-0.7787928
10	0xbe29f4bb	-0.16597264
11	0xbeb32c4a	-0.34994727
12	0xbf05de91	-0.52292734
13	0xbf61c73b	-0.88194627
14	0xbf0e9164	-0.556906
15	0x3f515e29	0.817843

fc2.weight f4 [16, 16]
0	0x3eafc49d	0.34329692
1	0x3e92f567	0.28702852
2	0x3e9d55c6	0.30729502
3	0xbfc8ae6b	-1.5678228
4	0x3cdd5e6b	0.027022561
5	0xbfb9f156	-1.4526775
6	0xbee134bb	-0.43985543
7	0xbf643ab8	-0.891521
8	0x3ff9db66	1.952008
9	0xbdd0bc55	-0.101921715
10	0xbed30e2c	-0.4122175
11	0xbf938f13	-1.1528038
12	0xbfc4627c	-1.5342555
13	0xbeb677e3	-0.3563834
14	0xbf8ef481	-1.1168367
15	0x3fc69d39	1.551673
16	0xbf7270fb	-0.94703645
17	0xbfdf7d4d	-1.7460114
18	0xbfc86ffd	-1.5659176
19	0xbded9ef0	-0.116025805
20	0xbf76ee56	-0.9645742
21	0x3e5a61ee	0.2132642
22	0x3fd44aee	1.6585367
23	0xbf9cc692	-1.2248099
24	0x3e7cd609	0.24691023
25	0x3fce8096	1.6132991
26	0xbfe6b827	-1.8024949
27	0xbfb174c3	-1.3863758
28	0xbd1fdc21	-0.03902829
29	0x3fc062c8	1.5030146
30	0xbf806aec	-1.003263
31	0x3ee0f315	0.43935457
32	0x3f240cc0	0.64081955
33	0x3f3e8a7d	0.74430066
34	0x3f75cb8f	0.9601373
35	0x3f81ca93	1.0139946
36	0x3f5b8369	0.8574739
37	0x3f88d970	1.0691357
38	0xbf4f8777	-0.8106608
39	0x3fa7eca2	1.311909
40	0xbf392312	-0.7231914
41	0xbf740310	-0.95317173
42	0x3f8a7bc9	1.0819026
43	0x3fce76e4	1.6130033
44	0x3f5f6ae4	0.8727248
45	0xbf2d9cef	-0.67817587
46	0x3fa76ac7	1.3079461
47	0xbf87e763	-1.0617489
48	0xbe00a984	-0.12564665
49	0xbf56b8b9	-0.83875614
50	0xbf815e11	-1.0106832
51	0x3e71a05d	0.2359633
52	0x3e5567ec	0.20840424
53	0xc0046839	-2.0688612
54	0x3f68abf6	0.9088739
55	0x3e16d697	0.14730297
56	0x3fc5a38e	1.5440538
57	0x3f1b70d7	0.60719055
58	0xbf95616e	-1.1670358
59	0xbd27ef93	-0.04099996
60	0xc026b2ad	-2.6046555
61	0x3f737aad	0.95109063
62	0xbea5b70e	-0.32366222
63	0x3fd6b4ab	1.6773885
64	0x3f08a50b	0.53376836
65	0x3e8bea3a	0.27327138
66	0xbdfdabff	-0.12386321
67	0x4007d98f	2.1226537
68	0x3f790b0a	0.9728247
69	0x40028cd9	2.0398467
70	0xbe0b1889	-0.13583578
71	0x3f91a18b	1.1377424
72	0xc010a536	-2.2600837
73	0x3e7883ff	0.24269103
74	0x3f0910e8	0.5354142
75	0x3fca9415	1.5826441
76	0x3fd9a77d	1.7004238
77	0x3e0f2d5f	0.13982151
78	0x3fcffc1d	1.6248814
79	0xbffb6734	-1.964087
80	0x3f92047b	1.1407617
81	0x3ff3c825	1.9045454
82	0x3fed11ff	1.8521117
83	0xbef0813d	-0.469736
84	0x3f2fc4cd	0.6865967
85	0x3eec9159	0.4620464
86	0xbff38176	-1.9023883
87	0x3f870bf4	1.0550523
88	0xbeabf31c	-0.33583915
89	0xbfdb5313	-1.7134727
90	0x3febd5d7	1.8424634
91	0x3f2d4f15	0.67698795
92	0x3ebc5f7c	0.367916
93	0xbfc67eab	-1.5507406
94	0x3ecda7a0	0.4016695
95	0xbf13e301	-0.57768255
96	0x3eca112d	0.3946623
97	0x3ef8f535	0.48624578
98	0xbd16227f	-0.03665399
99	0x3fbbbb63	1.4666561
100	0x3f26c396	0.6514219
101	0x3fed5233	1.854071
102	0xbeae308d	-0.34021416
103	0x3f68a59c	0.908777
104	0xc007f3f4	-2.1242647
105	0xbdf868ea	-0.12129386
106	0x3f14bcd1	0.5810061
107	0x3f878189	1.0586406
108	0x3fe3f0df	1.7807883
109	0xbe4603bb	-0.1933736
110	0x3f98fdb1	1.195242
111	0xc0174c32	-2.3640256
112	0x3ec4150f	0.38297316
113	0x3e28c7f4	0.16482526
114	0x3e08b1de	0.13349101
115	0x4017e945	2.3736126
116	0x3f52942e	0.82257354
117	0x3fe49328	1.7857409
118	0x3e15c345	0.1462527
119	0x3f957884	1.1677403
120	0xbffb00ca	-1.9609616
121	0x3e4183af	0.1889789
122	0x3f1fd261	0.6243039
123	0x3fe44554	1.7833657
124	0x3fc3b9f2	1.5291121
125	0x3ef22f88	0.47301888
126	0x3ff1aadc	1.8880267
127	0xbfecf684	-1.8512731
128	0x3f0fbae2	0.56144536
129	0x3e3679da	0.1781992
130	0x3f0c7dfc	0.54879737
131	0xbf7d306d	-0.98902017
132	0x3e626e89	0.22112478
133	0xbfdce4c2	-1.7257311
134	0xbf18744c	-0.59552455
135	0x3e7bcdf9	0.24590291
136	0x401856df	2.3803022
137	0xbef8d06e	-0.4859652
138	0xbdf3d87e	-0.11906527
139	0xbe7a642e	-0.24452278
140	0xbfd2799c	-1.6443362
141	0xbf10c842	-0.5655557
142	0xbdf481b2	-0.119388
143	0x4028e1c6	2.63878
144	0x3f75a3b5	0.9595292
145	0x3f8e0716	1.1095912
146	0x3fcd5979	1.604293
147	0x3e6c691b	0.2308697
148	0x3f4effca	0.80859053
149	0xbcdd71f7	-0.027031882
150	0xbfc17d2b	-1.5116323
151	0x3f5bf745	0.8592418
152	0xbf26475d	-0.6495264
153	0xbf9fb9cd	-1.2478577
154	0x3fd09328	1.6294909
155	0x3fbf1eb8	1.493125
156	0x3e6cdcb5	0.23131068
157	0xbfb80f95	-1.4379755
158	0x3f916705	1.1359564
159	0xbdba09fe	-0.09083937
160	0x3f0d3b88	0.5516896
161	0x3f85556c	1.0416694
162	0x3fb09dd5	1.3798167
163	0x3e918a30	0.2842574
164	0x3f5fe083	0.8745195
165	0x3ee17ca2	0.440404
166	0xbf830141	-1.0234758
167	0x3f3e9bb0	0.7445631
168	0xbf4d9225	-0.80301124
169	0xbf9db7a7	-1.2321671
170	0x3f920ee1	1.1410791
171	0x3fc7faa8	1.5623369
172	0x3f313beb	0.6923205
173	0xbfb5a051	-1.418955
174	0x3fb1709a	1.3862488
175	0xbef577d9	-0.47943
176	0x3eb2d8ce	0.34931034
177	0x3f1fec46	0.624699
178	0x3f4c8b0d	0.79899675
179	0x3fa94032	1.3222716
180	0x3f3f26ed	0.7466877
181	0x3f897bfc	1.0740962
182	0xbf261926	-0.64882123
183	0x3f65a291	0.8970118
184	0xbf5d7eef	-0.8652181
185	0xbeffe45c	-0.49978912
186	0x3f69b0ee	0.912856
187	0x3fb84cbd	1.4398419
188	0x3f836ff9	1.0268546
189	0xbf101c96	-0.5629362
190	0x3fc6269d	1.5480534
191	0xbf84a28f	-1.0362109
192	0x3f3c61c3	0.7358667
193	0x3dceb740	0.10093546
194	0x3ea5ad45	0.32358757
195	0xbf0eaa5f	-0.55728716
196	0x3de38e71	0.11111153
197	0xbfd6b6ba	-1.6774514
198	0xbe97dda9	-0.296613
199	0x3da5d39c	0.08097002
200	0x401995e0	2.3997726
201	0xbf04b79c	-0.51842666
202	0x3e2e7f7a	0.17040816
203	0xbe6560ac	-0.22400159
204	0xbfc79698	-1.5592833
205	0xbed498b4	-0.41522753
206	0xbeec50f3	-0.4615551
207	0x401079ca	2.2574334
208	0x3f642990	0.8912592
209	0x3f957bc6	1.1678398
210	0x3f9f1fcb	1.2431577
211	0x3f38ddbc	0.7221334
212	0x3f83a0ad	1.0283409
213	0x3f0618d7	0.5238165
214	0xbf5c08c4	-0.85950875
215	0x3f9529e7	1.1653413
216	0xbf3b1c0a	-0.7308966
217	0xbf413edd	-0.75486547
218	0x3f9afb90	1.2108021
219	0x3fd6fa64	1.6795163
220	0x3f25b68d	0.64731675
221	0xbf90b645	-1.1305624
222	0x3fea67a8	1.8312883
223	0xbecfae11	-0.4056249
224	0x3ea7a800	0.3274536
225	0x3e8b62fc	0.27223957
226	0xbd9e3eeb	-0.077268444
227	0x3ff93f8d	1.9472519
228	0x3f2c04c3	0.67194766
229	0x3ff4e918	1.9133635
230	0x3cc065f4	0.023486115
231	0x3f72a29a	0.9477936
232	0xc007786d	-2.1167252
233	0xbd85eea4	-0.06539658
234	0x3f606cb5	0.87665874
235	0x3fa2c4a1	1.2716256
236	0x3feacd47	1.8343896
237	0xbdffe14c	-0.12494144
238	0x3fb22605	1.3917853
239	0xc0113404	-2.2687998
240	0x3f56a7f4	0.83850026
241	0x3f94492f	1.1584834
242	0x3fa1b816	1.2634304
243	0x3f7e3ced	0.99311715
244	0x3f8b4c35	1.0882632
245	0x3f0492a9	0.51786286
246	0xbf672310	-0.90287876
247	0x3f9b5b82	1.2137301
248	0xbedd9986	-0.43281192
249	0xbf57dc5e	-0.8432063
250	0x3fa10842	1.2580645
251	0x3fcdf505	1.6090399
252	0x3f705781	0.9388352
253	0xbf68e4a3	-0.9097387
254	0x3fb89550	1.4420567
255	0xbf056498	-0.5210662

fc2.bias f4 [16]
0	0x3f936eb6	1.1518161
1	0xbf86d98b	-1.0535139
2	0xbe695cbb	-0.2278928
3	0x3f1a5fd0	0.6030245
4	0xbfa33be4	-1.2752652
5	0x3f841fda	1.032222
6	0xbf82680d	-1.0188004
7	0xbfb72af8	-1.4309988
8	0x3fdeb6d9	1.7399551
9	0x3efc9edc	0.4933995
10	0x3e98d24b	0.2984794
11	0xbed77074	-0.42077982
12	0x3fcded2b	1.6088003
13	0x3e097ee0	0.13427305
14	0xbf90271f	-1.1261939
15	0x3ecf2d44	0.40464222

fc3.weight f4 [16, 16]
0	0x3fa81c0c	1.3133559
1	0x3ed21bab	0.41036734
2	0xbf5d9926	-0.8656181
3	0xbeffc8cf	-0.49957892
4	0xbfc8d405	-1.5689703
5	0xbea1c3bd	-0.3159465
6	0xbf6fb2af	-0.93632025
7	0xbfd5b9f0	-1.6697369
8	0x3f1cd385	0.61260253
9	0xbf844446	-1.0333335
10	0xbf70da1e	-0.9408282
11	0xbf8ca15e	-1.0986745
12	0x3e827eb8	0.25487304
13	0xbf421c92	-0.75824845
14	0xbf7bceed	-0.9836262
15	0xbf88d6e4	-1.069058
16	0x400a7a2a	2.1637063
17	0xbec7397f	-0.38911054
18	0xbe3de8d8	-0.18545854
19	0x3fb3524b	1.4009489
20	0xc000e6fb	-2.014098
21	0x3e96c5d5	0.2944781
22	0xbfc1a4e5	-1.5128447
23	0xbfe1dc80	-1.7645416
24	0x4027ae56	2.6200156
25	0x3ee77541	0.45206645
26	0x3d31c91d	0.043404687
27	0xbe25ea39	-0.1620263
28	0x4011f4a5	2.280557
29	0x3eaa1ccc	0.33225095
30	0xbfb1d019	-1.3891631
31	0x3e3e9428	0.18611205
32	0xbff3409b	-1.9004091
33	0xbf04baca	-0.5184752
34	0x3f6e4bf4	0.93084645
35	0xbfe23873	-1.7673477
36	0x3fc18471	1.5118543
37	0x3f170cc5	0.5900386
38	0x3fcd265e	1.6027334
39	0x3fd704b9	1.6798316
40	0xc00775fd	-2.1165764
41	0x3f2e6c35	0.6813386
42	0x3f7fcbb8	0.99920225
43	0x3fa07d1c	1.253818
44	0xc003138e	-2.0480685
45	0x3f3dda0b	0.7416083
46	0x3fe41e8b	1.7821821
47	0x3f93f296	1.1558406
48	0x3fa858ed	1.3152138
49	0x3ef60183	0.48048028
50	0xbf82a496	-1.0206478
51	0x3f58c239	0.8467136
52	0xbff1040c	-1.882936
53	0xbec2fa73	-0.38081703
54	0xbfc3fb91	-1.5311147
55	0xbfccb3bc	-1.599235
56	0x3fb7125a	1.4302475
57	0xbf37dcb4	-0.7182114
58	0xbee23868	-0.4418366
59	0xbf4f1981	-0.8089829
60	0x3fb6b10d	1.4272782
61	0xbf089859	-0.53357464
62	0xbfd7e93f	-1.6868056
63	0xbf675805	-0.9036868
64	0xbfa698e4	-1.3015409
65	0xbf0ae0c8	-0.5424924
66	0x3f839533	1.0279907
67	0xc010e097	-2.2637079
68	0x3f9daccd	1.231836
69	0x3f7dcd99	0.9914184
70	0x3fc60587	1.5470437
71	0x3f519787	0.8187184
72	0xc01a85bf	-2.4144132
73	0x3f368e95	0.7131131
74	0x3f2cf786	0.6756519
75	0x3f86171e	1.0475805
76	0xc0047d3e	-2.0701442
77	0x3f0bb0da	0.5456673
78	0x3f917458	1.136363
79	0x3f69f6dc	0.913923
80	0x3fbcd7c4	1.4753346
81	0x3f0cc268	0.5498414
82	0xbf2b5371	-0.66924196
83	0x3f08c278	0.53421736
84	0xc006cf33	-2.1063964
85	0xbeba4269	-0.36378792
86	0xbfb5d45d	-1.4205433
87	0xc00ab9e0	-2.167595
88	0x3f9e42bd	1.2364117
89	0xbf35a5a0	-0.7095585
90	0xbf08d694	-0.5345242
91	0xbfa1bc3e	-1.2635572
92	0x3f5f8163	0.87306803
93	0xbf6663a7	-0.8999581
94	0xbfe33e1c	-1.7753329
95	0xbf7f9cd3	-0.9984867
96	0x3ff8e47e	1.944473
97	0xbebb9f08	-0.3664477
98	0x3d2c89b5	0.042123515
99	0x3fd90256	1.6953838
100	0xbf867ad5	-1.0506235
101	0x3ece810a	0.40332824
102	0xbf84d57d	-1.0377651
103	0xbf869ac9	-1.0515987
104	0x400c0844	2.1880045
105	0x3e4aa302	0.19788745
106	0xbe2ea33b	-0.17054455
107	0xbe9a967b	-0.30192932
108	0x401d57c1	2.458481
109	0xbd8c9f32	-0.068663016
110	0xbf9a7673	-1.2067398
111	0x3e950a9a	0.2910965
112	0xbf3f92d7	-0.74833435
113	0xbf80ea69	-1.0071536
114	0x3f900224	1.1250653
115	0xbe28466a	-0.16433111
116	0x3fc5cb78	1.5452719
117	0x3f0a876c	0.5411289
118	0x3f8649e1	1.0491296
119	0x3fd0206d	1.6259896
120	0xbf0fceb3	-0.5617477
121	0x3f65a2cf	0.8970155
122	0x3fa203a5	1.2657362
123	0x3f80deec	1.006803
124	0xbf43ff0a	-0.76561034
125	0x3f892018	1.0712919
126	0x3fb288f7	1.3948048
127	0x3f87b612	1.0602438
128	0x3fe81ece	1.8134401
129	0xbdceb2d5	-0.10092703
130	0x3dc1335a	0.09433623
131	0x3fbe9191	1.4888173
132	0xbfa85beb	-1.3153051
133	0x3ed14584	0.4087335
134	0xbfb91e22	-1.4462321
135	0xbf82a664	-1.0207028
136	0x4015a210	2.3380165
137	0x3e2d40fb	0.1691932
138	0xbd97f828	-0.07420379
139	0xbe4b1fd4	-0.1983636
140	0x3fea24b1	1.8292447
141	0xbdaf3adc	-0.085561484
142	0xbf95e7ad	-1.1711327
143	0x3ebb30bd	0.36560622
144	0x40081651	2.126362
145	0xbeecb99a	-0.46235353
146	0xbe06feef	-0.13183187
147	0x3fbf31f2	1.4937117
148	0xbfba8ee2	-1.4574854
149	0x3f0320ba	0.5122181
150	0xbfc073b6	-1.5035312
151	0xbfb722e1	-1.4307519
152	0x401dea90	2.4674416
153	0x3c640279	0.013916605
154	0xbdcd4886	-0.100235984
155	0xbe567cd5	-0.20946057
156	0x401542b6	2.3321967
157	0x3e57ddd2	0.21080711
158	0xbf9ae6d7	-1.2101697
159	0x3e317591	0.17330004
160	0xbefe2e69	-0.49644783
161	0x3f92e03d	1.1474682
162	0xbf8489de	-1.0354574
163	0x3f8a0983	1.0784153
164	0xbf590d7a	-0.8478619
165	0xbfaf1459	-1.3678085
166	0xbf95d19f	-1.1704596
167	0xbf33612a	-0.70070136
168	0x3ea8a94a	0.32941657
169	0xbfb883bc	-1.4415202
170	0xbfa47d0e	-1.2850664
171	0xbf7a92d0	-0.9788027
172	0x3d099725	0.03359141
173	0xbf5f160a	-0.87143004
174	0xbf9d4e7b	-1.2289575
175	0xbf94250e	-1.1573808
176	0xbf88c889	-1.0686198
177	0xbf874c21	-1.0570108
178	0x3f522f61	0.82103544
179	0xbfc0aa30	-1.5051937
180	0x3fb88158	1.4414473
181	0x3f583161	0.84450346
182	0x3fd32bda	1.6497757
183	0x3fbd6f75	1.4799639
184	0xbfe69616	-1.8014553
185	0x3f8a0354	1.0782266
186	0x3f5acde8	0.8547044
187	0x3f808dbc	1.0043254
188	0xbfb55b64	-1.4168515
189	0x3f3deb79	0.7418743
190	0x3fca4a64	1.5803952
191	0x3f574c7b	0.84101075
192	0x3ed092ed	0.40737095
193	0xbf97e7a5	-1.1867567
194	0x3f8ab13d	1.0835339
195	0x3f2c6e57	0.67355865
196	0x3f619579	0.881187
197	0x3f75e2bf	0.9604911
198	0x3f1184b9	0.56843144
199	0x3f91c278	1.1387472
200	0x3ea864a2	0.32889277
201	0x3fa25320	1.2681618
202	0x3fa67820	1.3005409
203	0x3f800df3	1.0004257
204	0x3ec63482	0.38711935
205	0x3f882dcc	1.0638976
206	0x3f3135e4	0.69222856
207	0x3f95b816	1.1696804
208	0xbf387b15	-0.7206281
209	0xbf74c3c6	-0.95611227
210	0x3f6829bc	0.9068868
211	0x3f7a2b9d	0.977228
212	0x3fae408c	1.3613448
213	0x3f1f2be4	0.62176347
214	0x3f73faec	0.9530475
215	0x3fe2382b	1.7673391
216	0x3e1241fd	0.14282985
217	0x3f94174a	1.1569607
218	0x3f73d4c0	0.95246506
219	0x3f95758f	1.1676501
220	0x3e344e3f	0.17607974
221	0x3f8ce4b3	1.1007293
222	0x3f6011a6	0.8752693
223	0x3f8a2285	1.0791785
224	0x3fbd2bed	1.477903
225	0xbfe0cb04	-1.7561955
226	0x3e8bb2da	0.2728489
227	0xbf18ccc3	-0.5968744
228	0xbfb02fc0	-1.3764572
229	0x3fe882c0	1.8164902
230	0xbea1362e	-0.31486648
231	0xbfc1fdb9	-1.5155555
232	0x3f691e88	0.9106221
233	0x3fc3cba3	1.529652
234	0x3f9639f6	1.1736438
235	0x3d3282dd	0.043581832
236	0x3f50f179	0.8161846
237	0x3f088324	0.53325105
238	0xbf6fb71c	-0.9363878
239	0x3f6c04fb	0.921951
240	0x3ecaa37c	0.39577854
241	0xbfcc3121	-1.5952493
242	0x3f868e37	1.051215
243	0xbf20d6d5	-0.6282781
244	0x3f5a980c	0.85388255
245	0x3fdacdd6	1.7094066
246	0x3f4d8af6	0.8029016
247	0x3ec637f0	0.38714552
248	0xbc819316	-0.015817206
249	0x3f961c0c	1.1727309
250	0x3fb70968	1.4299746
251	0x3f440d93	0.7658321
252	0xbe199674	-0.149988
253	0x3f946dd6	1.1596019
254	0x3eea9223	0.45814618
255	0x3f94a6ab	1.1613363

fc3.bias f4 [16]
0	0x3fe59a3b	1.7937692
1	0x4082ff2a	4.093648
2	0xc01de5d4	-2.4671526
3	0x4016b7f5	2.3549778
4	0xbfad67cf	-1.3547305
5	0x402d560c	2.708377
6	0x401d2a34	2.4557009
7	0xbf1d35ed	-0.6141041
8	0x401a216a	2.4082894
9	0x4062ea94	3.5455675
10	0xbf5d7697	-0.8650908
11	0xbfab2b0c	-1.3372512
12	0x3f8e1189	1.1099101
13	0xbfad0b67	-1.3519105
14	0x409ac7d9	4.8368955
15	0x3fd45f26	1.6591537

fc4.weight f4 [3, 16]
0	0xbdf1f6bf	-0.11814641
1	0xbf6dc1e7	-0.92873996
2	0x3df99501	0.12186623
3	0xbded674f	-0.1159197
4	0xbd3fdb54	-0.046840027
5	0xbe488576	-0.19582161
6	0xbf247a7d	-0.642494
7	0xbc213d9a	-0.009841347
8	0xbf19cd40	-0.6007881
9	0xbf3c1509	-0.734696
10	0x3f739813	0.9515392
11	0xbde5166a	-0.11185916
12	0xbf4cbc6c	-0.7997501
13	0xbe1bd899	-0.15219344
14	0xc012dcc2	-2.294724
15	0xbf8dc2fb	-1.1075128
16	0x3ebf63a7	0.37380716
17	0x3fa9bd99	1.3260986
18	0xbf6d0e1c	-0.92599654
19	0x3f548bf2	0.8302604
20	0xbf7ee713	-0.9957134
21	0x3f2605da	0.6485268
22	0x3f86ff95	1.0546747
23	0xbec68614	-0.38774168
24	0x3f7d6cda	0.9899422
25	0x3f6a476e	0.91515243
26	0x3ef862b6	0.4851281
27	0xbf5bd557	-0.85872406
28	0xbe2a5737	-0.16634832
29	0xbe85680f	-0.26055953
30	0x3e9bc560	0.30424023
31	0xbeb357be	-0.3502788
32	0x3f4d7dde	0.80270183
33	0x3f9bb7e9	1.21655
34	0xbf145eb4	-0.57957006
35	0x3f588b9d	0.8458803
36	0xbe4c2d0e	-0.19939062
37	0x3f763bfa	0.96185267
38	0x3ddd2757	0.10798519
39	0xbf19371c	-0.59849715
40	0x3f2b50c0	0.6692009
41	0x3f3a3170	0.72731686
42	0x3ec0b62e	0.37638992
43	0xbefcbef0	-0.49364424
44	0xbf1982dd	-0.59965307
45	0xbf5bf2da	-0.8591744
46	0x3ee51053	0.44739017
47	0xbe98325c	-0.2972592

fc4.bias f4 [3]
0	0xc0a9e68c	-5.309393
1	0x40485860	3.130394
2	0x405e3f33	3.4726074
