MRTAWorld_DQN/Prueba1/PruebaDef1/DQN_model_3Tasks_CasoX.pth (torch, 6964 bytes, 8 tensors)

fc1.weight f4 [16, 6]
000000 11 b7 7b c1 d6 83 76 c1 74 93 81 c1 48 92 79 c1
       -15.732194 -15.4071865 -16.196999 -15.598213
000010 24 bc 78 c1 39 f7 79 c1 fe c3 5a 41 14 67 52 41
       -15.545933 -15.622857 13.67285 13.150166
000020 56 96 59 41 e3 39 55 41 31 8d 51 41 51 94 59 41
       13.599203 13.3266325 13.096971 13.59871
000030 0b e9 7c c1 4a 63 72 c1 82 12 81 c1 44 fa 7e c1
       -15.806895 -15.1492405 -16.134037 -15.9361
000040 3d 74 74 c1 8f 18 83 c1 d1 6f 83 c1 f5 a8 70 c1
       -15.2783785 -16.386992 -16.429598 -15.041249
000050 93 d3 7b c1 a7 1b 7b c1 b5 7b 70 c1 47 8f 7e c1
       -15.739154 -15.694251 -15.030202 -15.90998
000060 dd f0 80 c1 56 51 79 c1 0f 75 79 c1 27 2a 7b c1
       -16.117609 -15.582357 -15.591079 -15.697791
000070 6a 25 79 c1 58 60 80 c1 51 21 7c c1 26 64 74 c1
       -15.571634 -16.047043 -15.758134 -15.27445
000080 12 e2 7c c1 72 72 7b c1 6e 68 73 c1 04 6b 7b c1
       -15.805193 -15.715441 -15.212996 -15.713627
000090 98 b5 59 41 49 d1 57 41 c8 3d 5a 41 2e 7f 5a 41
       13.606834 13.488595 13.640083 13.65605
0000a0 c1 57 54 41 f5 5e 5d 41 dc 5c 82 c1 3e 55 73 c1
       13.271424 13.835683 -16.295341 -15.208311
0000b0 04 2b 81 c1 7a 85 79 c1 48 70 7a c1 0b 91 83 c1
       -16.146004 -15.595087 -15.652412 -16.445822
0000c0 5e d0 80 c1 f6 ae 73 c1 09 78 7f c1 74 73 74 c1
       -16.101742 -15.230215 -15.966805 -15.278187
0000d0 9b 4b 78 c1 9a e3 7b c1 87 00 7d c1 dc 55 76 c1
       -15.518458 -15.743067 -15.812629 -15.395962
0000e0 9b ba 82 c1 86 65 7f c1 b6 ff 72 c1 b2 a6 7c c1
       -16.341116 -15.962286 -15.187429 -15.790697
0000f0 57 55 7d c1 aa 18 6f c1 41 64 7b c1 ce 87 7e c1
       -15.833335 -14.9435215 -15.711976 -15.908155
000100 3a 5b 7b c1 30 1c 79 c1 2c 83 5b 41 01 74 54 41
       -15.709772 -15.569382 13.719524 13.278321
000110 df 7f 55 41 e0 47 5c 41 3c b8 53 41 0d 78 5c 41
       13.343719 13.767548 13.232479 13.779309
000120 fd 2d 80 c1 30 67 70 c1 3d e9 79 c1 03 94 7a c1
       -16.022455 -15.025192 -15.619443 -15.661136
000130 53 1a 70 c1 5c 89 81 c1 4e b2 5b 41 49 d3 56 41
       -15.006427 -16.19207 13.731031 13.426583
000140 6e e8 59 41 32 f5 5c 41 32 05 52 41 54 1b 59 41
       13.619246 13.809862 13.126268 13.569172
000150 ae a0 82 c1 f0 fe 79 c1 18 52 7c c1 3d d0 70 c1
       -16.328457 -15.624741 -15.770042 -15.050839
000160 ed 70 7a c1 7f cc 80 c1 d8 3f 83 c1 e2 2d 74 c1
       -15.65257 -16.099852 -16.406174 -15.261202
000170 6c 5c 81 c1 c2 9e 7b c1 20 c3 6e c1 7e 5c 80 c1
       -16.170128 -15.726259 -14.922638 -16.045162

fc1.bias f4 [16]
000000 86 9a 5f 41 d1 65 82 c1 c8 e7 57 41 6e 81 55 41
       13.975225 -16.299715 13.494087 13.344099
000010 cb 01 58 41 b7 1c 5e 41 eb eb 84 c1 46 73 5a 41
       13.500438 13.88201 -16.615194 13.653143
000020 13 37 5b 41 a4 e1 5e 41 8e 9d 60 41 cf 93 87 c1
       13.700946 13.930088 14.0384655 -16.947172
000030 22 c3 5a 41 04 b6 84 c1 2c 45 5f 41 1e c0 5a 41
       13.67264 -16.588875 13.954388 13.671904

fc2.weight f4 [16, 16]
000000 89 03 94 41 d5 5c 91 c1 8d 27 93 41 bf 71 92 41
       18.501726 -18.170328 18.394312 18.30554
000010 68 1e 93 41 97 5a 91 41 bd 35 91 c1 50 c2 94 41
       18.389847 18.169233 -18.15124 18.59488
000020 90 41 94 41 16 02 91 41 62 2c 94 41 12 b6 91 c1
       18.532013 18.126019 18.521671 -18.213902
000030 47 8b 93 41 5f 3f 8e c1 5b 9d 94 41 fe 72 92 41
       18.443007 -17.780943 18.576834 18.306149
000040 7a b2 93 41 3f 96 90 c1 9e b1 93 41 bd ee 92 41
       18.462147 -18.073362 18.461727 18.366571
000050 1b 8f 92 41 3f 66 95 41 0c d2 8f c1 12 eb 93 41
       18.319876 18.674925 -17.977562 18.48978
000060 23 61 95 41 0a 86 95 41 8e b5 92 41 f8 fb 8e c1
       18.67243 18.690449 18.33865 -17.873032
000070 cd a7 94 41 ec 49 91 c1 14 78 93 41 9b b1 95 41
       18.581934 -18.161095 18.433632 18.711721
000080 1f a0 95 41 51 83 91 c1 8b 1b 92 41 36 5f 92 41
       18.703184 -18.18912 18.263449 18.29649
000090 68 2e 92 41 e8 8b 95 41 8f 4e 8f c1 ca d2 93 41
       18.27266 18.693314 -17.913359 18.477924
0000a0 68 18 96 41 9d 6f 94 41 c2 ac 93 41 af ad 90 c1
       18.761917 18.554499 18.459354 -18.084806
0000b0 9e 61 95 41 9d 38 91 c1 ea 5d 95 41 7e ea 93 41
       18.672665 -18.152643 18.670856 18.489498
0000c0 0c 1d 95 41 d6 53 91 c1 e5 d8 93 41 66 7c 93 41
       18.639183 -18.165936 18.480906 18.435741
0000d0 88 24 93 41 4c d3 95 41 09 f7 90 c1 39 6c 93 41
       18.392838 18.728172 -18.120623 18.427843
0000e0 65 ac 93 41 6b 4b 93 41 d9 7f 95 41 4e 48 91 c1
       18.459177 18.411825 18.687426 -18.160305
0000f0 69 12 94 41 36 7b 92 c1 f5 4f 92 41 96 57 93 41
       18.50899 -18.310162 18.289042 18.417767
000100 5a b1 90 c1 0a dd 00 41 cc 78 93 c1 5e fb 91 c1
       -18.086597 8.053965 -18.433983 -18.247738
000110 bc 9c 92 c1 48 50 92 c1 39 bd 0a 41 65 30 94 c1
       -18.32653 -18.2892 8.671197 -18.52363
000120 24 00 91 c1 d7 37 93 c1 43 f6 92 c1 eb 77 1a 41
       -18.125069 -18.402266 -18.370245 9.654277
000130 08 da 91 c1 b4 ec 0a 41 41 30 93 c1 bd a6 91 c1
       -18.23146 8.682789 -18.398561 -18.206415
000140 41 97 92 41 41 2d 8e c1 43 1d 92 41 1b 66 94 41
       18.323854 -17.772097 18.264288 18.549856
000150 ab 9e 95 41 84 c9 95 41 25 18 93 c1 49 9a 92 41
       18.702475 18.723396 -18.38679 18.325335
000160 5f e8 92 41 4a e0 91 41 e6 cc 93 41 6a 1a 90 c1
       18.363462 18.234516 18.475048 -18.012897
000170 36 48 94 41 c6 3b 90 c1 53 b4 91 41 44 c9 95 41
       18.53526 -18.029186 18.213049 18.723274
000180 75 8d 92 41 df 82 8f c1 95 6a 93 41 59 67 92 41
       18.31907 -17.938902 18.427042 18.300463
000190 ae 60 95 41 d4 23 94 41 c3 45 92 c1 3d 62 95 41
       18.672207 18.517494 -18.284063 18.672968
0001a0 7b 30 93 41 fb 28 94 41 55 67 95 41 35 cd 91 c1
       18.398672 18.52001 18.675455 -18.225199
0001b0 91 b8 95 41 f7 7a 8f c1 62 10 94 41 f5 49 94 41
       18.71512 -17.935041 18.508 18.536112
0001c0 4c d5 94 41 2e e6 8f c1 1b cd 94 41 58 b6 92 41
       18.604149 -17.987392 18.60015 18.339035
0001d0 90 2f 94 41 53 38 93 41 0b d4 8f c1 3a 5e 95 41
       18.523224 18.402502 -17.978537 18.67101
0001e0 1b fd 93 41 a1 aa 92 41 09 52 95 41 41 b3 90 c1
       18.498587 18.333315 18.665056 -18.087526
0001f0 81 a7 94 41 b3 a1 90 c1 e2 3d 95 41 11 8d 92 41
       18.581789 -18.078955 18.655216 18.31888
000200 75 c4 90 c1 58 f4 04 41 89 cb 91 c1 8e f6 91 c1
       -18.095926 8.309654 -18.224382 -18.245388
000210 98 be 93 c1 96 15 92 c1 a0 a0 08 41 86 64 90 c1
       -18.468063 -18.26054 8.539215 -18.049084
000220 a8 ff 93 c1 27 08 92 c1 a6 10 91 c1 11 5d 16 41
       -18.499832 -18.25398 -18.13313 9.397721
000230 7a 11 91 c1 13 f5 08 41 cd 1e 91 c1 06 87 93 c1
       -18.133533 8.559833 -18.14004 -18.44093
000240 13 81 91 c1 19 d8 03 41 8e 26 93 c1 c4 e9 90 c1
       -18.188025 8.240258 -18.393826 -18.114143
000250 9d 86 90 c1 5c ff 90 c1 f9 1b 08 41 94 9b 93 c1
       -18.06573 -18.124687 8.506829 -18.450966
000260 20 b1 93 c1 32 0d 93 c1 eb 95 91 c1 83 05 16 41
       -18.461487 -18.381443 -18.198202 9.376346
000270 0a f5 92 c1 c6 ba 0b 41 4b a8 92 c1 06 1f 92 c1
       -18.369648 8.733099 -18.332174 -18.265148
000280 99 6b 94 41 88 07 91 c1 8e a5 93 41 fc c8 95 41
       18.552538 -18.128677 18.455837 18.723137
000290 78 b3 93 41 3e 1c 95 41 6c 02 90 c1 f4 73 92 41
       18.462631 18.63879 -18.001183 18.306618
0002a0 28 83 94 41 12 dc 92 41 27 28 95 41 57 e9 8e c1
       18.564041 18.357456 18.644606 -17.863935
0002b0 e4 5d 92 41 f4 c5 90 c1 94 fd 92 41 2c 8b 94 41
       18.295845 -18.096657 18.373817 18.567955
0002c0 60 0e 95 41 c9 20 90 c1 8f 82 95 41 d3 ff 94 41
       18.632019 -18.016008 18.68875 18.624914
0002d0 51 b0 94 41 ac ec 93 41 39 f1 90 c1 1f ad 93 41
       18.586092 18.490562 -18.117785 18.459532
0002e0 b8 5a 92 41 b0 0b 92 41 f1 16 93 41 6c d6 8f c1
       18.294296 18.255707 18.386202 -17.979698
0002f0 bb cf 94 41 94 64 91 c1 f1 0b 95 41 f1 fb 93 41
       18.60143 -18.17411 18.63083 18.498018
000300 54 ca 92 c1 b3 c7 05 41 9d 67 92 c1 d5 ad 94 c1
       -18.348793 8.361255 -18.300592 -18.584879
000310 23 f9 91 c1 1f 2a 92 c1 c5 5a 0b 41 c2 bd 91 c1
       -18.246649 -18.270567 8.709661 -18.217655
000320 62 b6 93 c1 47 6b 91 c1 ee 5c 94 c1 cc 2e 1c 41
       -18.464054 -18.177382 -18.545376 9.761425
000330 8e 80 92 c1 79 24 08 41 c6 05 93 c1 fd 89 92 c1
       -18.31277 8.508904 -18.37782 -18.317377
000340 b2 ac 92 41 c6 ab 8e c1 41 3a 93 41 13 3c 93 41
       18.334324 -17.833874 18.403444 18.404333
000350 fa 4c 94 41 01 2b 95 41 46 c2 92 c1 87 3f 94 41
       18.537586 18.645998 -18.34486 18.53102
000360 9d 10 94 41 f4 99 92 41 d5 2b 95 41 4b 14 91 c1
       18.508112 18.325172 18.646402 -18.134909
000370 e7 b0 93 41 f5 67 90 c1 d8 14 95 41 cf 7e 93 41
       18.461378 -18.05076 18.635178 18.436918
000380 88 ab 93 41 24 76 91 c1 95 83 95 41 c0 de 95 41
       18.458755 -18.182686 18.689249 18.733765
000390 a3 58 92 41 7c 99 94 41 6c 8a 92 c1 6d 5e 93 41
       18.29328 18.574944 -18.317589 18.421106
0003a0 66 09 94 41 a6 78 95 41 49 25 93 41 a0 e4 91 c1
       18.50459 18.68391 18.393206 -18.236633
0003b0 b8 b2 92 41 2f 18 91 c1 aa 0f 92 41 79 a4 94 41
       18.337265 -18.136808 18.257648 18.580309
0003c0 df a9 93 c1 23 97 06 41 02 88 94 c1 b7 c2 92 c1
       -18.457945 8.411899 -18.56641 -18.345076
0003d0 31 ce 90 c1 d3 03 92 c1 6d 48 0a 41 6e 1e 92 c1
       -18.10068 -18.251867 8.642682 -18.264858
0003e0 82 cb 93 c1 36 51 94 c1 f5 bc 90 c1 5b 1f 1a 41
       -18.47437 -18.539654 -18.092264 9.632655
0003f0 b4 15 93 c1 8e 39 0f 41 0d d6 93 c1 be 68 92 c1
       -18.385597 8.951551 -18.479517 -18.301144

fc2.bias f4 [16]
000000 4b 77 57 41 82 a2 5c 41 24 59 5a 41 e3 52 59 41
       13.466624 13.789675 13.646763 13.582736
000010 61 32 ab c1 4b c8 5b 41 21 23 57 41 13 0e 5c 41
       -21.3996 13.7364 13.446076 13.753436
000020 ca a7 a8 c1 fa b4 ab c1 e8 66 59 41 62 ca 58 41
       -21.081928 -21.463367 13.587624 13.54941
000030 28 8c ab c1 77 a9 58 41 d5 0c 57 41 07 53 aa c1
       -21.443436 13.541373 13.440633 -21.29054

fc3.weight f4 [16, 16]
000000 6c 33 93 41 c4 08 94 41 84 bf 91 41 be 73 95 41
       18.400108 18.50428 18.218513 18.681515
000010 16 50 93 c1 bb 07 95 41 ce f5 94 41 d5 9b 93 41
       -18.414104 18.628775 18.620022 18.45109
000020 17 e6 93 c1 23 ae 94 c1 56 08 94 41 56 00 95 41
       -18.487349 -18.585028 18.50407 18.625164
000030 cd 68 92 c1 80 53 92 41 c3 ed 94 41 f1 0c 95 c1
       -18.301172 18.290771 18.616095 -18.631319
000040 ab 4b 92 41 53 b1 93 41 ec 5d 93 41 8c 69 95 41
       18.286947 18.461584 18.42086 18.676537
000050 8c 8d 94 c1 f0 2c 94 41 c8 67 94 41 69 8e 95 41
       -18.569115 18.521942 18.550674 18.694536
000060 67 4e 93 c1 ad 05 93 c1 95 54 95 41 b6 5b 95 41
       -18.413282 -18.377771 18.6663 18.66978
000070 6e d3 94 c1 e9 b3 94 41 39 9f 95 41 a4 56 94 c1
       -18.603237 18.587847 18.702745 -18.542305
000080 3c 05 91 c1 da 73 92 c1 69 5c 94 c1 a0 57 95 c1
       -18.127556 -18.306568 -18.545122 -18.667786
000090 c1 c4 62 41 98 59 94 c1 35 d8 92 c1 f6 d0 92 c1
       14.173036 -18.543747 -18.35557 -18.352032
0000a0 af 00 60 41 06 96 66 41 9e 4b 95 c1 df ec 91 c1
       14.000167 14.411627 -18.661922 -18.24066
0000b0 de 6b 60 41 a2 b8 93 c1 8b 1d 93 c1 1f fe 60 41
       14.026335 -18.465153 -18.389425 14.062041
0000c0 f2 ef 91 c1 f2 3e 93 c1 7e 1e 92 c1 9c 17 94 c1
       -18.24216 -18.405735 -18.264889 -18.511528
0000d0 69 94 64 41 13 b5 93 c1 27 d2 93 c1 3c 3b 94 c1
       14.286233 -18.463415 -18.477613 -18.528923
0000e0 0c a0 63 41 5f 91 66 41 80 74 93 c1 55 59 93 c1
       14.226574 14.410491 -18.431885 -18.41862
0000f0 17 e9 67 41 dc 79 94 c1 12 68 95 c1 16 2b 60 41
       14.494407 -18.559502 -18.675816 14.010519
000100 dc ec 92 41 4d 62 94 41 06 ae 94 41 cf ee 94 41
       18.365654 18.547998 18.584972 18.616606
000110 19 cb 92 c1 ae 78 95 41 b4 06 95 41 93 0c 92 41
       -18.349169 18.683926 18.628273 18.25614
000120 6c 57 93 c1 df a9 94 c1 48 b7 94 41 55 67 92 41
       -18.417686 -18.582945 18.589493 18.300455
000130 9e e4 93 c1 a0 fb 94 41 6b 00 94 41 f2 83 94 c1
       -18.48663 18.622864 18.500204 -18.564426
000140 d6 e8 90 41 50 de 93 41 7b 09 91 41 88 50 93 41
       18.11369 18.483551 18.12963 18.414322
000150 10 de 8f c1 33 9e 93 41 9d 83 90 41 0b 7f 91 41
       -17.983429 18.452246 18.064264 18.187033
000160 34 b1 90 c1 6c 5e 93 c1 ea 48 93 41 d2 a7 90 41
       -18.086525 -18.421104 18.410603 18.081944
000170 94 29 93 c1 a8 38 92 41 9e 8f 93 41 25 69 92 c1
       -18.395302 18.277664 18.445126 -18.30134
000180 73 6d 92 c1 3e 0d 92 c1 12 02 91 c1 7b 1d 94 c1
       -18.303442 -18.256466 -18.12601 -18.514395
000190 07 59 66 41 e7 8f 93 c1 a3 47 91 c1 55 7e 94 c1
       14.396735 -18.445265 -18.159979 -18.561686
0001a0 58 c8 63 41 fc f0 65 41 2b 18 93 c1 c9 4d 94 c1
       14.236412 14.371334 -18.3868 -18.537981
0001b0 20 65 64 41 b0 00 92 c1 a4 7c 91 c1 67 95 65 41
       14.274689 -18.250336 -18.18586 14.348975
0001c0 0b 12 92 c1 d2 3e 93 c1 cf da 94 c1 30 36 93 c1
       -18.25881 -18.405674 -18.60684 -18.401459
0001d0 40 1a 62 41 0d d8 93 c1 c6 5f 91 c1 c0 5f 93 c1
       14.131409 -18.480494 -18.171764 -18.421753
0001e0 0c fc 5e 41 6b 28 62 41 fc 72 91 c1 6e b6 93 c1
       13.936535 14.134868 -18.181145 -18.464077
0001f0 64 92 62 41 45 39 94 c1 ef 74 92 c1 82 1b 62 41
       14.16074 -18.527964 -18.307096 14.131716
000200 66 3c 94 c1 fe c6 93 c1 f2 cb 91 c1 24 e4 94 c1
       -18.529491 -18.472164 -18.224583 -18.611397
000210 5c 2b 68 41 6d bf 94 c1 0e e0 91 c1 6e 79 91 c1
       14.510586 -18.59347 -18.234402 -18.184292
000220 52 71 5d 41 e5 75 62 41 91 51 93 c1 74 37 95 c1
       13.840166 14.153783 -18.414827 -18.652077
000230 3b d3 64 41 80 2a 92 c1 2e 6e 94 c1 7d 6f 64 41
       14.30157 -18.270752 -18.553799 14.277219
000240 cd ef 93 41 dd a4 94 41 a5 6c 93 41 dc 25 95 41
       18.49209 18.5805 18.42805 18.643486
000250 ac b3 91 c1 8d 7b 92 41 1b 19 92 41 a0 60 95 41
       -18.21273 18.310328 18.262259 18.67218
000260 e5 c9 90 c1 aa 70 92 c1 62 a5 92 41 01 51 92 41
       -18.098581 -18.305012 18.330753 18.289553
000270 59 3b 94 c1 1e ce 91 41 b6 9e 93 41 0d f0 93 c1
       -18.528978 18.225643 18.452496 -18.492212
000280 2f 85 93 c1 57 1c 94 c1 8b 36 93 c1 9b ec 90 c1
       -18.440031 -18.513838 -18.401632 -18.11553
000290 5d 4d 66 41 4d ce 91 c1 95 11 94 c1 3f 32 94 c1
       14.3938875 -18.225733 -18.508585 -18.524534
0002a0 78 ad 62 41 80 86 60 41 4f 32 90 c1 94 cb 92 c1
       14.167351 14.032837 -18.024565 -18.349403
0002b0 1f 40 62 41 a9 93 93 c1 d3 7f 91 c1 3b 0f 60 41
       14.140655 -18.4471 -18.187414 14.003718
0002c0 48 2f 91 41 74 b1 92 41 04 90 93 41 ef dc 94 41
       18.148087 18.336647 18.44532 18.607878
0002d0 df 68 94 c1 7b 1c 93 41 6b c1 94 41 43 d1 91 41
       -18.551207 18.388906 18.594442 18.227179
0002e0 cc c1 93 c1 8a 8b 94 c1 4f 8f 94 41 04 bc 91 41
       -18.469627 -18.568134 18.569975 18.216805
0002f0 6e a5 92 c1 8e 30 95 41 54 a8 91 41 e7 00 94 c1
       -18.330776 18.648708 18.207191 -18.50044
000300 22 c5 90 c1 33 44 93 c1 98 24 91 c1 d9 6f 92 c1
       -18.096256 -18.4083 -18.142868 -18.304613
000310 a5 8f 63 41 54 4a 92 c1 74 f7 92 c1 ef fb 92 c1
       14.222569 -18.286293 -18.370827 -18.373014
000320 b1 0b 63 41 62 fc 64 41 a8 81 91 c1 b4 5b 93 c1
       14.190354 14.311617 -18.188309 -18.419777
000330 b2 c8 62 41 df e3 91 c1 42 04 91 c1 86 1d 5f 41
       14.173998 -18.236265 -18.127079 13.944708
000340 5b cc 92 41 40 d5 92 41 4d 7f 92 41 87 4c 93 41
       18.349783 18.354126 18.312159 18.412367
000350 25 62 91 c1 bf 2d 94 41 43 e6 94 41 24 2c 92 41
       -18.172922 18.522337 18.612432 18.271553
000360 5d e8 93 c1 d1 05 94 c1 81 a2 94 41 b4 79 92 41
       -18.488459 -18.50284 18.579348 18.309425
000370 9c 98 93 c1 3b c4 92 41 78 8e 94 41 27 48 93 c1
       -18.449516 18.345816 18.569565 -18.41023
000380 e5 a0 93 41 48 33 95 41 e8 6b 94 41 36 dc 94 41
       18.453562 18.65004 18.552689 18.607525
000390 38 c9 94 c1 a0 da 91 41 d3 04 95 41 2b d9 93 41
       -18.598251 18.23175 18.627356 18.48104
0003a0 bf cc 91 c1 fd 7b 91 c1 89 3b 94 41 e6 b5 93 41
       -18.224974 -18.185541 18.52907 18.463818
0003b0 a3 04 92 c1 92 d9 94 41 53 f7 92 41 52 98 94 c1
       -18.252264 18.606236 18.370764 -18.574375
0003c0 50 66 93 c1 45 2b 93 c1 8a 85 94 c1 7f 91 91 c1
       -18.424957 -18.396128 -18.565205 -18.196043
0003d0 50 f2 66 41 53 1a 95 c1 03 23 92 c1 45 7b 94 c1
       14.434158 -18.637854 -18.267096 -18.56019
0003e0 bf 0e 5f 41 1d fc 62 41 e9 46 92 c1 39 9b 92 c1
       13.9411 14.186551 -18.284624 -18.325792
0003f0 18 05 64 41 4b 00 95 c1 38 63 91 c1 77 9a 66 41
       14.251244 -18.625143 -18.173447 14.412711

fc3.bias f4 [16]
000000 a3 a8 52 41 62 89 52 41 8c 72 ae c1 e6 3a af c1
       13.166171 13.158541 -21.805931 -21.903759
000010 05 58 53 41 2d 39 51 41 f9 98 ad c1 e0 73 ad c1
       13.208989 13.076459 -21.699694 -21.68158
000020 91 52 af c1 7a a8 50 41 6b 74 ae c1 bd bd 52 41
       -21.915316 13.041132 -21.806845 13.171323
000030 e3 22 ad c1 a0 b8 53 41 80 cc 53 41 f6 94 ad c1
       -21.642035 13.232574 13.237427 -21.697735

fc4.weight f4 [13, 16]
000000 64 5f b2 bd 34 10 17 3e 1a 73 7c bd b8 e1 9e bd
       -0.087096006 0.14752275 -0.061633207 -0.07757896
000010 24 72 28 3e 24 58 a0 bd b3 56 9d bc 6c ac 67 3e
       0.16449791 -0.078293115 -0.01920638 0.22624367
000020 ce eb 0f 3e f7 b8 5b bd a4 f9 39 3d 37 e3 d8 bd
       0.14054796 -0.053643193 0.04540409 -0.10590213
000030 f1 99 96 bd a3 bf a5 3d df 5e 92 bd 84 af 43 be
       -0.07353581 0.080931924 -0.071470015 -0.19109923
000040 62 33 98 3d 52 03 b1 3d 20 93 3d 3d 2c 38 2a be
       0.074316755 0.086432114 0.046282887 -0.1662299
000050 f6 1c 99 bd 80 7c 2f be a2 5b a8 3e 92 cf 02 be
       -0.07476227 -0.17137337 0.3288241 -0.12774494
000060 96 db 21 3e 43 50 97 bd c2 43 b3 bd df e5 22 3e
       0.15806422 -0.073883556 -0.08753158 0.15908001
000070 59 49 93 bc a5 cd 2d 3e 4f 79 2f be 48 08 0f be
       -0.01797931 0.16972978 -0.1713612 -0.13968003
000080 49 9e b5 bd 67 63 06 be 99 19 bb 3d f3 d5 d2 bd
       -0.08868081 -0.13123856 0.09135742 -0.10294714
000090 c4 93 a6 3c f9 56 85 bd e7 fd 6c bd b4 89 aa bd
       0.020334132 -0.06510729 -0.057859328 -0.08327046
0000a0 03 b6 4f 3e 19 aa 04 be 1a 85 c7 bd 4e e3 69 3d
       0.20284276 -0.12955512 -0.09742184 0.05710154
0000b0 23 ab 05 bd 19 2a cd 3d 3f 1c 72 3e 97 25 98 3d
       -0.03263391 0.10017795 0.23643588 0.07429045
0000c0 6c f9 51 be 35 bd 53 3e d7 07 be 3c c3 6d 99 be
       -0.20505303 0.20677646 0.023197098 -0.29966554
0000d0 9a 1c 0d 3e 36 0c 39 3b 38 d1 50 be 1c 8e 0e 3e
       0.13780442 0.0028236038 -0.2039231 0.13921398
0000e0 d2 fb 63 3d 17 e9 bd 3c e2 25 e2 3c 9a 05 76 be
       0.055660076 0.023182435 0.027605955 -0.24025574
0000f0 d8 91 a4 3d e9 5a 26 be bf ec 6f 3e f4 2c 34 3e
       0.0803563 -0.16245617 0.23430155 0.17595273
000100 b2 9e 2c c1 0a f1 29 c1 bd db 2a 41 8f ec 27 41
       -10.788744 -10.621347 10.678647 10.495254
000110 86 29 2a c1 39 12 2d c1 dd 3f 29 41 2d d4 2b 41
       -10.635138 -10.816949 10.578092 10.739301
000120 8d f6 29 41 63 87 29 c1 78 c3 2a 41 d0 69 2b c1
       10.622693 -10.595553 10.672722 -10.713333
000130 e8 e1 27 41 7b 23 26 c1 82 3e 26 c1 30 c4 28 41
       10.492653 -10.383662 -10.390261 10.547897
000140 64 fa 51 3d 47 2a 43 3e 25 89 42 3e 5e a7 bc bd
       0.05126418 0.19059096 0.18997629 -0.0921161
000150 a7 47 ef bd 55 bc 29 be 64 31 64 bd 2e a0 2b 3d
       -0.116835885 -0.16575749 -0.055711165 0.041900806
000160 34 a0 5d 3d 1d 9f 19 3e 82 34 53 be 78 7b 1e be
       0.05410786 0.15002103 -0.20625499 -0.15476787
000170 f9 be 89 bd 07 36 83 bd 95 7b d9 3d ba f6 05 3e
       -0.06725878 -0.06406789 0.106192745 0.130824
000180 f9 a8 28 c1 76 ae 25 c1 66 4b 26 41 58 ce 25 41
       -10.541253 -10.355093 10.393408 10.362877
000190 9d 88 29 c1 f2 c6 24 c1 f1 a3 22 41 0b 0e 21 41
       -10.595853 -10.298571 10.165025 10.065928
0001a0 33 aa 24 41 5d 15 26 c1 df 22 22 41 8a 7c 23 c1
       10.291553 -10.380216 10.133513 -10.217905
0001b0 2d 24 21 41 79 58 29 c1 68 33 29 c1 25 ab 26 41
       10.071332 -10.5841 -10.57505 10.416783
0001c0 17 40 f7 bd f8 d9 1a bd de 6b 1c 3e c9 5f 9f bd
       -0.12072771 -0.037805527 0.15275523 -0.077819414
0001d0 c1 c9 f0 3d 8a 60 23 bd fb 1b e3 bd b4 4c a9 bc
       0.117572315 -0.03988699 -0.11089321 -0.020666458
0001e0 61 a2 8b be ac 0d 1a 3e a2 c6 1a 3e 38 ea 42 3e
       -0.27272323 0.15044278 0.15114835 0.1903466
0001f0 e7 5d cc 3d ca 52 75 be d0 03 a8 bc f1 cf 99 3d
       0.09978848 -0.23957363 -0.02050963 0.07510365
000200 a9 69 23 c1 35 86 22 c1 d0 b0 1f 41 a4 d6 20 41
       -10.213296 -10.157765 9.980667 10.0524025
000210 93 3c 21 c1 d1 00 1e c1 93 85 1d 41 82 62 1f 41
       -10.077289 -9.875199 9.845111 9.96155
000220 7f 07 1d 41 21 d2 21 c1 d6 41 1e 41 1b a9 1e c1
       9.81433 -10.113801 9.891073 -9.9162855
000230 a0 f0 22 41 35 78 23 c1 b2 8c 22 c1 95 99 1d 41
       10.183746 -10.216847 -10.159349 9.849996
000240 f4 07 22 c1 a1 66 27 c1 22 9f 20 41 2f 12 28 41
       -10.126942 -10.462556 10.038851 10.504439
000250 ed c1 28 c1 a5 c1 24 c1 34 e9 27 41 aa 0c 23 41
       -10.547345 -10.2972765 10.494434 10.190592
000260 3b 06 27 41 57 b8 28 c1 b0 21 26 41 38 40 26 c1
       10.439021 -10.545005 10.3832245 -10.390678
000270 2c bc 23 41 a1 86 23 c1 7b b6 28 c1 35 2b 23 41
       10.23344 -10.220368 -10.544551 10.198049
000280 ad 49 86 3e ee a6 22 3e 8b a1 e6 bd 95 02 30 bd
       0.26228085 0.15883991 -0.112612806 -0.042971212
000290 c8 d9 44 be 0d 6a 2d bd a2 22 16 3e d8 2d 1f be
       -0.19223702 -0.042337466 0.14661649 -0.15544832
0002a0 1c f1 37 bd 53 d8 e4 3c 1f bb f9 3d 92 74 9d 39
       -0.044907674 0.027935183 0.12193894 0.00030032225
0002b0 97 e5 ad 3d 2c f1 2c be 72 52 45 bd c9 1e 83 bb
       0.084910564 -0.16888875 -0.04817433 -0.0040014726
0002c0 72 11 24 c1 1e 88 24 c1 31 73 28 41 fc c4 24 41
       -10.254259 -10.283232 10.528123 10.298092
0002d0 4a 88 23 c1 2e 95 23 c1 27 f2 24 41 46 05 28 41
       -10.220774 -10.223921 10.309119 10.501287
0002e0 34 ec 24 41 a3 6f 22 c1 01 78 21 41 d7 54 27 c1
       10.307667 -10.152255 10.091798 -10.458213
0002f0 3b 6d 21 41 e6 16 29 c1 b0 6b 26 c1 fa a2 26 41
       10.089168 -10.56809 -10.401291 10.414789
000300 38 fb 22 c1 4d a6 23 c1 58 3b 24 41 cc 7c 25 41
       -10.186333 -10.228101 10.264488 10.342968
000310 1e 25 25 c1 83 77 21 c1 27 1d 20 41 0f c6 23 41
       -10.321562 -10.091678 10.007117 10.235854
000320 5a c5 23 41 c6 ba 26 c1 aa fe 1e 41 c6 0b 24 c1
       10.235682 -10.420599 9.937174 -10.252874
000330 e0 cc 22 41 83 5e 26 c1 27 29 24 c1 bb 85 21 41
       10.175018 -10.398074 -10.260047 10.095149

fc4.bias f4 [13]
000000 27 0e 93 c1 9d 58 ed c1 c3 11 e9 c1 88 a7 ed c1
       -18.38191 -29.668268 -29.133673 -29.706802
000010 2b be 06 c1 06 66 ee c1 f8 8d 0b c1 cd be eb c1
       -8.421428 -29.799816 -8.72216 -29.468164
000020 97 e2 fa c0 4b 5b 01 c1 d4 62 e8 c1 1c b0 0c c1
       -7.84016 -8.084788 -29.048256 -8.792995
000030 83 4f 09 c1
       -8.581912
