MRTAWorld_DQN/Prueba1/PruebaDef4/DQN_model_2Tasks_CasoX.pth (torch, 6260 bytes, 8 tensors)

fc1.weight f4 [16, 6]
000000 10 71 30 c0 1b 0e 53 40 41 e9 0e c0 78 81 a2 bf
       -2.7569008 3.297736 -2.2329867 -1.2695761
000010 d0 f3 cf be e5 76 85 be 8c 31 52 3f e4 3b 95 bf
       -0.40615702 -0.26067272 0.8210685 -1.1658902
000020 cd 62 29 40 43 58 e0 3f 07 c2 9e 3c 30 4f 86 3d
       2.6466553 1.7526935 0.019379629 0.065580726
000030 d8 70 f7 be 2c 04 85 be 56 17 17 c0 05 f6 d7 bf
       -0.4832828 -0.25979745 -2.3607993 -1.6871954
000040 c3 c7 f9 3e c5 a1 f6 3e 1a bf 71 bf f6 76 12 3f
       0.4878522 0.48170295 -0.9443222 0.5721277
000050 89 ce 02 c0 c7 71 d8 bf 01 92 99 3e 67 69 7d 3e
       -2.043856 -1.6909722 0.29994205 0.24747239
000060 82 93 4e 3f dc 85 14 bf 36 7a 0e 40 34 1d bc 3f
       0.8069383 -0.58016753 2.2262092 1.4696412
000070 97 b3 d8 be d8 6f 84 bd 18 55 85 3f 79 46 20 bf
       -0.42324516 -0.06466645 1.0416594 -0.6260753
000080 8b 0d 15 40 45 be 0a 40 5a 45 c2 be ff 78 6a be
       2.3289516 2.1678631 -0.37943536 -0.22897719
000090 0f 4f fc be bd 1a 1a be 64 34 09 c0 2f 77 b9 bf
       -0.49279067 -0.15049262 -2.1438227 -1.4489497
0000a0 f6 f6 43 3f e8 e9 1c 3e 65 bd 65 bf a2 0f a7 3e
       0.7654871 0.15323603 -0.8974212 0.32629114
0000b0 7e dd c3 3f 3a f3 c2 3f b2 48 d0 bf 7d 8d 81 bf
       1.5301969 1.5230477 -1.6272185 -1.0121304
0000c0 29 a6 18 40 76 eb 0d c0 85 64 0f 40 ee 36 ed 3f
       2.3851416 -2.2174964 2.2405102 1.8532388
0000d0 f1 03 b5 3e 14 9d 26 be d4 05 5b bf 1a 84 04 3f
       0.3535457 -0.16270858 -0.8555577 0.5176407
0000e0 84 d3 04 c0 fe e7 00 c0 fd b8 2a 3d 50 85 c4 3e
       -2.07541 -2.0141597 0.041680325 0.3838296
0000f0 3e bf 80 bf 46 c0 64 3f ba c7 ab 3f 60 b7 ab 3f
       -1.0058362 0.89355886 1.3420327 1.3415337
000100 d0 b2 d0 bf e7 9a 87 bf 06 ea 85 3f 9b 67 ea be
       -1.6304569 -1.0594147 1.0462043 -0.4578217
000110 92 af 1c 40 03 93 02 40 66 c1 61 be 39 0c 97 bd
       2.448216 2.040223 -0.22046432 -0.07375378
000120 21 fc f9 3f 87 e0 2a c0 ac 9c 02 40 0f 76 bd 3f
       1.9530069 -2.669954 2.0408125 1.4801654
000130 7d cd fc 3d 00 82 13 3e 48 e3 8f 3f 87 cf d6 be
       0.12343881 0.1440506 1.1241236 -0.41955206
000140 9c 50 1c 40 c6 63 af 3f 9d 5e d6 be 5f c7 2e be
       2.44242 1.3702323 -0.4186906 -0.17068242
000150 f0 bd 1b bf 10 fc c5 3e 1c 24 1b c0 51 23 e2 bf
       -0.60836697 0.3866887 -2.424079 -1.7667028
000160 45 c5 47 3f a0 11 60 3e 55 13 23 3f 27 ed ee be
       0.78035384 0.21881723 0.63701373 -0.46665308
000170 45 1e 1b 40 2e 96 04 40 d0 77 fe 3c 81 61 c9 be
       2.4237225 2.0716662 0.03106299 -0.39332202

fc1.bias f4 [16]
000000 b5 bb b6 3e 47 f1 09 be 7d 97 4a bf 52 7f 3f bf
       0.35690084 -0.13470946 -0.791374 -0.7480365
000010 26 59 0c 3f 66 28 35 be 65 31 66 be e9 be 92 3f
       0.5482353 -0.17691192 -0.2247978 1.1464511
000020 7c f5 5d be 79 5a be be 31 f6 a6 3f db b8 b5 3e
       -0.21675676 -0.371784 1.3043882 0.35492596
000030 61 e2 13 be 49 13 98 3e 06 1c b7 be 5d 05 7e be
       -0.14441825 0.29702213 -0.35763568 -0.24806733

fc2.weight f4 [16, 16]
000000 ed 9b f6 3f e2 8e c8 bf 8a bc eb 3f b8 48 11 40
       1.9266335 -1.5668604 1.8416913 2.2700634
000010 86 d6 f1 bf 56 f4 d6 bf 5b 65 b7 3f 9c 0f dd be
       -1.8893592 -1.6793315 1.4327806 -0.43175972
000020 27 fd f9 bf 0e 63 c8 3f 41 63 b6 be f0 84 e8 bf
       -1.9530381 1.5655229 -0.356226 -1.8165569
000030 58 3c df bf 1c 2e 14 c0 a3 23 ee 3f cc 0f dc bf
       -1.744029 -2.3153143 1.8604625 -1.7192321
000040 f8 ec 09 c0 48 98 f6 3f c5 7c ce bf 10 94 fb bf
       -2.1550884 1.9265223 -1.6131827 -1.965456
000050 2f b8 e9 3f 6a b5 e1 3f a2 b8 ca bf ae 64 9d 3e
       1.8259333 1.7633488 -1.5837595 0.30740875
000060 ff 62 fc 3f 32 2b 08 c0 32 03 32 bd cd 49 e0 3f
       1.9717711 -2.1276364 -0.04346008 1.7522522
000070 43 2e 00 40 2b e8 e8 3f 49 60 01 c0 f6 45 d4 3f
       2.0028236 1.8195852 -2.0215018 1.658385
000080 e1 10 86 bf e2 80 2f 3f ba 3a 98 bf ce 4e f3 bf
       -1.0473901 0.68556035 -1.1892922 -1.9008424
000090 a5 dd a7 3f c9 8a c0 3f 78 75 79 bf a2 e4 dd 3f
       1.3114516 1.5042354 -0.9744487 1.7335398
0000a0 81 5e 96 3f ff f9 92 bf 92 ab 9d 3f 5f 16 90 3f
       1.174759 -1.1482543 1.2317984 1.1256827
0000b0 44 98 59 3f b0 c7 bd 3f 38 81 e4 bf c0 1a 56 3f
       0.84997964 1.4826565 -1.7851934 0.8363457
0000c0 96 67 e6 3d 41 08 20 bf 8d fa cc 3f ed 72 49 3f
       0.11250226 -0.62512594 1.6013962 0.7869099
0000d0 cb 17 74 bf 8c 3f 6c bf a2 a0 9d 3f b3 2e 4c c0
       -0.95348805 -0.92284465 1.2314646 -3.1903503
0000e0 e9 1c 31 be 82 9d 40 3f 13 35 3e c0 05 6d 86 bf
       -0.17296185 0.7524034 -2.9719894 -1.050202
0000f0 06 8c b9 be 3e 94 8e bf 96 d6 c3 3f 11 3b 42 bf
       -0.36239642 -1.113899 1.5299861 -0.7587138
000100 0a 3c b7 bf 0a 41 59 3f 5d 60 b0 bf 4e 87 e1 bf
       -1.4315197 0.84864867 -1.3779408 -1.7619417
000110 84 d8 bd 3f ed 92 b8 3f 26 09 b5 bf c4 08 87 3f
       1.48317 1.4419838 -1.4143417 1.054955
000120 04 1f b6 3f 66 8d b1 bf 60 4d 24 3f 1e a5 ba 3f
       1.4228215 -1.3871276 0.64180565 1.458164
000130 3f 2c 87 3f f4 81 d5 3f e0 42 df bf 76 d2 6b 3f
       1.0560378 1.6680284 -1.7442284 0.9211801
000140 8d ef 00 40 42 ef cc bf af 4e bb 3f 2e c6 04 40
       2.014621 -1.6010516 1.4633387 2.074596
000150 b8 51 d2 bf fe 3f fc bf 48 85 a4 3f 42 ea 4a bf
       -1.6431189 -1.9707029 1.2853174 -0.792637
000160 5c cb d5 bf bc f7 db 3f 17 bd 8b be 66 8b f7 bf
       -1.6702685 1.7184978 -0.27292702 -1.9339416
000170 61 a5 fd bf 44 73 ea bf 0c d1 06 40 bd 4e cb bf
       -1.9816095 -1.8316426 2.1065092 -1.5883404
000180 d6 e5 aa 3f b1 17 90 bf 81 0e a1 3f 7a 47 d6 3f
       1.335139 -1.125723 1.2582551 1.6740563
000190 65 5f b3 bf 03 d0 92 bf d7 32 88 3f 44 bb a2 bf
       -1.4013487 -1.146973 1.0640515 -1.2713399
0001a0 2b 17 a8 bf 81 81 b7 3f b8 93 48 bf a8 bf 96 bf
       -1.313207 1.4336396 -0.783504 -1.1777239
0001b0 68 d0 8d bf 82 0b c7 bf 23 3f d6 3f 6c 37 8f bf
       -1.1079226 -1.5550387 1.6738018 -1.1188788
0001c0 ba 79 5b bf a2 f0 85 3f 07 fc b3 bf d9 fb 16 c0
       -0.85732615 1.046406 -1.4061288 -2.3591216
0001d0 94 fb e6 3f a9 a3 c0 3f a5 58 9f bf 14 cf 80 3f
       1.8045526 1.5049945 -1.2448927 1.0063195
0001e0 55 5a 91 3f c1 b0 a2 bf 38 0a 09 3f ec 29 b3 3f
       1.1355692 -1.2710191 0.5353122 1.3997169
0001f0 65 87 6d 3f 29 ad f9 3f 7e 0a d6 bf eb 3f 7c 3f
       0.9278472 1.9505969 -1.6721952 0.9853503
000200 93 17 e8 3e c0 64 66 be 70 37 17 bf 77 d3 a7 bf
       0.45330486 -0.2249937 -0.59068966 -1.3111409
000210 4e ab ad 3e 63 48 76 3e e6 1e 23 bf d6 b4 40 40
       0.33919758 0.24051051 -0.6371902 3.0110373
000220 59 65 d8 be a7 36 bf be ac 6f 37 40 00 41 81 3e
       -0.42264822 -0.37346384 2.866191 0.25244904
000230 e2 36 24 bf 93 7a 6b 3f b8 db 30 bf 1b 5a 85 be
       -0.64146245 0.9198391 -0.69085264 -0.26045308
000240 c7 18 3d be c0 07 12 bf e6 ad d3 3f 53 8d a3 3f
       -0.18466483 -0.57043076 1.6537445 1.2777504
000250 fd 5d 84 bf 87 fe 0c bf 6c 06 a6 3f 09 6e 45 c0
       -1.0341183 -0.5507588 1.297071 -3.084841
000260 c3 1c 96 be 30 22 77 3f ca f4 44 c0 af 9f 45 bf
       -0.29318818 0.9653654 -3.0774407 -0.7719678
000270 95 b5 3b be 68 cb 6d bf 11 8e c2 3f ca 0b 3b bf
       -0.18330987 -0.928885 1.5199605 -0.73064864
000280 31 07 f2 bf ca ff a6 3f d9 4c eb bf a4 12 04 c0
       -1.8908445 1.3046811 -1.8382827 -2.0636377
000290 d0 ec f7 3f d1 f7 d3 3f 2f 2c c9 bf 17 fa 60 3f
       1.9369144 1.6560003 -1.5716609 0.87881607
0002a0 c9 24 f1 3f 93 d6 d8 bf 8f bf 80 3e 55 9e ec 3f
       1.8839351 -1.6940483 0.25146148 1.8485819
0002b0 5b 36 d4 3f a8 46 10 40 b2 17 f8 bf 72 88 cf 3f
       1.6579088 2.2543125 -1.9382231 1.6213515
0002c0 69 9d 48 bf 98 d7 39 3f 05 b6 d7 bf 57 5e 01 c0
       -0.7836519 0.72594595 -1.6852423 -2.021383
0002d0 11 d4 d5 3f 8f a9 9f 3f 5b b2 98 bf f6 89 b8 3f
       1.6705343 1.247362 -1.192943 1.4417102
0002e0 8a b1 8f 3f c7 7a 98 bf cb 81 3e 3f 04 e4 9f 3f
       1.1226056 -1.1912469 0.744168 1.249146
0002f0 89 c2 f2 3e 8d 4b cc 3f ca df d8 bf f9 f2 12 3f
       0.47414044 1.5960556 -1.6943295 0.57401997
000300 62 ae d0 3f 17 6d db bf 17 d1 d1 3f 15 06 f8 3f
       1.6303217 -1.7142667 1.6391934 1.9376856
000310 73 8f eb bf 3d 34 e6 bf 83 4c df 3f 11 fa 54 bf
       -1.8403152 -1.7984692 1.7445225 -0.8319407
000320 5c a3 ed bf e1 7e e4 3f c4 02 d3 be 12 d8 f4 bf
       -1.8565478 1.785122 -0.41213048 -1.912844
000330 f0 ab c5 bf a0 eb 0c c0 1f 3b e5 3f 9d b3 b7 bf
       -1.5443096 -2.2018814 1.7908667 -1.4351689
000340 56 7a 68 3f 4d 29 23 bf 90 5e 3d bf 4c 73 2c bf
       0.9081167 -0.63734895 -0.73972416 -0.6736343
000350 9f f7 34 3e e6 48 cc 3c 56 34 64 bd c2 1d 53 40
       0.17672585 0.024937104 -0.055713974 3.2986913
000360 0c f8 e9 be 59 ea 62 be ee 57 4b 40 d1 3b 89 3e
       -0.45697057 -0.22159709 3.1772418 0.2680345
000370 be ac 2d bf b5 00 ba bd 75 6c 7d be f6 1f f0 be
       -0.6784171 -0.09082166 -0.24748404 -0.46899384
000380 01 4e 0c 3f 80 d2 7d be e1 59 40 bf 44 51 5f be
       0.54806525 -0.2478733 -0.75137144 -0.21808344
000390 fb 3f 70 3e 26 e1 48 3e f5 98 05 bf a5 83 2d 40
       0.23461907 0.19617137 -0.5218652 2.71116
0003a0 27 1b fc be c9 e3 bf be 83 44 4a 40 57 92 54 3c
       -0.49239466 -0.37478474 3.1604316 0.012974343
0003b0 9d d2 69 be c1 f4 bb 3e 04 90 d5 be 5f ef be 3e
       -0.22834249 0.3671017 -0.41711438 0.37292
0003c0 d0 1c b8 3d 00 bd 5d bf 41 70 b9 3f ca 86 80 3f
       0.089898705 -0.86616516 1.4487382 1.0041134
0003d0 29 1f 6f bf 54 3b 7c bf f0 34 a9 3f aa c1 46 c0
       -0.9340692 -0.9852803 1.321928 -3.1055703
0003e0 d1 dc 42 be 2a 49 74 3f 6e 1f 4c c0 e0 55 8c bf
       -0.19029547 0.9542414 -3.1894183 -1.0963707
0003f0 d7 ea 0a be a4 db 65 bf 78 a0 93 3f c0 d1 70 bf
       -0.13566147 -0.8978827 1.1533346 -0.94070053

fc2.bias f4 [16]
000000 86 5a cf 3e d0 f3 96 be fe a7 b3 3e 4a fa 91 bf
       0.4049875 -0.2948289 0.35089105 -1.1404507
000010 f5 5a 84 3e 60 ba 45 3e c3 15 06 bf 38 6a 33 3e
       0.25850645 0.19309378 -0.52376956 0.17520988
000020 1b e0 a7 3f 24 e2 b6 bf db 40 76 be e3 81 cc 3e
       1.3115267 -1.4287763 -0.24048178 0.39942846
000030 0d 06 8c 3e 2b 09 10 40 ab ad cb 3f dc cb 6a bf
       0.27348366 2.2505596 1.5912374 -0.91717315

fc3.weight f4 [16, 16]
000000 07 b1 90 3f ff 10 96 bf 3e 80 dc bf 9d be d9 3f
       1.1304024 -1.1723937 -1.7226636 1.7011296
000010 90 7f be bf 8e 56 bc 3f ee 1f b8 3f 8c 68 be bf
       -1.4882679 1.4713914 1.4384744 -1.4875655
000020 f4 87 59 c0 4b 3a ec 3f 40 22 c6 bf 45 71 bc bf
       -3.398923 1.845529 -1.5479202 -1.4722067
000030 56 9d 90 3f c3 1b 25 c0 08 8d ed bf c1 65 e8 3f
       1.1298015 -2.5798194 -1.8558664 1.8156053
000040 1a 45 e1 3e 02 31 dc be 15 64 c5 3e 19 a1 1d c0
       0.43998033 -0.4300614 0.3855292 -2.4629576
000050 ea 9f 26 be f6 f5 ba 3e 45 a6 bd bd fe 7d 02 3e
       -0.1627194 0.36515778 -0.09260229 0.12743375
000060 cf bd 89 40 1c 77 31 c0 71 5a bb be 40 6a 6c 3e
       4.30442 -2.7728949 -0.3659244 0.23087406
000070 14 73 8e bd ab d3 57 40 c6 8a 45 40 86 ca 19 c0
       -0.06955543 3.3722942 3.086595 -2.402986
000080 f2 ee ec bf 29 d3 e8 3f db 12 7e 3f 2a 7f d1 3e
       -1.851042 1.8189441 0.9924752 0.4091733
000090 eb 36 6b 3f b7 fe f8 bf 63 7d 6a bf 06 85 af 3f
       0.91880673 -1.9452733 -0.91597575 1.371247
0000a0 46 bc 80 be fe 71 8e 3e 6a de f0 3f 2f 95 af 3f
       -0.2514364 0.27821344 1.8817875 1.3717402
0000b0 44 e8 e3 bf d7 aa b8 bf 66 2c c0 bf 4c a4 3b 3f
       -1.7805257 -1.4427136 -1.5013549 0.7329757
0000c0 ac 4f 9d 3f 15 22 9e bf a7 76 ce bf 9d 9c e2 3f
       1.2289939 -1.2354151 -1.612996 1.7704045
0000d0 49 26 c3 bf ad bf ba 3f 22 79 ca 3f 65 a0 9e bf
       -1.5246059 1.4589745 1.5818217 -1.2392699
0000e0 82 62 45 c0 f1 1d e9 3f 6f 95 bc bf c3 a3 b5 bf
       -3.0841374 1.8212262 -1.4733104 -1.4190601
0000f0 9e 0d 9e 3f 6d 23 11 c0 79 35 c0 bf 15 1e e5 3f
       1.2347906 -2.2677872 -1.5016319 1.7899805
000100 64 5c fd bf bb c8 00 40 8c 55 81 3e f5 12 36 3f
       -1.979382 2.0122516 0.2526058 0.71122676
000110 9e 60 88 3f bb 56 ff bf 95 eb 52 bf fd 82 90 3f
       1.0654485 -1.9948343 -0.8239072 1.1289974
000120 48 48 6b bf 6d 3c 12 3f 6f 68 f9 3f 08 62 61 3f
       -0.9190717 0.5712345 1.9484996 0.8804021
000130 6d 02 c0 bf ac 5d d2 bf fe b3 b8 bf 12 10 60 3f
       -1.500074 -1.6434836 -1.4429929 0.8752452
000140 5c 6d e4 bf 1a 56 b0 3f a5 4b 90 3f 5a d9 94 3e
       -1.7845874 1.3776276 1.1273085 0.29072076
000150 85 86 8f 3f 43 2c dd bf 3e e5 7c bf b4 85 eb 3f
       1.1212927 -1.7279133 -0.98787296 1.8400178
000160 34 9d 37 3f e1 1e e4 be 3a 38 e0 3f 44 29 a1 3f
       0.7172425 -0.4455481 1.7517159 1.2590718
000170 42 42 d5 bf 7b 9c 39 bf ab d2 f9 bf 20 07 21 3e
       -1.6660845 -0.72504395 -1.9517416 0.15725374
000180 79 52 c9 bf a0 f7 b9 3f 5c de 9a 3f 6e 2b 13 bf
       -1.5728294 1.4528694 1.2099109 -0.57488143
000190 b7 e3 8c 3f 64 2c c2 bf 54 a0 96 bf ca 8f e6 3f
       1.1006993 -1.5169797 -1.1767678 1.8012631
0001a0 76 0f 9d 3f bf 73 91 bf f1 5f d3 3f 92 a9 b8 3f
       1.2270343 -1.1363448 1.6513654 1.4426749
0001b0 2d e1 bb bf 2b 83 25 bf 3b 29 b9 bf 85 9c ff be
       -1.4678093 -0.6465327 -1.4465708 -0.49924102
0001c0 4d cc 11 40 a8 fb 1c c0 0e 10 6f bf 17 8c aa 3e
       2.2780945 -2.4528599 -0.9338387 0.33310005
0001d0 ec 11 c5 bf 66 71 fd 3f a9 42 9f 3f c1 6e be bf
       -1.5396094 1.9800231 1.2442218 -1.487755
0001e0 07 54 ca 3c 1f cb a4 3e 31 87 03 c0 ab 1f 93 bf
       0.02469827 0.3218622 -2.0551264 -1.1494039
0001f0 3c 6f 09 40 59 b1 9a 3f da 6d 49 3f 02 05 57 3e
       2.1474142 1.2085372 0.78683245 0.20998004
000200 46 d8 dd bf c9 cd e2 3f f9 fe ae 3f cf d4 2d bf
       -1.7331626 1.7719051 1.3671561 -0.67902845
000210 c2 a8 a1 3f 05 42 eb bf 2a 12 ac bf 83 8b b6 3f
       1.2629626 -1.8379523 -1.3443043 1.4261326
000220 5d 91 86 3f c9 07 56 bf f0 03 d7 3f dc bd c1 3f
       1.0513111 -0.8360563 1.6798077 1.5136065
000230 69 b8 f5 bf 6e 69 3b bf 3a e9 09 bf e1 5c 0a bf
       -1.9196903 -0.7320775 -0.538715 -0.5404797
000240 fd 65 9b 3f a1 cb 48 bf bf ec a6 bf ca e5 d9 3f
       1.2140499 -0.78435713 -1.3040999 1.7023251
000250 ab 0f b3 bf 0b 82 82 3f 5b 20 9b 3f 5d 04 b4 bf
       -1.3989156 1.0195936 1.2119249 -1.4063832
000260 c4 2e 71 c0 6c 11 f5 3f 1e 35 82 bf 72 71 aa bf
       -3.7684793 1.9145942 -1.017246 -1.3315871
000270 44 c2 81 3f 34 bb 0f c0 65 e4 d9 bf 95 c5 c0 3f
       1.013741 -2.245801 -1.7022825 1.5060297
000280 0b 7b f0 bf c3 12 0a 40 21 b7 ef 3d 87 cb f2 3e
       -1.878755 2.1573951 0.11704851 0.47420904
000290 c7 8a 9a 3f c3 c2 04 c0 dc 78 6e bf 61 0c ef 3e
       1.2073601 -2.0743873 -0.93153167 0.46689132
0002a0 a4 47 b3 bf 45 52 98 3f 1c 4f f8 3f 9b a5 a8 3e
       -1.4006238 1.1900107 1.9399142 0.32938847
0002b0 d3 1f ef bf e4 65 da bf 31 87 62 3e fd b9 28 3f
       -1.8681587 -1.7062345 0.22121884 0.65908796
0002c0 f2 80 c9 bf 3a d1 ed 3f f4 c2 ae 3f 56 1f 05 bf
       -1.5742476 1.8579476 1.3653245 -0.5200094
0002d0 8f 45 9a 3f 78 f4 d9 bf 53 c2 9b bf 8b b2 d7 3f
       1.2052478 -1.7027731 -1.2168678 1.6851362
0002e0 47 8c b0 3f 45 c7 81 bf 60 7d e3 3f b2 1e 9f 3f
       1.3792809 -1.0138937 1.7772636 1.2431242
0002f0 42 b5 e0 bf c2 07 3d bf 37 61 8c bf 18 d1 0a bf
       -1.7555315 -0.7383996 -1.0967168 -0.542253
000300 2a 6a 15 be bc 1d 34 be d3 c8 20 3f b6 3c 26 c0
       -0.1459128 -0.17589468 0.62806433 -2.5974555
000310 5a f7 5e 3e 97 83 20 be de 4a 93 be e6 c2 12 3f
       0.21774045 -0.15675198 -0.28768057 0.5732864
000320 a9 cc 4a 40 ab 41 4c c0 da 25 23 3e ad e5 62 3f
       3.1687415 -3.191508 0.15932408 0.8863171
000330 96 18 fc 3c d3 9c 3c 40 11 bb 1a 40 c7 67 4a c0
       0.030773442 2.9470718 2.4176676 -3.162584
000340 66 55 28 be 94 f7 c9 bb 19 35 2a 3f 90 60 52 c0
       -0.16438827 -0.006163547 0.6648727 -3.2871437
000350 1e 7d 8f 3e 3d cd 99 bd 62 07 ed be 2e ce 07 3f
       0.28025144 -0.07509849 -0.46294695 0.5304898
000360 11 17 37 40 bc e9 48 c0 db 15 52 bd d7 12 2c 3f
       2.8607829 -3.139266 -0.051290374 0.6721625
000370 8d d3 a3 3d 5e 4a 4f 40 ab 10 1c 40 df cc 4a c0
       0.079993345 3.238914 2.4385173 -3.1687543
000380 b1 f3 de 3f 36 ff 09 c0 e9 5b a5 bf 73 3a 92 3f
       1.7418119 -2.1562018 -1.2918674 1.1424087
000390 48 c5 a1 bf b0 01 09 40 56 54 c6 3f bf 3d 61 bf
       -1.263833 2.140728 1.5494487 -0.8798484
0003a0 58 5d 11 bf 37 34 1a 3f e7 a3 e6 bf 7e 62 46 bf
       -0.56783056 0.60235924 -1.8018769 -0.7749404
0003b0 44 e4 cc 3f fb 9d fb 3e 24 3c 9f be 1a 0a 51 3f
       1.6007161 0.49143967 -0.3110057 0.8165604
0003c0 ec 33 b4 3f 10 a8 b7 bf 1c 32 d8 bf e7 95 4d 3f
       1.4078345 -1.4348164 -1.6890292 0.8030686
0003d0 3c bc d5 bf 8e ef b1 3f cc 4e bf 3f 7d e7 fa bf
       -1.669807 1.3901231 1.4945922 -1.9601895
0003e0 d6 21 fc bf 1f be 82 3f 4c 40 d2 bf ba 98 eb bf
       -1.9697826 1.021427 -1.6425872 -1.8405983
0003f0 19 06 b8 3f 04 56 ab ba 41 78 99 3f e2 4f 20 3f
       1.4376861 -0.0013071899 1.1989824 0.6262189

fc3.bias f4 [16]
000000 87 1b 2c c0 54 b9 98 40 c2 14 7b c0 17 c6 3f c0
       -2.6891801 4.772623 -3.923142 -2.9964654
000010 8c 74 a1 c0 6c bb be bf 1b cc cd be 79 4f 7e 40
       -5.045477 -1.4900947 -0.40194783 3.9736006
000020 10 5f 8c bf 37 4e 32 c0 7b a8 ba c0 8e 8e 41 bf
       -1.0966511 -2.7860239 -5.8330665 -0.75608146
000030 4f 56 6f 40 25 0e ba 40 ba ac bb 3f c4 2c 96 3d
       3.7396429 5.8142266 1.4662087 0.07332757

fc4.weight f4 [3, 16]
000000 05 48 fa 3d 65 b0 9c bf f0 8b ba 3f 8a 05 48 bd
       0.12220768 -1.2241331 1.4573956 -0.048833407
000010 91 ae eb 3f 3b cc fc 3e 95 74 5e 3e 1a c0 d6 bf
       1.8412648 0.49374565 0.2172416 -1.6777375
000020 bc f1 63 3f 01 ae 0a 3e 22 40 23 40 c8 c8 cc 3e
       0.8904073 0.1354294 2.5507894 0.39996934
000030 1b df ef bf 19 65 d1 bf 9a 91 b1 bf 45 9d 00 3d
       -1.8739961 -1.6358978 -1.3872559 0.031399984
000040 5c d7 99 be 99 e7 a8 40 0d d7 3b 3f 52 13 f5 be
       -0.3004712 5.278271 0.73375016 -0.47866303
000050 59 8b 0b 3f b3 05 5e 3f 02 86 48 3f 73 16 06 bf
       0.545095 0.86727446 0.7832948 -0.52378005
000060 22 89 1c 3f 1a a4 c8 be f1 43 94 3e 9f 4a 40 3f
       0.6114675 -0.391877 0.28958085 0.7511386
000070 89 6d 02 c0 21 19 e6 bf 49 c2 c4 be 75 ba 37 bf
       -2.0379355 -1.7976419 -0.38429478 -0.71768886
000080 e0 7a a2 bf f4 a3 c5 3f 7a 04 27 3e 6c 10 b5 bf
       -1.2693748 1.544066 0.16310301 -1.4145637
000090 9f 83 7e 3d a5 14 a0 3e ca b2 13 3f 49 4e e4 be
       0.062137242 0.3126575 0.57694685 -0.44590977
0000a0 62 c1 2e 3f dd a7 94 bf 9d c6 09 3e e6 2e 13 3f
       0.6826383 -1.1613728 0.13454671 0.57493436
0000b0 58 b1 d7 3f c4 03 02 40 d3 c4 59 bf 13 35 2b bf
       1.6850996 2.0314798 -0.85065955 -0.6687786

fc4.bias f4 [3]
000000 ba ff 0e c1 7b c3 88 40 42 d1 8b 40
       -8.937433 4.2738624 4.369294
