MRTAWorld_DQN/PruebaConReasignaciones/Caso3/DQN_model_5Tasks_Caso3.pth (torch, 23348 bytes, 8 tensors)

fc1.weight f4 [36, 32]
00000000: cd27 b53d 1718 643c f714 44be 1514 913e
00000010: 22dd af3e 49b4 ff3c d243 d83e 6272 313c
00000020: e579 fb3d bbca 1ebe b5b7 913e 3dda c8bd
00000030: 2e4e 84be 6ccb 8ebe afcf 1fbf 4ded c4be
00000040: d951 aabe 5815 adbd 880b 2fbe 912c 76bb
00000050: c798 e03c c194 2c3e 7c1d 0abe 1699 973d
00000060: 23ef 2fbe 7c9e e23c 6c67 273c c91b ab3e
00000070: 0348 a83d 0aa4 003e e75f 043e 0441 6c3e
00000080: 8f97 90be 7858 e7be 3e0a 41be ffda cf3d
00000090: 4edc 863e 5140 58bd 030f 0f3f be9b 3dbd
000000a0: 33a5 e0be bc6f f13a f3ee b3be 8a9b 86bd
000000b0: 19c5 bc3e 433e 943d 34d8 1d3f f38a f5be
000000c0: b764 9dbe a87d 473e 1378 053f b252 c83e
000000d0: e7b6 babd 233c 24be 5786 8fbe e082 e73a
000000e0: 510e a2bd b91a 9d3d 6075 16be 08cb fbbd
000000f0: 4cd5 863e 35e5 eb3e 0e16 1d3e 04f5 943f
00000100: fb0b 29be 2c36 303f 296c f2bd adb3 76bd
00000110: d62a b5bd b1dd bebd 5f4c d8be e64f 533e
00000120: dd92 5cbd 44af 593e 2865 44be ec1d 95be
00000130: baac aebe 329f d3bd 2ec8 72be 99eb a8bd
00000140: 6854 053e f4b8 8a3d b366 2bbe fe4c 55be
00000150: 6558 4ebb 11ba 2b3c 9366 d7bd ed9a 3bbd
00000160: 66cc b9bd c036 f3bd a137 66bd f255 e63d
00000170: b8f0 19be 2f85 febd 0591 183c 3eea 13bd
00000180: 5b61 853e ac0b a4be 1f93 133e bcb9 acbe
00000190: d712 efbe a168 d4be 857a d83e cb73 03be
000001a0: f945 84bd f4b5 153e d73e de3e b290 25be
000001b0: 6dcb 76be f402 57be ae82 ae3e 1721 2e3d
000001c0: 57c3 29be 4b2d 09be 17ae 5cbd c8ba a1bd
000001d0: 3778 4f3c 1c3e 553d 56c1 a53b 4c1c a5bd
000001e0: 5607 36bd 1c8a f33d dc6a 303e 0dfe d23e
000001f0: 3382 0dbe 48eb d9bd aac5 05be d3bc cabc
00000200: fbb2 55bd 3d1a d4ba f8de 093e 9fd6 01bf
00000210: 54f1 eabc 9f01 3c3d c54f 95be 7740 db3d
00000220: 58f0 80bd 346a b8be c364 babe d190 50bd
00000230: 7df9 6bbe 0e19 25be a41e 38be 3ce9 b03c
00000240: cee9 11be 0814 efbd c817 f9bd e40d 93bd
00000250: 51a4 e3bc 061a 0dbe c93b acbd b03d 343c
00000260: 24a5 fcbd 43a6 3d3d 9f14 153e baaf 363e
00000270: 5727 613c b380 923c e532 9a3e 9fee 473e
00000280: 9772 cebc 7648 abbe 14a6 66bc f8d1 24bd
00000290: f3fa f0be c383 883c 7838 dcbc 88a3 2a3e
000002a0: afc7 303e b864 43be 8626 84be 94e9 d83d
000002b0: 79ad c53e a9b8 053f 6f0d c23e b0b7 f3be
000002c0: 5ea8 2abf 9619 9ebe 3a2c 59be 8510 3bbe
000002d0: bf97 47bd 27e2 433d a2d2 b7bd aa3e eebc
000002e0: adab fabc b6a6 833d 759f 43be 7e9a 22bf
000002f0: cfc8 80be a39e 48be ab17 a5be 04f9 87be
00000300: 7b69 ef36 b608 543a 5f36 173d 778d 86bb
00000310: 16ca e03d 8af3 12be fe65 dc3c a5e8 b9bd
00000320: eb39 6e3a 8474 6b3d 14ee 9abf 6d6d 0ebf
00000330: 2d66 a0be 9c6c 4fbe e845 a3bc 6986 683b
00000340: df5f a43e 92d7 c93e affd bf3e 4eca 243f
00000350: df49 b5bd fc7f b7bd 54e3 76bc 320e cbbc
00000360: 54cb b43b 714b 883d 5a95 a63d 35e3 aa3d
00000370: 6aa1 2c3e d088 553e 46bd c33d 6228 703e
00000380: ff3e 8fbe 0418 5dbe 1734 a6be faac 38be
00000390: da95 46be 20ec b139 0321 233e 670f a53e
000003a0: a869 de3d 85c9 5d3e dccb 4fbe 4d57 263e
000003b0: 1f62 b63d ca26 a43e 4d6c 203e 3b04 913e
000003c0: 7e63 303e c6c0 333e 6616 21be 8b55 c6bd
000003d0: 95c6 db3c 5655 fe3d aec3 3e3e 4790 033e
000003e0: 8c9d 443d 5b47 313d ddc8 c3ba 5531 8fbe
000003f0: 4388 9fbe cf9b c3be c2e5 b1be 9437 4e3d
0.08845482 0.013921759 -0.19148622 0.28335634 0.34348398 0.031213896 0.42239243 0.010830494
0.12279109 -0.15507023 0.2846047 -0.09807251 -0.25840896 -0.27889574 -0.62426275 -0.38462296
-0.3326557 -0.084513366 -0.17094243 -0.0037563185 0.0274166 0.1685362 -0.1348781 0.07402246
-0.17181067 0.027663462 0.010217529 0.33419636 0.0821686 0.12562576 0.12927209 0.23071676
-0.2824063 -0.45184684 -0.18851563 0.10149192 0.26339954 -0.052795712 0.5588228 -0.046291105
-0.43876037 0.001842014 -0.3514324 -0.065726355 0.36869124 0.07238438 0.61658025 -0.47957572
-0.30740902 0.19481528 0.52136344 0.39125592 -0.09116917 -0.16038565 -0.2803218 0.0017662905
-0.07912887 0.076711126 -0.14693213 -0.122945845 0.26334608 0.4607331 0.15340444 1.1637273
-0.16508476 0.6883266 -0.11837036 -0.060229946 -0.08846061 -0.09319628 -0.42245767 0.20635948
-0.053850997 0.21258265 -0.19179213 -0.2912439 -0.34116155 -0.103330985 -0.23709175 -0.08248062
0.1302048 0.06773558 -0.16738395 -0.20830151 -0.0031485793 0.010481373 -0.10517611 -0.045802046
-0.09072189 -0.11875677 -0.056205396 0.112468615 -0.15033233 -0.124277465 0.009311919 -0.036112063
0.2605084 -0.32040155 0.14411591 -0.33735454 -0.4669406 -0.41486076 0.42280975 -0.1283714
-0.06458659 0.14620191 0.43407318 -0.16168478 -0.24101038 -0.2099722 0.34084076 0.042512026
-0.16578422 -0.13396184 -0.053876963 -0.07896954 0.012662939 0.052061185 0.005058448 -0.08062038
-0.04444059 0.11891577 0.17228264 0.4120945 -0.13819198 -0.106405795 -0.13063684 -0.024748242
-0.052172642 -0.0016182136 0.13463962 -0.5071811 -0.028679527 0.045899983 -0.29162422 0.10705655
-0.06295842 -0.36018527 -0.36405 -0.050919358 -0.23044391 -0.16122839 -0.17980438 0.02159559
-0.14249346 -0.116737425 -0.12162739 -0.07180384 -0.027788313 -0.13779458 -0.084098406 0.011001036
-0.123361856 0.046301138 0.14558648 0.17840472 0.0137422895 0.017883634 0.30116954 0.1952462
-0.025201125 -0.3345372 -0.014077682 -0.040239304 -0.4706646 0.016664391 -0.026882395 0.16663945
0.17263673 -0.1908139 -0.2581064 0.105914265 0.38608912 0.52234894 0.37900874 -0.4760108
-0.6666316 -0.30878896 -0.21208277 -0.1826802 -0.0487287 0.047823098 -0.08975722 -0.029082615
-0.03059944 0.06428282 -0.19103797 -0.63516986 -0.25153205 -0.19591765 -0.3224462 -0.2655717
7.1350346e-06 0.0008088456 0.036917087 -0.0041062194 0.10976045 -0.14350715 0.026904102 -0.090775765
0.000908761 0.057484165 -1.2103906 -0.5563572 -0.31327954 -0.20256275 -0.019930795 0.0035480505
0.32104394 0.3942228 0.37498233 0.6437119 -0.088519804 -0.08959958 -0.015068848 -0.024787042
0.0055174027 0.06655014 0.08133955 0.083441176 0.1685845 0.20852971 0.095575854 0.23452905
-0.2797775 -0.21591192 -0.32461616 -0.18034735 -0.19393101 0.00033935998 0.15930562 0.32238314
0.10859996 0.21658905 -0.2029261 0.1624424 0.08905434 0.32060844 0.15666313 0.2832354
0.17225453 0.17554006 -0.157312 -0.09684285 0.02682809 0.1241862 0.18629333 0.12848006
0.04800181 0.04328094 -0.0014937181 -0.27967325 -0.31158647 -0.3820481 -0.34745604 0.050345972

fc1.bias f4 [36]
00000000: 1c53 663f 42cc 22be e687 183f f0be 733f
00000010: 260b 6e3f f854 6e3f 404a c03e 7afb 113f
00000020: 1197 5e3f a296 063f 7443 70bf ba6d 083f
00000030: ca54 493f 8467 4e3f aa69 343f f873 d53e
00000040: 721a 733e f13d 523f 3893 ed3e b1c8 d53e
00000050: faed 4cbe 8664 673f c773 283f 9714 1abf
00000060: f396 05bf 7afa 183f 3bd1 793f 563c efbe
00000070: b554 56bf 3366 3f3f 897f e43e d874 dabe
00000080: 8cfb 1c3f 1099 413f 22ff 7f3f 5cf1 113f
0.89970565 -0.1589823 0.59582365 0.9521322 0.9298576 0.930984 0.37556648 0.5702435
0.8694926 0.525736 -0.93852925 0.5329243 0.78645 0.806267 0.7047373 0.4169004
0.23740557 0.82125765 0.46401381 0.41754678 -0.20012656 0.9038776 0.6580166 -0.6018767
-0.52183455 0.59757197 0.97584885 -0.4672572 -0.83723 0.7476532 0.44628552 -0.4266727
0.6132133 0.7562418 0.99998677 0.5700891

fc2.weight f4 [36, 36]
00000000: ee10 ae3e 0c75 52bd 9de2 913e 754e 55be
00000010: fb26 cd3e c43f e83e e88c 303f 93c7 b83e
00000020: ded8 ba3d 2681 3f3e e07f 01bf 0328 39be
00000030: 9440 d5be 9163 af3e bc31 d2be 5b43 3d3d
00000040: b4b7 6b3e 0fa6 e73e 95bc 053d d30b 9ebd
00000050: 44b7 98bd 69ea 403e 1609 b73d c424 ed3e
00000060: 8faa 3c3d 5a11 5c3e 6e82 b23e 704e e93d
00000070: f193 02be a354 3a3f 3f78 013e fb35 06bf
00000080: 6d25 b33c 1b97 543d b0dd 103f 53ae 96bc
00000090: 6382 0b3f 59a8 39be b60e ad3d a537 2a3e
000000a0: edc6 973e 800d 933d 6cbc 293e a0cf 5dbe
000000b0: 2463 efbc 2431 543e 76bb 24bf 2566 363d
000000c0: b9dd 9fbe 5369 643e 1760 d2bd 272b 22be
000000d0: 09c9 283f acd6 193e 02ab 95be ea5f 963e
000000e0: ae73 233e add3 4d3f 0070 87be 02b7 77be
000000f0: cda2 60be 27ef ef3e 69ae 85be 7afd 3ebe
00000100: 41a6 adbc 7176 133f 7607 133f be1d 843e
00000110: 32d8 67be e403 713e a507 2b3f 5253 2bbf
00000120: 14aa 633e 7f7c 16be d412 023e 2df0 23bd
00000130: fc0d e3bd 74c2 3c3e c27c 05bf 6ac5 babe
00000140: 2ab8 8cbd 6b52 cdbe f21a 003e 20d8 18bf
00000150: 0f81 3fbf cdb3 663e 51b8 cc3d 7c57 34bf
00000160: 36a5 88c0 7e0e 0cbe fe72 713e c7cc b93d
00000170: 2018 c23e 72c2 26bd fa9d 1c3e 754f 4fbe
00000180: 2d3c 023f 1986 02be 10eb debd f03b 16bf
00000190: 9f78 763d 2350 36be 7061 9f3e 94b4 eabd
000001a0: b06b ce3d e777 3e3e 3155 24bd 1c70 d2be
000001b0: 5a27 25bf 9b0d 933e 04a7 d4bd d795 18be
000001c0: e1b7 a83e 8239 08bf 61d6 bebf 858a 74be
000001d0: 41d8 28bf 0564 fabe 5743 04be d144 18bf
000001e0: cd51 053e 274f 113f 707f 3ebe 711f 15bf
000001f0: 0f9b 08bf 294e 09be f7f5 3ebc 4838 623e
00000200: add6 0c3f 0417 29be fa07 0cbf d53b b9be
00000210: d032 73bc acbf cc3e 0358 b5be d726 b3ba
00000220: da29 773f 160e 1abf da2b bbbe f734 4f3e
00000230: 18bc 143e bf7a da3d 94aa 11bf 93ef 883e
00000240: 03b8 55be 7581 2b3e e5a6 c0be a3ad ccbd
00000250: 8e7d b4bd 6c0f 6ebe 9188 84bf 1922 76be
00000260: 485f dcbd f849 9fbe e048 d83c cc49 d1bd
00000270: d3f3 193f 2294 c3be 5368 7d3d a71b 60bd
00000280: cfdf 0bbe 2024 a2be 7836 cabc 943a d3be
00000290: a5cd d1bc a97b 27be 758f 5abd a61b 613d
000002a0: 13c9 fc3d 36a0 933d 2b95 9ebd ad08 58be
000002b0: 07e2 013f b434 60bf 1ed2 31be b83e f43e
000002c0: 3019 6fbe c986 943e c43b ecbe 0a31 2a3d
000002d0: a34d a9bd 1a32 543e 23fb 1a3e 17e9 18bf
000002e0: 58c5 1a3e 1726 4abe 324b 483e f019 16be
000002f0: ef6d 11bf be79 d13d c01d 6a3f dfdf 103f
00000300: c301 353f 6d8a 433f 62d6 51bd b2d6 c93e
00000310: 0910 f9be 0b4e 82bd f73c c2be a6ad 183e
00000320: e88e da3f fd29 f43e 1f8d 91bf 5378 8ebe
00000330: fbf8 9dbe 7e67 babd 3d00 89bf a9d5 04bd
00000340: 43ab 8b3e c492 07bf c874 e0be 7416 ccbd
00000350: 37b3 3cbe 2421 59bd a5df 403e aafd 6c3f
00000360: 1b49 9ebe 787c a5bf c846 233f 75e1 6ebf
00000370: 3432 fa3e 6232 c5be fe9c ec3e 3db4 d9be
00000380: b5f8 afbe 2f72 c1bd 092b aabf 30a7 cd3e
00000390: 4e2f 81be 5d6e b73d 3b96 af3e 980d 2b3e
000003a0: 8e63 463f aebd c43d a9ec 1fbe 7ced 533f
000003b0: 135c 93be 6323 a63d 438e 89bb aaf3 3cbf
000003c0: ad93 19bd e38c b03e 1379 a2be c0b3 f33d
000003d0: 4df2 0abf deb3 7d3e 6d28 e13d be93 4a3d
000003e0: 93ef 653f fd56 14be bd27 06be 06de 99be
000003f0: 3f83 cd3e ceb0 f13d 69fb d93d d228 b8bd
0.3399729 -0.051381156 0.28493205 -0.2083071 0.40068802 0.4536115 0.68965006 0.36089763
0.091233954 0.1870161 -0.50585747 -0.1808167 -0.41650832 0.3425565 -0.4105357 0.046206813
0.23019296 0.4524388 0.03265055 -0.07717099 -0.0745683 0.1883942 0.0893728 0.46317112
0.046061095 0.21490994 0.34865135 0.11391914 -0.12751748 0.72785395 0.12643526 -0.5242612
0.021868432 0.051901918 0.5658827 -0.018393671 0.5449583 -0.18130626 0.084500715 0.16622789
0.29643956 0.07180309 0.16575783 -0.21661234 -0.029222079 0.2072187 -0.6434854 0.044531006
-0.31223848 0.22305803 -0.10272234 -0.15836774 0.65931755 0.15023297 -0.2923203 0.29370052
0.15962097 0.80401117 -0.26452637 -0.24190906 -0.21937104 0.46862146 -0.26109627 -0.18651381
-0.02119744 0.576026 0.5743326 0.2580394 -0.22641066 0.2353664 0.6680854 -0.6692401
0.22232848 -0.14695929 0.12702495 -0.04002397 -0.11086652 0.18433553 -0.5214349 -0.3647874
-0.06871064 -0.40101942 0.12510279 -0.5970478 -0.748063 0.22529526 0.09996093 -0.7044599
-4.2701674 -0.13677403 0.23579022 0.09072261 0.3790903 -0.04071278 0.15294638 -0.20245154
0.5087307 -0.12746467 -0.10884678 -0.5868521 0.060173627 -0.17804007 0.31129026 -0.11460224
0.100791335 0.18600427 -0.040120307 -0.41101158 -0.6451317 0.28721318 -0.10383418 -0.1490091
0.32952788 -0.5321275 -1.4909173 -0.23880966 -0.6595498 -0.48904434 -0.12916313 -0.59480006
0.13019486 0.567614 -0.18603301 -0.582511 -0.533616 -0.13408722 -0.011655322 0.22091782
0.5501507 -0.16512686 -0.5469967 -0.3617846 -0.014843658 0.39989984 -0.3541871 -0.0013668191
0.96548235 -0.60177743 -0.36556894 0.20235048 0.14524877 0.10667943 -0.56900907 0.2674528
-0.20870976 0.16748603 -0.3762733 -0.09994056 -0.0881301 -0.2324807 -1.0354177 -0.24036445
-0.10760361 -0.3111112 0.026401937 -0.10219154 0.6013767 -0.38198954 0.06186707 -0.05471387
-0.13659595 -0.31668186 -0.024684176 -0.4125563 -0.025610754 -0.16355766 -0.053359468 0.05495801
0.12343039 0.07208292 -0.07743295 -0.2109706 0.50735515 -0.8758042 -0.1736531 0.477041
-0.23349452 0.29009083 -0.46139348 0.041550674 -0.08266761 0.20722237 0.15134864 -0.59730667
0.15114343 -0.19741093 0.19559935 -0.14658332 -0.5680837 0.102282986 0.91451645 0.565916
0.70705813 0.76383096 -0.051229842 0.39421612 -0.48645046 -0.06362542 -0.37937137 0.14909992
1.7074862 0.47688285 -1.1371192 -0.27826175 -0.3085402 -0.09101771 -1.0703198 -0.032430325
0.272791 -0.5295832 -0.43839097 -0.0996522 -0.1842774 -0.05301012 0.18835314 0.9257456
-0.3091515 -1.292861 0.6377988 -0.9331277 0.48866427 -0.38515002 0.46213526 -0.42520323
-0.34369436 -0.09445607 -1.3294383 0.40166616 -0.25231403 0.08956597 0.34294304 0.16704404
0.7749566 0.09606491 -0.15617622 0.8278425 -0.28781185 0.08112218 -0.004197867 -0.738093
-0.03749435 0.34482488 -0.31732997 0.11899519 -0.5427597 0.24775645 0.10994039 0.049457304
0.89818686 -0.14486308 -0.13101096 -0.30052203 0.40139195 0.11801301 0.10643656 -0.08992161

fc2.bias f4 [36]
00000000: ec23 263f 2dcb 1b3f 99cd 3bbf a3e8 70bf
00000010: eb9a 5bbf c4fd c2be cb5a 8e3e 607e 483f
00000020: 34a3 f4be 2ef6 813f 5010 ef3e db93 9e3e
00000030: a1cd 36be 6dd9 353f bc27 0bbe 4495 693f
00000040: df57 3a3f bf63 50bf ad3b 90be 61da 23bc
00000050: ff0c 1bbe 77db 713f b0b0 52bf e89e 66be
00000060: 2af9 173f daf7 563f a8d0 45bf da59 623e
00000070: 949b 013f 2c04 e93e 12ae 9bbd 07a7 f3be
00000080: 8213 493f b8a7 433f 1dec bf3e 0a0b 033f
0.6489856 0.60856897 -0.7336059 -0.94104975 -0.8578326 -0.38084233 0.27803645 0.7831783
-0.47780764 1.0153253 0.46692133 0.3097218 -0.17851879 0.7103489 -0.13589376 0.91243386
0.7279033 -0.814022 -0.2817053 -0.010000796 -0.15141676 0.944755 -0.82300854 -0.22521555
0.5936457 0.8397194 -0.7727151 0.22104588 0.5062802 0.45510995 -0.07601561 -0.4758837
0.7854539 0.76427794 0.37484828 0.5118872

fc3.weight f4 [36, 36]
00000000: 8ab9 9ebd 51ff 61be dd6f df3f 4138 81be
00000010: e235 3abe b07e 333e ba63 ae3e e6d5 44bf
00000020: 17b9 99be edf1 8ebe c7b3 f7bd 56ff f2be
00000030: 8c5f 61bf a699 4d3f 8319 783e 1b58 3fbe
00000040: f8db 5fbe 4ba5 8a3e 93d9 c3bf 2510 0cbf
00000050: 1bfb b1bd ea13 57bf 1414 db3d 1296 123f
00000060: 6865 e1bc c7dd 8e3e 54c9 693e 172d 6a3d
00000070: 52aa a6bc d44c a9be 5447 073e 9e69 863f
00000080: 3004 ccbc 29da 94be e24a 99bd d6a0 f6be
00000090: 2234 22bf 6179 b7be 1cf9 1fbe 98b3 ef3e
000000a0: 8bda b03e 2be6 bc3e a07b 79bf 2b1f 5fbe
000000b0: 77ad 693e 75ce 0bbf 994e 193e 2239 293f
000000c0: 6867 1e3f f9b3 1a3f b57d d9be 2fd5 31be
000000d0: c784 bd3b 6258 db3d a32a 89c0 ab1d b93f
000000e0: 4d21 3bbf e5dd 323f 2482 513f de8f 69bf
000000f0: 63a8 4ebd 9802 43bf d870 d43e de7f 23bf
00000100: 6677 e9be f4f8 b13d 7de8 33bf 7efe 90bf
00000110: d6e9 71bd 60ef b5be 0b85 b73c 8b71 563c
00000120: c9da 0c3f a7f3 fd3e 8a78 8abf 7384 41bf
00000130: cb54 e2be a58d 85bd 653e e03d ec67 e43e
00000140: 2c93 aebe 45b0 693f 7515 55be 0f6b f8bd
00000150: 71e2 943e a0d2 82bc a751 093e 429e 0b3f
00000160: 70d5 a73e c6d3 0fbf 88c2 7540 03a5 2ec0
00000170: 8801 d03e fb5c 0d3f 25a9 12bf 711e 883f
00000180: 1fb7 313e 6304 533f 46dc 20bf 7f7b 81bc
00000190: b229 203d 763b 9d3e c674 cf3e d36f 0d3f
000001a0: 683b b03e c707 0b3f e10b 673e 17cb 21be
000001b0: 13d9 8a3e 5b39 5c3e a567 6a3e 8a4c 1ebe
000001c0: 83aa acbd 15bd 6dbc c57e 643f 4d35 42be
000001d0: f909 d1be ed55 883e f848 70be 3ab8 4dbf
000001e0: cca4 b7bd da1e 09bf 0ae8 df3e 1990 27bb
000001f0: 9df0 ccbe 35ee 253e 30b3 163f 29aa 25c0
00000200: 4834 4f3f 0add 74bf 046f a2be e963 da3f
00000210: 0286 24be 2303 bb3e bb05 53be f50a 40be
00000220: 2b1f 28be e579 1bbf 6cbd 6e3f 1613 233f
00000230: ca15 7f3c 3762 3a3e dc28 cbbe f57d 0dbe
00000240: f986 9c3e b521 3bbf 051b 8ebf 6c6b 063e
00000250: efe3 a4bd aa62 22bf b2f3 ae3e e69e b63e
00000260: 9b66 95be d728 3a3e 0a55 2fbb 862c ca3d
00000270: dbd5 e0be d2fe 1bbf 126b 85bf 1d1b 5dbd
00000280: 10cb 2abe dd0b e33e ad31 b63e be54 463f
00000290: 4a8c b3be 2e36 643f 0d13 abbe 8ae4 87bf
000002a0: 0a01 f73d e088 d23e a01f b4be 589e 703e
000002b0: 5266 2f3e ee79 553f f726 20bf 35fe 6ebf
000002c0: 48c8 49be 8eb2 843e 3fa4 bf3d d111 653f
000002d0: 3c11 1d3e d12a 75be 31cb 7abf fffb a1be
000002e0: b7c4 fabd eabd a1be 9f9d 113f 82a7 bc3e
000002f0: 6811 b93d b7ed 5f3e 746e cd3e 5335 983e
00000300: 0190 8cbe 4eb7 adbe b1d2 49bf c6ae 4d3e
00000310: 89e0 2e3f 1ee9 953d 959d ca3e f987 bc3f
00000320: 23a7 1a3f e04a 803f 4680 61be 43bd 2fbf
00000330: 1cea 223f 6999 e63e 260f 993d 7d7a bf3e
00000340: 9d90 793e 8169 6e3f a7a5 2cbf e6e2 b6be
00000350: d395 503e 98ad b53e c3e6 bf3d f6fb ff3e
00000360: b724 b73e de0a e23e 5f45 73bf 857e 813e
00000370: cb20 b8bc c249 c13e d7ac 273d f70a 0a3f
00000380: 6565 f33e 7b1f a33e 46bd 35bf ba0e 7a3e
00000390: ed09 443f f56c 8ec0 ce5b ff3e ca64 12bd
000003a0: ba74 f53d dc54 05be 8305 8b3f e4f0 a5bf
000003b0: f955 f73e 9eb3 8ec0 4d0d f93e 2cd9 3b3e
000003c0: b702 76be bc92 c33d b97b dfbe 2861 853d
000003d0: 302d bbbe d1ad 203f 5332 0d3f cc3d 063e
000003e0: c8ec 063d f06a 67be aae9 50bd c6c8 17bf
000003f0: 042a 9dbe d2f8 f3be 3a19 d13f 7b77 91bd
-0.077502325 -0.22070052 1.7456013 -0.2523823 -0.18184617 0.17528796 0.3406046 -0.76888883
-0.30024025 -0.2791895 -0.12094837 -0.4746043 -0.8803642 0.80312574 0.24228482 -0.18685953
-0.21861255 0.27079234 -1.5300773 -0.54712135 -0.08690473 -0.8401476 0.10697189 0.5726024
-0.027514175 0.27903578 0.22830707 0.057171907 -0.020344887 -0.33066428 0.13210803 1.0500982
-0.02490434 -0.29072693 -0.07484986 -0.48169583 -0.633608 -0.35834792 -0.15622371 0.46816707
0.34541735 0.36894354 -0.9745426 -0.21789233 0.22820078 -0.54611903 0.14971389 0.661028
0.61876535 0.60430866 -0.4247872 -0.1736648 0.0057836506 0.10710217 -4.2864547 1.4462179
-0.7309769 0.69869834 0.81839204 -0.9123515 -0.050453555 -0.7617583 0.41492343 -0.63866985
-0.45598906 0.08690062 -0.70276624 -1.1327665 -0.059060894 -0.3553419 0.022402307 0.013088594
0.5502134 0.49599954 -1.0818036 -0.75592726 -0.44205317 -0.06521157 0.10949401 0.44610536
-0.34096658 0.9128459 -0.20808966 -0.12129795 0.2907901 -0.015969574 0.13410054 0.5453836
0.32780027 -0.56182516 3.8399982 -2.7288215 0.40626168 0.5522 -0.57289344 1.063429
0.17355011 0.8242857 -0.6283611 -0.015805958 0.039102264 0.30709428 0.4051878 0.55248755
0.34420323 0.5430874 0.22563125 -0.15800129 0.2711874 0.21506254 0.228911 -0.15458885
-0.0843096 -0.014510413 0.89255935 -0.18965645 -0.4082792 0.26628056 -0.23465335 -0.8035923
-0.089669794 -0.535627 0.4373172 -0.0025568067 -0.40027323 0.1620415 0.5886717 -2.5885108
0.8093915 -0.9564978 -0.31725323 1.706174 -0.16066745 0.3652583 -0.20607655 -0.1875418
-0.1641814 -0.6073287 0.93257785 0.63701 0.01556916 0.18201528 -0.3967961 -0.1381758
0.30571726 -0.7309831 -1.1101996 0.13126916 -0.080512874 -0.634318 0.341703 0.35668105
-0.29179844 0.18179642 -0.0026753568 0.098717734 -0.4391316 -0.609357 -1.04233 -0.053980935
-0.16679025 0.44344988 0.35584775 0.77473056 -0.3506797 0.8914517 -0.33412972 -1.061662
0.12060745 0.41120052 -0.35180378 0.23497903 0.17128876 0.83389175 -0.62559456 -0.9335664
-0.19705307 0.25917476 0.09357499 0.8948031 0.15338606 -0.23942114 -0.97966295 -0.3163757
-0.12244552 -0.31590205 0.56881136 0.36846548 0.09036523 0.21868025 0.40123332 0.29728183
-0.27453616 -0.33928913 -0.78837115 0.20086202 0.68311363 0.07319854 0.3957335 1.4728996
0.6041128 1.002285 -0.22021589 -0.68648165 0.6363847 0.45038918 0.074735925 0.3739814
0.24371572 0.93129736 -0.67440265 -0.35719985 0.20369653 0.35484004 0.09370186 0.49996918
0.357702 0.44148916 -0.95027727 0.2529184 -0.022476574 0.37751585 0.040936317 0.5392298
0.47538295 0.31859955 -0.70991933 0.2441968 0.76577646 -4.4508004 0.4987473 -0.03574065
0.119851544 -0.13020653 1.0861057 -1.2964139 0.4830778 -4.459426 0.4864296 0.18344563
-0.24024473 0.09549472 -0.4364908 0.06512672 -0.36557913 0.6276522 0.55154914 0.13109511
0.032940656 -0.22599387 -0.05100409 -0.5929073 -0.30696118 -0.47650772 1.6335824 -0.07102867

fc3.bias f4 [36]
00000000: 1aa9 10bf a3ee 95bf c549 c43f b861 b13e
00000010: 089a 533e 3063 223f da94 373f ce2b 08bf
00000020: 3f2c 0abe 07b7 1e3f 5099 80bf 6a02 383f
00000030: cfd8 a53e 8286 8b3f 457f 163f 78a7 233f
00000040: 2078 033e 8c96 cfbe 769f 72bf d99e de3d
00000050: 33f1 183e 7eb8 47be e253 443f e0eb cfbc
00000060: 83c6 8c3e 6774 05bd 35c3 1f3f bb8f 7bbe
00000070: 1b3a d6bd 03cc 1a3d 9229 113f e260 f73d
00000080: 1405 183f 1c6c a33f a378 97bf f4ce 1bbf
-0.5650803 -1.1713451 1.5335013 0.34644866 0.20664227 0.634326 0.71711504 -0.5319184
-0.13493441 0.6199803 -1.0046787 0.71878684 0.32391974 1.0900424 0.5878795 0.6392741
0.12838793 -0.40544546 -0.9477457 0.108701415 0.1493576 -0.19503972 0.76690495 -0.025381029
0.27495202 -0.032581713 0.6240724 -0.24566548 -0.104603015 0.037792217 0.56704056 0.12079026
0.5938275 1.2767367 -1.183369 -0.6086266

fc4.weight f4 [31, 36]
00000000: 267b 8cbe dd7b 09bf c424 9d3e 426f 853d
00000010: 3b7a ee3d 7111 783d 66d2 b4bf 479f c2bd
00000020: a90e 853e a217 1dc0 284f 91be 1e41 6f3d
00000030: d0de cf3f 1760 783e c350 acbe d5f9 513e
00000040: 925e 573e 287a 8d3e b07d 953f 345c 2f3f
00000050: f1b2 fc3d cb95 01bf 8369 34c0 f125 2bbc
00000060: 8b04 083e efe7 46be d4fa 16bd 0691 6f3e
00000070: 1d3d c3be f90c 493e 9a5d a73e 9c20 8f3e
00000080: 5ad8 24be 1cd4 813e d3f3 b83e 21c0 00bf
00000090: be96 963d 580e 273e 9f80 523e c5c0 a8bd
000000a0: cf37 aa3e 7ee9 5a3e 01f0 12bf a6ab 183e
000000b0: ea8a 303e 6df7 b53e 6411 1ebd e10d 02be
000000c0: 0ac5 10bf 931e 0c3e 2fb2 e23e 5b06 353e
000000d0: 4ee6 fa3e 0b12 043e afb3 a03f 79f8 b1be
000000e0: 0153 103f ab47 aebd f9b0 c23e 2a1f 0e3f
000000f0: 352a 13bf edc8 f0be 411b b3bd f3f8 a23e
00000100: fc0b a13d e947 c6be 8442 043e 35f3 f83e
00000110: 0461 983c 7f4e 90be 41ee 253e 72a1 4abe
00000120: c6a5 c3bd 372c 2abd e500 a23c aabe 923c
00000130: 2200 13be da01 0cbe 5488 0f3f 16ce c6be
00000140: d8b8 7d3f 23ca 963e ac79 cbbe 55a2 893d
00000150: 29c6 8cbf 2c2a 0c3f 1a91 423e 6b1f 013d
00000160: ebc7 193e 1c22 e0bd cedc 6e3f 0502 80be
00000170: 441b 99be a533 0fbe 7dcf 093f 09c7 053f
00000180: 7b09 123d e710 943e f00b 803d 7c6f 113e
00000190: 65e5 2a3f fb04 cd3d c5fe 19be 1bc0 c13b
000001a0: 83d9 783e 17c6 ba3e 5442 6e3c 2fcb 25be
000001b0: 9b3d 373d afc9 05bf 3555 1d3e b9d7 2a3f
000001c0: 325e f63e 39ee 673e d940 823e 86e2 e9be
000001d0: 75cb 313d 60d7 3d3b 8aa0 133d 4233 92bc
000001e0: 9e83 48bf 14ff e73a 5656 a23e 13c4 8b3d
000001f0: 2ee8 783e 85ae 68bf 28cb bf3f 6c13 86be
00000200: 914a 253f ce9c f7bc 11be db3e e370 b23e
00000210: 4888 0abf 0164 6ebe 3352 7c3e be2b b0be
00000220: 2a02 a83e 90f7 4cbe 9dc6 92be 3d9a 63be
00000230: cf95 6e3e de97 9b3d a553 9d3c 5005 38bf
00000240: 93c5 84be ece7 f8be 81a9 cb3e 8396 713e
00000250: c173 b33d 38a3 113e 7e47 5f3e 5dd1 cbbe
00000260: 8e38 753e 721b b4be f7af aebe d840 b73e
00000270: 49c7 af3f 8b1e 3d3e c6c4 713e 0d04 cb3e
00000280: 699e 383e 498e d2be 1794 ebbe ffa9 453e
00000290: 5253 273e 113c a9bd e11c 793d c021 3f3e
000002a0: dd4b ffbd c105 0c3c b379 7e3e 6e75 80bd
000002b0: 9447 b23e 09f2 f1be f4bc 873e 3ce3 04bd
000002c0: 7c75 1c3e 56dd c53e 9e70 9dbe 39fe b8be
000002d0: 4c3c 15bf 96d5 e13e 10cb aebc bada 52bf
000002e0: 07b8 bc3e cf04 5f3e dda7 fc3e 58d7 04be
000002f0: a45b 3f3f 986a 623f 8295 c4bd 81d0 c43e
00000300: 6705 b6bf e797 9abd 82f9 183e df4d f4bc
00000310: 9090 66bc ef53 dcbe 879c 563f 90e2 2cbf
00000320: 2290 51bd 3253 58be bd89 a9bb 8c88 aa3e
00000330: c616 aebe 9934 f4be 84d4 923e 4a91 43bf
00000340: d9d0 72bd 2d95 68be 114b f83e ea59 a53e
00000350: a89b 993e 6f73 b93d 2300 7bbd c084 e63d
00000360: 90ae 6bbe 65c4 7abe 5735 c43e 3981 253e
00000370: 2bbc e33d a5bc 963e ee60 ccbe ea7f 0dbe
00000380: 30b1 2abe bb63 a3be c3ef 41be 0f24 a03e
00000390: 8f99 1d3f e1b5 933e 4085 e73b 5e90 693e
000003a0: 46de 343e 66f8 f73b 0188 54bd 8fdd 103e
000003b0: c300 ac3e aab5 a1be af39 e1be f515 9fbc
000003c0: 21dd d5bc d880 1ebe d21e 8c3e f43f ebbd
000003d0: a94d 7d3b 904f 2cbe 2c3a 9d3e 48b2 af3e
000003e0: 1df1 8c3e 05a0 c73e d8ec b1be ed21 5abe
000003f0: 0f24 dabe ed4d 8e3e e943 8c3d 84be 60bf
-0.27437705 -0.53704625 0.30692112 0.06515361 0.11644407 0.06056351 -1.4126709 -0.09503036
0.25987747 -2.4545674 -0.28380704 0.05841171 1.6239872 0.24255405 -0.33655366 0.2050546
0.2103217 0.2763226 1.1678982 0.68500066 0.12338818 -0.5061919 -2.81894 -0.010446058
0.13282983 -0.19424413 -0.036860302 0.23395166 -0.38132563 0.19633855 0.326886 0.27954566
-0.16098157 0.2535714 0.36123523 -0.50293165 0.073529705 0.16314065 0.20556878 -0.08239893
0.33245704 0.21378133 -0.57397467 0.14909229 0.17240492 0.35540333 -0.038590804 -0.12700607
-0.5655066 0.13683538 0.44276568 0.17678206 0.49003834 0.12897508 1.2554835 -0.34759882
0.56376654 -0.08509763 0.38025644 0.555163 -0.5748628 -0.47028294 -0.08745433 0.31830558
0.07863614 -0.38726738 0.12915999 0.48623052 0.018600948 -0.28184888 0.16204168 -0.19788149
-0.09553103 -0.041546073 0.019775817 0.017913181 -0.1435552 -0.13672581 0.56067395 -0.38829106
0.99110174 0.29451093 -0.39741266 0.067204155 -1.0997974 0.5475185 0.19000664 0.031524103
0.15017669 -0.10944006 0.9330567 -0.2500154 -0.29903615 -0.13984545 0.53832227 0.5225683
0.035653573 0.28919145 0.06252277 0.14202684 0.6675628 0.100107156 -0.15038593 0.0059127933
0.24301724 0.36479256 0.014542181 -0.1619079 0.044736486 -0.5226087 0.15364535 0.66735417
0.4811874 0.22649468 0.254401 -0.45680636 0.043406922 0.0028967485 0.036041774 -0.017846707
-0.7832583 0.001769992 0.31706494 0.068245076 0.2430732 -0.90891296 1.4983873 -0.26186693
0.64566904 -0.030226137 0.42918447 0.3485175 -0.541142 -0.23280336 0.24640732 -0.34408373
0.3281415 -0.20016313 -0.28667155 -0.22226806 0.23299335 0.07597326 0.019204924 -0.71883106
-0.25931987 -0.48614442 0.3977776 0.23592572 0.08762313 0.1422242 0.21804616 -0.3980817
0.23947355 -0.3517719 -0.34118626 0.3579166 1.3732692 0.18468682 0.2361022 0.39651528
0.18029179 -0.4112418 -0.4601142 0.1930313 0.16340378 -0.0826341 0.060818557 0.18665218
-0.12465642 0.008546294 0.24851112 -0.06272398 0.34820235 -0.4725497 0.26511347 -0.03244327
0.15279192 0.38645428 -0.30749983 -0.36131456 -0.5829513 0.44108266 -0.021337062 -0.82365
0.36859152 0.21779178 0.4934682 -0.12972772 0.7474921 0.884439 -0.09598829 0.38440326
-1.4220399 -0.07548504 0.1493893 -0.029822288 -0.014072552 -0.43032786 0.8383259 -0.67533207
-0.051162846 -0.21125486 -0.0051738904 0.33307302 -0.3400175 -0.4769638 0.28677762 -0.7639357
-0.059281204 -0.22713156 0.4849477 0.3229516 0.3000157 0.0905522 -0.061279427 0.11255789
-0.23015809 -0.24488981 0.38321945 0.16162576 0.111198746 0.294408 -0.399177 -0.13818327
-0.16669154 -0.31912026 -0.18939118 0.3127751 0.61562437 0.288497 0.007065445 0.22808978
0.17662916 0.007567453 -0.051887516 0.14147018 0.3359433 -0.3158391 -0.43989322 -0.01941965
-0.026106419 -0.15478837 0.27367264 -0.114868075 0.0038651025 -0.16827226 0.30708444 0.34315705
0.27527705 0.38989273 -0.3475101 -0.21302004 -0.42605636 0.27793828 0.0684889 -0.87790704

fc4.bias f4 [31]
00000000: bcde edbd 1d0f 21bf fdc9 4cbe f1be c1be
00000010: efca 583f b374 4bbe 3225 543f eac8 f3be
00000020: fb27 053f d520 0e3f 395e 11bf 53dd 1a3f
00000030: 55e8 1f3f aad0 c0be af8f f73e b817 2e3f
00000040: ad66 443f c1e3 6dbe 6ba7 393f 2c0e 2d3f
00000050: 021c f03e 8b45 3bbf 5862 4e3f b989 213f
00000060: 13f0 233f 7b07 1f3f f96b 28bf b3f2 023f
00000070: 2918 403f f9f5 2f3f a88e 073f
-0.11614749 -0.62913686 -0.19998927 -0.3784099 0.8468465 -0.19868736 0.82869256 -0.47614223
0.5201413 0.5551885 -0.567844 0.60493964 0.62463886 -0.37659198 0.4835181 0.6800494
0.7671917 -0.23231412 0.72521085 0.6759975 0.46896368 -0.7315299 0.8061881 0.63100773
0.640382 0.6212079 -0.65789753 0.5115158 0.75036865 0.687347 0.5295205
