MRTAWorld_DQN/PruebaPosiciones/Caso3/DQN_model_5Tasks_Caso3.pth (torch, 20084 bytes, 8 tensors)

fc1.weight f4 [32, 31]
0	0xbcb8d91e	-0.022564467
1	0xbd3e22de	-0.04641997
2	0xbda3d0d6	-0.07998817
3	0xbc850ba7	-0.016240908
4	0xbc35c0eb	-0.0110933585
5	0xbd0482df	-0.03235137
6	0x3dbb8a18	0.09157199
7	0xbd10011c	-0.035157308
8	0xbd6d821c	-0.05798541
9	0x3d567332	0.052355953
10	0xbd1eb706	-0.038748764
11	0xbe3277f9	-0.17428578
12	0xbca63e0d	-0.02029326
13	0x3ca1cc1b	0.019750645
14	0x3d40568a	0.04695753
15	0x3eb95200	0.36195374
16	0x3d8397a8	0.064254105
17	0xbd4d9a1b	-0.050195795
18	0x3f058568	0.52156687
19	0x3e2e8f87	0.17046939
20	0xbed3dc81	-0.4137917
21	0xbf0dcfb0	-0.5539503
22	0xbf1bfe29	-0.6093469
23	0xbddc0a74	-0.10744181
24	0x3d6155a1	0.055013303
25	0xbd268a60	-0.04065931
26	0xbd95dfce	-0.07318078
27	0x3e0e05a9	0.13869347
28	0xbdc6e3ef	-0.09711444
29	0x3e8f7db3	0.28025588
30	0xbeaa6b6c	-0.3328508
31	0x3da538b4	0.08067456
32	0x3e893df3	0.26805076
33	0xbdbd0c14	-0.09230819
34	0xbda92c54	-0.08260408
35	0xbe0dda05	-0.13852699
36	0xbe4a3419	-0.19746436
37	0xbeaccedf	-0.3375158
38	0xbe369b0b	-0.17832582
39	0xbe6ce03a	-0.2313241
40	0xbdb18c7a	-0.08669372
41	0xbc9b0aca	-0.018926043
42	0xbd0bb736	-0.03411027
43	0x3df2fc4b	0.11864527
44	0xbde15bc7	-0.11003833
45	0xbe356651	-0.17714812
46	0xbe9626d7	-0.29326507
47	0xbd5214bc	-0.051289305
48	0xbe5af3b5	-0.2138203
49	0xbe56d95b	-0.20981352
50	0xbe63c6e3	-0.22243838
51	0xbecdd0d9	-0.401984
52	0xbd83145f	-0.0640037
53	0x3e06a186	0.13147554
54	0x3a8f24b6	0.0010920975
55	0x3dcf072f	0.10108792
56	0xbd9a3018	-0.075287044
57	0xbcde3f10	-0.02712968
58	0x3e494d64	0.19658428
59	0x3e0ff46b	0.14058082
60	0x3eaf352a	0.34220248
61	0xbe10b7f3	-0.14132671
62	0x3d4ac9d8	0.0495089
63	0x3d9c100a	0.07620247
64	0xbe4c3163	-0.19940715
65	0x3df50c40	0.11965227
66	0x3e343e17	0.1760181
67	0x3deb7d8d	0.11498556
68	0x3e487280	0.19574928
69	0x3e146336	0.14490971
70	0x3c8f78c8	0.017513648
71	0x3e329cf5	0.17442687
72	0x3e2dd0d8	0.16974199
73	0x3daa3a81	0.0831194
74	0x3e0670b1	0.13128926
75	0x3e80bfb6	0.25146264
76	0x3ef383e1	0.47561553
77	0xbdb949ba	-0.09047265
78	0x3e2e0711	0.16994883
79	0x3e199752	0.1499913
80	0x3e56fb8e	0.20994398
81	0xbe6b88a8	-0.23001349
82	0xbe9c511e	-0.30530638
83	0xbe8bda18	-0.2731483
84	0xbea28b77	-0.31747028
85	0xbef525be	-0.47880358
86	0xbeead40c	-0.45864904
87	0xbe81838b	-0.25295672
88	0xbd1e130a	-0.038592376
89	0xbdd35c06	-0.103202865
90	0x3ee2f9ee	0.44331306
91	0xbe820d0a	-0.25400573
92	0x3e4e6a59	0.20157756
93	0x3defc937	0.117083006
94	0x3d7146db	0.058905464
95	0xbf013ddc	-0.50485015
96	0x3e00685a	0.12539807
97	0x3d35b6f1	0.04436392
98	0x3b970a7b	0.0046094037
99	0x3d295276	0.041338407
100	0x3c231f3d	0.009956178
101	0x3d2c6392	0.042087145
102	0x3dd298b4	0.10283032
103	0x3e884c24	0.2662059
104	0xbe5dad9e	-0.21648261
105	0xbe0d83f8	-0.13819873
106	0x3c865971	0.01640007
107	0xbe535aa4	-0.20640045
108	0x3c186eb2	0.009303736
109	0xbe12290a	-0.14273468
110	0xbe39f76f	-0.18160795
111	0x3ddadf62	0.10687138
112	0x3d976fea	0.07394393
113	0xbe0540d3	-0.1301301
114	0xbd47a3df	-0.048740264
115	0xbc955a48	-0.018231526
116	0xbeaec0a6	-0.34131354
117	0x3e173431	0.14766003
118	0xbe1acf89	-0.15118231
119	0x3e78f83e	0.24313447
120	0xbe81101f	-0.25207612
121	0x3d197654	0.037466362
122	0x3e189fbb	0.14904682
123	0x3e223f67	0.15844499
124	0x3e61b2b1	0.22040822
125	0x3e4308fb	0.19046395
126	0x3e04fc96	0.12986979
127	0x3da5f9d5	0.08104292
128	0x3c9f18e4	0.019421048
129	0xbd7d34f8	-0.061818093
130	0xbd002542	-0.03128553
131	0xbdb4345c	-0.08799049
132	0xbd3e3ed0	-0.04644662
133	0xbd2c157f	-0.042012688
134	0xbaeeac80	-0.0018209368
135	0xbc3ac276	-0.011398902
136	0x3ca49a71	0.020093175
137	0x3992d43e	0.00028005423
138	0xbf386fe9	-0.7204576
139	0xbdfc32f3	-0.12314405
140	0xbf820acc	-1.0159545
141	0xbeb1f8a3	-0.34760007
142	0xbde51138	-0.11184925
143	0x3e84c476	0.25931138
144	0x3e05a476	0.13051018
145	0x3d3d6ad4	0.046244457
146	0x3bbaed40	0.005704552
147	0x3e81f9dc	0.2538594
148	0xbafe480c	-0.0019400134
149	0x3b8bbf54	0.0042647514
150	0xbd965aed	-0.073415615
151	0xbd72b93b	-0.05925868
152	0x3e02ef52	0.12786606
153	0x3c6d7c1b	0.014494921
154	0xbc3faca9	-0.01169888
155	0x3dbee21c	0.09320471
156	0x3e1339ad	0.1437747
157	0xbbd20608	-0.0064094104
158	0x3d8a7e01	0.067623146
159	0xbd255088	-0.040360004
160	0x3e47983b	0.19491665
161	0x3d7c8764	0.061652556
162	0x3ce8296b	0.028340062
163	0x3deaf68d	0.11472807
164	0xbdaefa1f	-0.085438006
165	0xbd42f7f0	-0.047599733
166	0x3dca650d	0.09882555
167	0x3e09b396	0.13447413
168	0x3d0d44b4	0.03448935
169	0xbea819b4	-0.3283211
170	0xbebb572a	-0.36589938
171	0xbe9f783b	-0.31146416
172	0xbe777196	-0.24164423
173	0xbe8db5e9	-0.2767785
174	0x3d8672b5	0.065648474
175	0x3dca51a6	0.098788545
176	0x3d56058f	0.052251395
177	0x3e498a60	0.19681692
178	0x3df7169b	0.120648585
179	0xbd8788a1	-0.06617857
180	0x3ec82dde	0.39097494
181	0xbdfdff49	-0.124022074
182	0xbd62e8f2	-0.055397935
183	0xbeac4ee2	-0.33653933
184	0x3ce71f05	0.028213033
185	0xbd8f4359	-0.069952674
186	0xbe2ecada	-0.17069569
187	0xbdc1cb3b	-0.09462591
188	0x3c53aa84	0.012919072
189	0x3d349acf	0.04409295
190	0x3d2a3086	0.04155018
191	0xbc8ae9c6	-0.016957175
192	0x3e1886f3	0.14895229
193	0x3d15f7cf	0.03661328
194	0x3d2a26c1	0.041540865
195	0x3e2acfc0	0.16680813
196	0x3e23a3a6	0.15980396
197	0x3b924c21	0.0044646417
198	0xbc43a08d	-0.011940134
199	0x3d1f391d	0.038872827
200	0xbe9b7d70	-0.3036914
201	0x3e80750d	0.25089303
202	0x3e6664b2	0.2249935
203	0xbe373a53	-0.17893343
204	0x3f06346d	0.52423745
205	0x3dfd196a	0.12358363
206	0xbe8903f5	-0.2676083
207	0xbd3efcbc	-0.046627745
208	0xbefbe19c	-0.49195564
209	0xbde0ed08	-0.1098271
210	0xbd25616b	-0.04037611
211	0x3e292733	0.1651886
212	0xbe573cd1	-0.21019293
213	0x3e5e2b42	0.21696189
214	0xbd89e538	-0.06733173
215	0xbe6fde3a	-0.23424616
216	0x3e329fe8	0.17443812
217	0x3d1b8022	0.037963994
218	0xbdf13428	-0.11777526
219	0xbe2f8b2e	-0.17142937
220	0xbd1a3753	-0.037650418
221	0x3da56195	0.08075253
222	0xbe0adf48	-0.13561738
223	0xbd6bae74	-0.05753942
224	0xbd82d0d3	-0.06387486
225	0x3dbcbfb1	0.0921625
226	0xbd4ed5b7	-0.050496783
227	0x3d18ef5c	0.037337646
228	0x3e2ab4ba	0.16670504
229	0xbd147f6e	-0.03625434
230	0xbd85a701	-0.06525994
231	0x3e3fefcf	0.18743823
232	0x3c8113c8	0.015756503
233	0xbe02cf85	-0.12774475
234	0xbe162c70	-0.14665389
235	0x3d90d116	0.0707113
236	0xbdee63cd	-0.11640129
237	0xbea60ce7	-0.3243172
238	0xbddd19a4	-0.10795906
239	0x3cb77e3e	0.022399064
240	0xbe1a6999	-0.15079345
241	0xbed5e845	-0.4177877
242	0x3e44417a	0.19165602
243	0x3e8449f0	0.2583766
244	0xbac378fe	-0.0014913378
245	0x3e17bce3	0.14818148
246	0xbdbccdf7	-0.09218972
247	0x3d810e82	0.06301595
248	0xbd906c08	-0.07051855
249	0x3c781960	0.015142769
250	0x3c7264cc	0.01479454
251	0xbd0f762e	-0.035024814
252	0xbdde8933	-0.108660124
253	0xbd598979	-0.05310962
254	0xbd6fa5c4	-0.058507696
255	0x3d994dbf	0.07485532

fc1.bias f4 [32]
0	0x3efb4f5d	0.49083987
1	0x3f0e1e11	0.5551463
2	0x3f346dc0	0.70479965
3	0x3f217c40	0.63080215
4	0x3f34289e	0.70374477
5	0x3f81dee3	1.0146145
6	0x3f3a1aa6	0.7269691
7	0x3f62d692	0.8860866
8	0x3f6ec747	0.93272823
9	0x3f07dd79	0.53072315
10	0x3f4aed07	0.79267925
11	0x3f44449f	0.7666721
12	0x3f473534	0.77815557
13	0xbf2d42ad	-0.67679864
14	0x3f0118c8	0.5042844
15	0x3f4a88bc	0.7911489
16	0x3f563697	0.8367705
17	0xbecf6135	-0.4050385
18	0xbf08772d	-0.5330685
19	0x3f784aca	0.9698912
20	0xbe0b05db	-0.13576452
21	0x3f81fe48	1.0155725
22	0x3f4d1ee7	0.8012528
23	0xbe55d718	-0.20882833
24	0x3f3387eb	0.7012927
25	0xbe64bb54	-0.22337085
26	0x3f76d4f3	0.96418685
27	0x3f2cc649	0.6749006
28	0xbf4bb540	-0.7957344
29	0x3f5087e2	0.8145734
30	0xbf59c94a	-0.8507277
31	0xbe3a25ad	-0.18178435

fc2.weight f4 [32, 32]
0	0xbe695918	-0.22787893
1	0xbe169d22	-0.14708379
2	0x3f29d0b5	0.66334087
3	0xbcf644cf	-0.030062107
4	0x3e176bd6	0.1478723
5	0x3e807708	0.25090814
6	0xbcba3294	-0.022729196
7	0x3f3d5847	0.73962826
8	0x3e2f842f	0.17140268
9	0x3e8d6196	0.27613515
10	0xbdbc931c	-0.092077464
11	0x3fd79eab	1.6845297
12	0xbcb2a032	-0.021804903
13	0xbf550829	-0.83215576
14	0x3d5498f3	0.051903676
15	0xbe2c0d8b	-0.16802041
16	0x3f2593f8	0.6467891
17	0x3ee5a0a3	0.4484912
18	0xbfac5e29	-1.3466235
19	0xbf06257a	-0.52400935
20	0x3f36839b	0.71294564
21	0xbe6e6b53	-0.23283128
22	0x3fa6bf32	1.3027098
23	0x3f6be48b	0.92145604
24	0xbf1dc466	-0.61627805
25	0x3dc2b133	0.09506454
26	0x3ea4f9b1	0.3222175
27	0x3f166d8a	0.58760893
28	0xbece363e	-0.40275759
29	0xbe8137df	-0.2523794
30	0xbfc17ce0	-1.5116234
31	0x3e8aae00	0.27085876
32	0xbe3a1ca3	-0.18174987
33	0xbf1867e2	-0.5953351
34	0xbeea72d3	-0.4579073
35	0xbec5d721	-0.38640693
36	0xbe874744	-0.2642156
37	0x3d9bf52c	0.07615122
38	0xbd1b8def	-0.037977155
39	0xbf042c11	-0.5162974
40	0xbedf769e	-0.43645185
41	0xbdf04f8e	-0.11733924
42	0xbeddfdb7	-0.43357632
43	0x3dd9b098	0.10629386
44	0xbeb24ef9	-0.34825876
45	0x3efc1728	0.49236417
46	0xbeb04889	-0.3443034
47	0xbee09176	-0.43860978
48	0xbecde728	-0.4021542
49	0xbea949da	-0.33064157
50	0x3ee5bc9c	0.4487046
51	0xbe8b21df	-0.2717428
52	0x3df95853	0.1217505
53	0xbe1c9ffd	-0.15295406
54	0x3e22396a	0.15842214
55	0x3ed2eb4e	0.41195148
56	0xbec4dd6e	-0.38450187
57	0xbe4c6308	-0.19959652
58	0xbe64848e	-0.2231619
59	0xbe9b2a89	-0.3030589
60	0x3f205afc	0.6263883
61	0xbc85fa49	-0.016354697
62	0x3e05e2b6	0.13074765
63	0x3f045c72	0.5170356
64	0x3dc2a37b	0.09503838
65	0x3e71d8c2	0.23617843
66	0x3ed62e0a	0.41832
67	0x3eb201ff	0.34767148
68	0x3bf5eebb	0.0075052655
69	0xbe19799f	-0.14987801
70	0xbe12ccfe	-0.14336011
71	0x3ed62076	0.4182164
72	0x3f0ab179	0.5417705
73	0x3e6bdd35	0.23033603
74	0x3e3799c3	0.17929749
75	0x3e1a4a27	0.1506735
76	0x3e9cd608	0.30632043
77	0xbe4a1fdf	-0.1973872
78	0x3d8604ed	0.06543908
79	0x3eb362ce	0.3503632
80	0x3f39d641	0.7259255
81	0xbbd22c47	-0.0064139697
82	0xbeb81500	-0.35953522
83	0x3de8b36f	0.11362349
84	0xbe73c7ce	-0.23806688
85	0x3e93ed9c	0.2889222
86	0x3ea94832	0.33062893
87	0x3e66a366	0.22523269
88	0x3e8b303a	0.2718523
89	0xbcf0c933	-0.029392814
90	0x3e342e3a	0.17595759
91	0x3bf5a141	0.0074960296
92	0xbf05afd5	-0.52221423
93	0xbe263aea	-0.16233411
94	0xbf72a88b	-0.94788426
95	0xbec4226c	-0.38307512
96	0x3e6d07b8	0.23147476
97	0x3e4d3f56	0.20043692
98	0xbe3b6a39	-0.1830224
99	0x3e1b9450	0.15193295
100	0xbe997d45	-0.29978386
101	0xbed00adc	-0.40633285
102	0xbe571147	-0.21002685
103	0xbe9ab3e0	-0.3021536
104	0x3d4a0f5c	0.049331054
105	0xbe8cb9d6	-0.27485532
106	0xbd45162d	-0.04811685
107	0xbfe0e0e6	-1.7568634
108	0xbe42aae1	-0.19010498
109	0x3f6cdf8a	0.92528594
110	0xbecaf630	-0.3964095
111	0x3e229091	0.1587546
112	0xbf178b2f	-0.5919675
113	0xbee0d21f	-0.4391031
114	0x3f3c50bb	0.73560685
115	0xbd0a7aed	-0.033808637
116	0xbf17dc84	-0.59320855
117	0xbf5da137	-0.8657412
118	0xbfba7d08	-1.4569407
119	0xbf3f521a	-0.7473465
120	0x3f713157	0.9421591
121	0xbe2b6cdb	-0.16740744
122	0xbedb600f	-0.42846724
123	0xbf8f211d	-1.118198
124	0x3d7e5e76	0.062101804
125	0xbf0559c3	-0.5209009
126	0x3f77a894	0.96741605
127	0xbf2803a9	-0.65630585
128	0xbcc4dee9	-0.024032073
129	0x3dc9406a	0.09826739
130	0xbe6d1fb8	-0.23156631
131	0x3e3304db	0.17482321
132	0x3f2250bc	0.6340444
133	0x3ea88a34	0.3291794
134	0xbe12dcbb	-0.14342014
135	0xbe82c1a2	-0.25538355
136	0x3ec1c2ae	0.3784384
137	0x3ed98b1f	0.42488953
138	0x3a608aaa	0.00085655844
139	0x40113e3f	2.2694242
140	0xbe15cd6b	-0.14629142
141	0xbef951f8	-0.4869535
142	0x3f2ec81e	0.68274105
143	0x3c1f9e97	0.009742401
144	0x3e869e4c	0.26292646
145	0x3f36ce81	0.7140885
146	0xbf0fde24	-0.56198335
147	0x3dc58de1	0.09646202
148	0x3eedb60d	0.46427956
149	0x3ff6c7bd	1.9279705
150	0x3fc1d4c0	1.5143051
151	0x3efddcb6	0.49582452
152	0xbf8cc785	-1.0998389
153	0x3dbdb992	0.0926391
154	0x3d824107	0.06360059
155	0x3fa2a0fb	1.2705377
156	0xbf091b4b	-0.5355727
157	0x3ec46c5a	0.38363916
158	0x3d4eed6d	0.050519396
159	0x3ef03ac0	0.46919823
160	0x3e4b0d23	0.1982923
161	0xbd298461	-0.041386012
162	0x3e649831	0.22323681
163	0xbd12175a	-0.0356668
164	0xbeda94fb	-0.42691788
165	0xbf27e11f	-0.6557788
166	0xbea0ae12	-0.31382805
167	0xbd8f653c	-0.07001731
168	0xbeb4e1c1	-0.35328487
169	0xbea1045c	-0.31448638
170	0x3db0cb44	0.0863252
171	0xbfff9154	-1.9966226
172	0xbdc320a8	-0.09527713
173	0x3ee284d1	0.44241956
174	0xbebd5b84	-0.36983883
175	0xbe853d9c	-0.26023567
176	0xbf2e865a	-0.68173754
177	0xbf2ba606	-0.67050207
178	0xbe239ef6	-0.15978608
179	0x3e8b2fd4	0.27184927
180	0xbe8b3f06	-0.2719652
181	0xbf7b3b77	-0.9813761
182	0xbfaa4b0d	-1.3304154
183	0xbf28cadc	-0.6593454
184	0x3f54a56d	0.8306492
185	0xbeff60ef	-0.49878642
186	0xbecc6bde	-0.39926046
187	0xbfa529b5	-1.2903353
188	0xbe950d16	-0.29111546
189	0xbd9f87d7	-0.07789581
190	0x3ee828b1	0.45343545
191	0xbf9b1a7f	-1.2117461
192	0xbc375ca8	-0.011191525
193	0x3e50f459	0.20405711
194	0x3ed78b57	0.42098495
195	0x3e544de9	0.20732845
196	0x3db9414a	0.09045656
197	0x3e2893c5	0.1646262
198	0x3ca56e2f	0.020194141
199	0x3eceeb9e	0.40414137
200	0x3eb2d9b1	0.3493171
201	0x3dee9c51	0.11650909
202	0x3eb1ff0f	0.34764907
203	0x3e0e6660	0.1390624
204	0x3f34361a	0.7039505
205	0xbe865d2a	-0.26242954
206	0xbd87eaec	-0.06636605
207	0x3ec31e82	0.38109213
208	0x3f5a119b	0.85183114
209	0x3e873594	0.26408064
210	0xbf0ee10d	-0.5581215
211	0x3e67c00f	0.22631858
212	0xbea73b5b	-0.32662472
213	0x3f252231	0.64505297
214	0x3e2e7612	0.17037228
215	0x3ebf2d5a	0.37339288
216	0xbc91f8e1	-0.01781887
217	0xbc3fce45	-0.011706893
218	0x3f1c3d3e	0.6103095
219	0xbe4adaa8	-0.19809973
220	0xbee95879	-0.45575312
221	0x3e2ffc9b	0.17186205
222	0xbf3ef67d	-0.7459486
223	0xbea6556f	-0.32487056
224	0x3e3cf979	0.18454541
225	0x3e4c8a5d	0.19974656
226	0x3e1859b0	0.14877963
227	0x3e910ec2	0.28331572
228	0x3e9eebda	0.31039315
229	0x3ec8a592	0.3918882
230	0x3e725cb6	0.23668179
231	0x3eb23022	0.34802347
232	0x3e2c67f1	0.16836525
233	0x3e9ca555	0.30594888
234	0x3eb04f08	0.34435296
235	0x3e7cca31	0.24686505
236	0x3f090f86	0.5353931
237	0xbda24344	-0.07922986
238	0x3e39d54f	0.18147777
239	0x3d7fef84	0.06248428
240	0x3eb9c7b3	0.3628517
241	0x3daacfdc	0.08340427
242	0xbe92e128	-0.28687406
243	0x3de6f771	0.112776645
244	0xbf0eecbf	-0.55829996
245	0x3c6bc5c0	0.014390409
246	0x3e090fa8	0.13384879
247	0xbe9f3f86	-0.31103152
248	0x3effcd0f	0.49961135
249	0xbe7963ab	-0.24354427
250	0x3ebeb035	0.3724381
251	0x3dc25937	0.09489673
252	0xbe5e93d6	-0.21736082
253	0x3dcab7fb	0.09898373
254	0xbef1ae7c	-0.47203434
255	0xbeb8cc36	-0.360933

fc2.bias f4 [32]
0	0x3f54075d	0.82823735
1	0xbf821e89	-1.0165569
2	0x3f65bc22	0.8974019
3	0xbf189817	-0.5960707
4	0x3f06e3d0	0.52691364
5	0xbea2d256	-0.318011
6	0x3f76cde9	0.96407944
7	0x3f79dbb7	0.97600883
8	0xbf2e7447	-0.68146175
9	0x3f456154	0.77101636
10	0x3f2ef1f0	0.6833792
11	0xbf4d6baf	-0.8024244
12	0xbeea9dcd	-0.45823517
13	0x3f2ab548	0.66682863
14	0x3f27615f	0.6538295
15	0x3f41686d	0.75549966
16	0x3f5f8bbf	0.8732261
17	0x3f7abba9	0.97942597
18	0x3ed199c6	0.40937632
19	0xbf0e039c	-0.5547426
20	0x3f72783e	0.94714725
21	0x3e659e56	0.22423682
22	0x3f551a35	0.83243114
23	0xbf0b15c7	-0.54330105
24	0x3f2052d1	0.6262637
25	0xbf579ce2	-0.8422376
26	0xbf2a31e7	-0.66482395
27	0x3f0b64e5	0.5445083
28	0xbf1e35d7	-0.61800903
29	0x3f3f427e	0.74710834
30	0x3f6145ce	0.8799714
31	0xbf6a5194	-0.9153073

fc3.weight f4 [32, 32]
0	0x3eace0e9	0.33765343
1	0xbc5a2f39	-0.013316923
2	0x3dd4c36d	0.10388837
3	0xbf664143	-0.8994333
4	0x3f893f1c	1.0722384
5	0xbf280dec	-0.65646243
6	0x3e18783a	0.14889613
7	0x3e70cc4d	0.23515435
8	0xbeb7b907	-0.35883352
9	0x3f1b6a2f	0.607089
10	0x3f181691	0.59409434
11	0xbe89a0b6	-0.26880425
12	0xbebe6c06	-0.3719179
13	0xbdba75be	-0.09104489
14	0x4042f731	3.0463374
15	0xbe53385f	-0.20626973
16	0x3ebd343c	0.36953914
17	0x3bb7bc86	0.0056071905
18	0x403b914c	2.9307432
19	0x3f401b94	0.7504208
20	0x3e9305a3	0.28715238
21	0xbf431278	-0.76200056
22	0x3e59447f	0.21217535
23	0xbee16966	-0.44025725
24	0x3e9d7e08	0.30760217
25	0xbe782fe4	-0.24237019
26	0xbef623c4	-0.48074162
27	0x3d37405f	0.044739123
28	0x3e39a333	0.18128662
29	0x3f1ba92d	0.60805017
30	0xbda35798	-0.079756916
31	0xbea85163	-0.32874593
32	0xbee6dcae	-0.4509024
33	0x3e955ff6	0.29174775
34	0xbed1ea53	-0.40999088
35	0x3dbb6c3d	0.09151504
36	0x3ebd0189	0.36915234
37	0xbe754c85	-0.23954971
38	0xbe07712e	-0.13226768
39	0xbe8cf61e	-0.27531523
40	0x3eb3ee22	0.35142618
41	0xbe999efc	-0.30004108
42	0xbdf02410	-0.117256284
43	0x3e1d0625	0.15334375
44	0x3e5fb9d5	0.21848233
45	0xbea22858	-0.31671405
46	0x3fef7a2b	1.8709158
47	0x3dbd3dee	0.09240328
48	0xbdf4df60	-0.11956668
49	0xbebfd20d	-0.37464944
50	0x3f20cfc7	0.62817043
51	0x402cf4b4	2.7024355
52	0xbee71b5f	-0.4513807
53	0x3fd9dd76	1.702071
54	0xbe484ea3	-0.19561248
55	0xbca99ab4	-0.020703651
56	0x3e1656ab	0.14681499
57	0x3e57ed2f	0.21086572
58	0xbee51818	-0.44744945
59	0xbe843d7a	-0.25828153
60	0x3e815e25	0.2526714
61	0xbe2e8d09	-0.17045988
62	0xbe9f10fd	-0.3106765
63	0x3e88dc50	0.26730585
64	0xbd6d2133	-0.05789299
65	0x3f1166d3	0.5679752
66	0xbe3b1ca1	-0.1827264
67	0xbe98751b	-0.29776844
68	0x3f316a84	0.69303155
69	0xbe9cb566	-0.30607146
70	0xbe6045f2	-0.21901682
71	0xbf1170e7	-0.568129
72	0x3e1bf8ef	0.1523168
73	0xbc572533	-0.013131428
74	0x3da2d008	0.07949835
75	0x3f014ef2	0.50511086
76	0x3e9de12a	0.3083585
77	0xbed014f8	-0.40640998
78	0x40828227	4.0783877
79	0xb91ce256	-0.00014961636
80	0xbe3b8f3b	-0.18316357
81	0xbe46437e	-0.19361684
82	0x4034d92d	2.8257554
83	0x400be147	2.1856248
84	0xbf2d5713	-0.6771099
85	0x3ea53ca0	0.32272816
86	0xbef2ebd2	-0.47445542
87	0xbe184c6c	-0.14872903
88	0xbe066c7d	-0.13127322
89	0x3ec13e0d	0.37742653
90	0xbea1141f	-0.31460664
91	0xbecc6417	-0.39920112
92	0x3e9edfe3	0.31030187
93	0x3da046f1	0.07826031
94	0xbf41ad07	-0.75654644
95	0x3dcb975f	0.09940981
96	0x3d926d4a	0.071497515
97	0x3e59814a	0.21240726
98	0x3d97a7f0	0.074050784
99	0x3f247a8a	0.6424948
100	0xbfab35b9	-1.337577
101	0x3f3391c2	0.70144284
102	0xbdb0ba9f	-0.08629345
103	0xbe5db7c5	-0.21652134
104	0xbe6e9696	-0.23299631
105	0xbeba7ae9	-0.36421898
106	0xbf055cfb	-0.52095
107	0x3efb99b4	0.49140704
108	0x3f46c740	0.7764778
109	0x3db0f987	0.086413436
110	0xc01a9b0a	-2.4157128
111	0xbe8f22c7	-0.2795622
112	0xbdbc0618	-0.0918085
113	0xbdd1782c	-0.10227999
114	0xc027f33d	-2.624221
115	0x3ed65592	0.4186216
116	0xbed0801e	-0.40722746
117	0x3ef2acef	0.47397563
118	0xbec7a86d	-0.38995686
119	0x3f012ab2	0.5045577
120	0xbeb33961	-0.35004714
121	0x3e83be4a	0.25731117
122	0x3f1a6003	0.6030275
123	0x3df46366	0.11933021
124	0x3dd44bcc	0.103660196
125	0xbf77a148	-0.9673047
126	0xbe7a0cf1	-0.24418999
127	0x3eba148b	0.36343798
128	0x3e959570	0.29215574
129	0x3e888ab7	0.2666833
130	0xbec8a5da	-0.39189035
131	0xbe9b0854	-0.3027979
132	0x3f01e341	0.50737387
133	0xbeae3e37	-0.3403184
134	0xbea6dd2d	-0.3259062
135	0xbe28b33f	-0.16474627
136	0xbe47475b	-0.19460814
137	0xbc9097b8	-0.01765047
138	0xbd4acaf8	-0.049509972
139	0x3e326257	0.17420326
140	0x3dd9680e	0.1061555
141	0xbdd9a009	-0.106262274
142	0xbfb8c2f7	-1.4434499
143	0xbe9b0565	-0.30277553
144	0xbe99408e	-0.29932064
145	0xbe864444	-0.26223958
146	0xc0141177	-2.313566
147	0x40148876	2.320829
148	0xbe521b46	-0.20518216
149	0x3e4c6640	0.1996088
150	0xbe891ef6	-0.26781434
151	0xbcd9e269	-0.026597219
152	0x3e8704c1	0.26370814
153	0x3ea2852d	0.3174223
154	0xbeb54174	-0.354015
155	0xbeaff0b2	-0.34363323
156	0x3c49718f	0.012295141
157	0x3d9afe2f	0.07568013
158	0xbeb97c9a	-0.36227876
159	0x3cbd7d56	0.023131054
160	0xbe8fbe0c	-0.28074682
161	0x3ea5fb4e	0.32418293
162	0xbf26fa3e	-0.6522559
163	0xbf00087a	-0.50012934
164	0x3f1c04b1	0.6094466
165	0xbf23a81d	-0.63928396
166	0xbf1b9e92	-0.60788834
167	0xbe53c495	-0.20680459
168	0x3dbbd7c0	0.091720104
169	0xbe808156	-0.25098675
170	0x3d57b46f	0.05266231
171	0xbefb18c2	-0.49042326
172	0xbf2849ed	-0.657378
173	0xbe5f7daf	-0.21825288
174	0xbf82bc70	-1.0213757
175	0xbe16c1a8	-0.14722311
176	0xbe5c2627	-0.21498929
177	0x3e0bb518	0.136433
178	0xbfe0c337	-1.7559575
179	0x404e81e6	3.2266784
180	0xbe8d9c7d	-0.27658454
181	0x3e89f88e	0.26947445
182	0xbd47daa4	-0.048792496
183	0xbedb55ad	-0.42838803
184	0x3f152c17	0.582704
185	0x3c8c6750	0.017139107
186	0x39c8cdc3	0.00038300277
187	0xbc9f4fd1	-0.01944724
188	0xbed97283	-0.42470178
189	0x3f093faa	0.5361277
190	0x3dab6e5a	0.08370657
191	0xbdc44546	-0.09583525
192	0x3ee08b9a	0.43856508
193	0xbe6e2e0b	-0.23259751
194	0x3ef92959	0.48664358
195	0xbe9eb325	-0.3099605
196	0x3e6d56ae	0.23177597
197	0xbdc32ac2	-0.0952964
198	0x3ee7a7a3	0.45245084
199	0x3e9b7ed0	0.30370188
200	0xbe5e62d0	-0.21717381
201	0x3f143bf4	0.5790398
202	0x3f18fdd5	0.59762317
203	0x3e71a18e	0.23596784
204	0x3d84b8ce	0.06480561
205	0x3e164aa4	0.1467691
206	0x3f2b4f78	0.66918135
207	0x3eea8b88	0.4580958
208	0x3ed04686	0.40678805
209	0x3d24f7ee	0.040275507
210	0x3fad19ad	1.3523461
211	0xbfd28932	-1.6448119
212	0x3eeb42f5	0.45949522
213	0xbf338a3c	-0.70132804
214	0x3e0971a4	0.13422257
215	0xbea1968e	-0.31560177
216	0xbd021221	-0.03175557
217	0xbee09f64	-0.43871605
218	0xbee12e30	-0.4398055
219	0xbe923285	-0.28554168
220	0xbd00e1ee	-0.031465463
221	0x3e940e7a	0.28917295
222	0x3ced9ce7	0.02900548
223	0xbe97b335	-0.29628912
224	0xbf2d3546	-0.67659414
225	0x3e103911	0.14084269
226	0xbc2b380f	-0.010450377
227	0x3ea46883	0.32110986
228	0xbecedc2d	-0.40402356
229	0x3ec3285f	0.38116738
230	0x3dc177ce	0.09446679
231	0xbe870c1c	-0.26376426
232	0x3e41521f	0.18878983
233	0xbeb5b910	-0.35492754
234	0xbe905461	-0.28189376
235	0x3edb70a2	0.4285937
236	0x3ea845cf	0.3286576
237	0xbde0191b	-0.109422885
238	0xbfc1e717	-1.5148648
239	0xbf0fba8e	-0.56144035
240	0xbe409d34	-0.18809968
241	0xbe2fba93	-0.17161016
242	0xc0008768	-2.0082645
243	0x3fc167bd	1.5109783
244	0xbe40b9ac	-0.18820828
245	0x4001ee0b	2.030154
246	0xbe8837bb	-0.2660502
247	0x3e88c606	0.2671358
248	0xbea8d144	-0.32972157
249	0x3cfc3aef	0.03078982
250	0x3f299c76	0.66254365
251	0x3e0df1d7	0.13861786
252	0x3f18e595	0.59725314
253	0xbdb2b222	-0.087253824
254	0xbf043019	-0.5163589
255	0x3e44d211	0.19220759

fc3.bias f4 [32]
0	0x3e90a069	0.28247383
1	0xbf8c6bba	-1.0970376
2	0xbfc2f036	-1.5229557
3	0xbed3acc2	-0.4134274
4	0xbf1b29c6	-0.60610616
5	0xbf21f8e9	-0.6327043
6	0x3f69b7ca	0.91296065
7	0xbf52cf27	-0.8234734
8	0x3e9b75ce	0.30363315
9	0x3f1e58cd	0.6185425
10	0xbee8efc1	-0.45495418
11	0x3f805744	1.0026631
12	0xbeffc9bd	-0.49958602
13	0x3eafff26	0.3437435
14	0x3f6a4696	0.91513956
15	0x3f3e6a1a	0.7438065
16	0x3e033aea	0.12815443
17	0xbedf168a	-0.43571883
18	0x3fe1d3d2	1.7642767
19	0xbf5af553	-0.85530585
20	0x3dc1dab8	0.094655454
21	0x3f74033b	0.9531743
22	0x3ef2950c	0.4737934
23	0x3eb7156c	0.3575853
24	0x3f327a5e	0.6971797
25	0x3f157992	0.58388627
26	0x3fbcf082	1.4760897
27	0xbf18b204	-0.5964663
28	0x3f5ff239	0.8747898
29	0x3f1c7e43	0.6113016
30	0x3edff0b8	0.4373834
31	0xbf76a4ff	-0.96345514

fc4.weight f4 [31, 32]
0	0x3e83fa22	0.25776774
1	0x3c4342ee	0.011917813
2	0x3ef86ad8	0.48519015
3	0xbeaf7014	-0.34265196
4	0x3e4a205e	0.1973891
5	0xbe43a147	-0.19104491
6	0x3e3cd1a0	0.1843934
7	0x3d8e245e	0.0694053
8	0xbe32121f	-0.17389725
9	0xbe686e4e	-0.22698328
10	0xbd45163b	-0.048116904
11	0x3c78efe7	0.015193916
12	0xbf0495d5	-0.51791126
13	0x3f454370	0.77056026
14	0xbd83290a	-0.06404312
15	0xbe156041	-0.14587499
16	0x3e856a83	0.26057824
17	0x3f1aed3a	0.6051823
18	0xbf3b2848	-0.7310834
19	0x3ea88dad	0.3292059
20	0xbe1bf03b	-0.1522836
21	0x3e279d19	0.16368522
22	0x3e98f309	0.2987292
23	0xbe742168	-0.23840868
24	0xbeb904d0	-0.36136484
25	0x3e2f681e	0.17129561
26	0x3dfc1ed0	0.123105645
27	0x3ddaa846	0.10676627
28	0xbed16a0c	-0.4090122
29	0x3f3e9700	0.7444916
30	0xbf6139e3	-0.87978953
31	0xbe293481	-0.16523935
32	0x3eb5e4f8	0.35526252
33	0x3e10a835	0.14126666
34	0x3e109bd5	0.14121945
35	0xbee85c89	-0.453831
36	0x3d98aa5f	0.07454371
37	0x3ea90e6c	0.33018816
38	0xbc9508e0	-0.018192708
39	0xbdffc738	-0.1248917
40	0x3ed7143d	0.42007628
41	0x3d286f36	0.041121684
42	0xbea31f4d	-0.31859818
43	0xbdbd8808	-0.092544615
44	0x3d89fb06	0.06737332
45	0x3e97cf6f	0.29650447
46	0x39787b5f	0.00023697082
47	0x3e299308	0.16559994
48	0x3e875876	0.26434678
49	0xbed37be0	-0.41305447
50	0x3d3bb893	0.04583032
51	0xbe964a36	-0.29353493
52	0x3ef2d10c	0.47425115
53	0xbe39c9ce	-0.18143389
54	0x3e073f4e	0.13207743
55	0x3f1fec26	0.6246971
56	0x3e1b4ed4	0.1516679
57	0x3dc04449	0.09388024
58	0xbd29205c	-0.041290626
59	0xbf0463ae	-0.517146
60	0x3de86baf	0.11348664
61	0x3ed0e414	0.4079901
62	0x3e84f7af	0.25970218
63	0xbe132898	-0.14370954
64	0x3ead9948	0.33906007
65	0x3ec746c0	0.38921165
66	0xbdb9b12a	-0.090669945
67	0xbed8cf71	-0.42345765
68	0xbd220cd0	-0.039563
69	0x3e8a2f23	0.26989087
70	0x3db2e764	0.087355405
71	0x3d975371	0.07388962
72	0x3edb0006	0.42773455
73	0x3eb046ae	0.34428924
74	0xbe633bdb	-0.22190802
75	0xbea3330e	-0.3187489
76	0x3e35213d	0.1768846
77	0x3d680154	0.05664189
78	0x3d88e982	0.06685163
79	0x3f0f9f7d	0.56102735
80	0x3f12bda0	0.57320595
81	0xbf171c57	-0.5902762
82	0xbdf6e22e	-0.12054859
83	0xbe9ff544	-0.3124181
84	0x3e8ba013	0.27270564
85	0xbb3762fd	-0.0027982586
86	0xbec825e1	-0.390914
87	0x3e41e73c	0.18935865
88	0x3d63ef25	0.055647988
89	0x3e3ddea7	0.18541966
90	0xbe8425ea	-0.25810176
91	0xbe5bccaa	-0.21464792
92	0x3ec42dbe	0.3831615
93	0x3e435141	0.19073965
94	0x3e010bb6	0.12602124
95	0x3e181983	0.14853482
96	0x3eb042a0	0.3442583
97	0xbe000290	-0.12500978
98	0xbd625a5c	-0.055261955
99	0xbf129ecb	-0.5727355
100	0x3ce2d64f	0.02769008
101	0xbdc8372d	-0.09776149
102	0x3eb087b1	0.34478524
103	0xbec979e0	-0.39350796
104	0x3df12457	0.117745094
105	0xbd3619ae	-0.044458084
106	0xbee22c2b	-0.44174322
107	0x3dd4fc0c	0.103996366
108	0xbee43284	-0.4456979
109	0x3e59dcf0	0.21275687
110	0x3e7ef2e7	0.24897347
111	0xbd055373	-0.032550287
112	0x3e6ee8c3	0.23330979
113	0xbf2e8991	-0.6817866
114	0xbe4ca433	-0.19984512
115	0xbe671441	-0.2256632
116	0x3eb8fc10	0.36129808
117	0xbdcc043e	-0.09961747
118	0xbeb270e8	-0.34851766
119	0x3ecb434d	0.39699784
120	0x3db10060	0.0864265
121	0x3eea33d0	0.45742655
122	0xbcfa1945	-0.030529628
123	0xbef291dd	-0.4737691
124	0x3e4ea92a	0.20181718
125	0x3dd29a58	0.10283345
126	0x3e909ad1	0.28243116
127	0xbbd7ec4a	-0.006589447
128	0x3e2b6591	0.16737963
129	0xbea900c0	-0.33008385
130	0xbefb236e	-0.49050468
131	0xbe66d344	-0.22541529
132	0xbe812d43	-0.25229844
133	0x3f076a46	0.52896535
134	0xbc7d2563	-0.015450808
135	0xbe9a50b4	-0.30139697
136	0x3ec288f7	0.3799512
137	0x3e74a759	0.23891963
138	0xbd13f854	-0.036125496
139	0x3d9e0a38	0.07716793
140	0xbe3d2df6	-0.18474564
141	0x3d971210	0.07376492
142	0x3ecd9e0d	0.40159646
143	0x3e9c38e4	0.30512154
144	0x3ea9e1a2	0.33179957
145	0xbe396c70	-0.18107772
146	0x3ec06c1a	0.37582475
147	0xbe8531f8	-0.26014686
148	0x3dfe9405	0.12430576
149	0x3d03f7d7	0.03221878
150	0x3f6ea242	0.93216336
151	0x3e5256dc	0.20540947
152	0x3e957ed7	0.29198334
153	0x3e896af9	0.26839426
154	0x3e71c6c9	0.23610987
155	0xbe67343e	-0.22578523
156	0x3ec58d56	0.38584393
157	0x3e141420	0.14460802
158	0x3cdab168	0.026695922
159	0xbe3210b1	-0.1738918
160	0x3ee6f18c	0.4510616
161	0x3e386ec3	0.18011002
162	0x3e41980f	0.18905662
163	0xbe4ed1b3	-0.20197181
164	0xbda10a7b	-0.07863327
165	0xbe306794	-0.17227012
166	0x3d463ebb	0.04839967
167	0xbc1e4156	-0.009659132
168	0x3efba5af	0.49149844
169	0x3ebb4211	0.36573842
170	0xbeaa08ef	-0.3320994
171	0xbd4b309e	-0.04960691
172	0xbebd105b	-0.3692654
173	0x3e510a1f	0.20414017
174	0x3d8d2e39	0.06893582
175	0x3e119c3a	0.14219752
176	0x3ebfe59e	0.37479872
177	0xbf4da250	-0.80325794
178	0xbe1774e7	-0.14790688
179	0xbe257b6a	-0.1616036
180	0x3f0ae080	0.5424881
181	0xbd42e017	-0.04757699
182	0xbf2edb77	-0.68303627
183	0xbcc7e810	-0.024402648
184	0xbd057073	-0.032577943
185	0x3eb04420	0.34426975
186	0xbd5e842c	-0.054325268
187	0xbe1bf771	-0.1523111
188	0x3ea38c88	0.31943154
189	0xbd0202d7	-0.03174099
190	0x3e5091af	0.20368074
191	0xbe116b98	-0.142012
192	0x3d21dcf5	0.03951736
193	0xbede1a29	-0.43379334
194	0xbee70550	-0.4512124
195	0xbd932da9	-0.07186443
196	0xbe4004cd	-0.18751831
197	0xbeb249e7	-0.34822008
198	0x3eaacd31	0.33359674
199	0xbdd78894	-0.10524097
200	0x3e946044	0.28979695
201	0x3e17b18a	0.1481382
202	0xbe68ce1e	-0.22734877
203	0x3ee3c1ac	0.44483697
204	0xbdc32a3a	-0.095295385
205	0x3dec2fdf	0.11532568
206	0x3ec7d05e	0.3902616
207	0x3e515327	0.20441876
208	0xbddce298	-0.10785407
209	0x3e734f2f	0.23760675
210	0x3ecea868	0.4036286
211	0xbe8208bc	-0.2539729
212	0xbe1386cd	-0.14406891
213	0x3ead97d7	0.33904907
214	0x3fa5304b	1.2905363
215	0x3eb4a978	0.35285544
216	0x3e8424b8	0.25809264
217	0x3e69d9a8	0.22836936
218	0x3eb5f754	0.3554026
219	0xbedd5450	-0.43228388
220	0x3e84cab8	0.25935912
221	0x3e907e13	0.28221187
222	0xbe111bf1	-0.14170815
223	0xbe4fc783	-0.20290951
224	0x3ee1a386	0.4407007
225	0xbb875d4d	-0.0041309954
226	0x3e0df6bb	0.13863651
227	0xbec16f09	-0.37780026
228	0xbde7af69	-0.11312754
229	0x3cc0bfc6	0.023528945
230	0x3df002db	0.11719295
231	0xbe81f7f7	-0.25384495
232	0x3e98f1e1	0.2987204
233	0x3e820a6a	0.2539857
234	0xbec3a8f7	-0.38214847
235	0xbe4c4b0c	-0.19950503
236	0xbea10165	-0.31446376
237	0x3e877b9c	0.26461494
238	0xbc6895ae	-0.014195843
239	0x3c29318b	0.010326753
240	0x3eae2186	0.3400995
241	0xbe92b3cd	-0.28652802
242	0xbe0aab02	-0.13541797
243	0xbe334cfe	-0.17509839
244	0x3eabde4c	0.33568037
245	0x3e8d2755	0.2756907
246	0xbec8c8fc	-0.3921584
247	0x3eefec33	0.46859893
248	0x3ea45fbd	0.32104293
249	0x3e395fa6	0.18102893
250	0xbd1373b7	-0.035999026
251	0xbec8cb3c	-0.39217556
252	0xbdf0c9e2	-0.11757256
253	0x3e47e872	0.19522265
254	0x3f0f98f2	0.5609275
255	0xbe55de8d	-0.20885678

fc4.bias f4 [31]
0	0xc028c74c	-2.637164
1	0xbebba0e4	-0.36646187
2	0xbe86b26d	-0.26308003
3	0xbf0fcff2	-0.56176674
4	0x3f2334ca	0.63752425
5	0xbeb82678	-0.3596685
6	0x3ee202c3	0.44142732
7	0xbe555fc3	-0.20837311
8	0x3ef966ea	0.4871133
9	0x3f4a7b7b	0.79094666
10	0xbe100415	-0.14064057
11	0x3f1ca1e6	0.6118454
12	0x3f1b1c34	0.6058991
13	0xbe7ae00c	-0.2449953
14	0x3f0be177	0.5464091
15	0x3f355733	0.7083618
16	0x3f16456f	0.586997
17	0xbec51889	-0.3849528
18	0x3ee9ee80	0.45689774
19	0x3f0ee4b0	0.558177
20	0x3f0d6d8c	0.5524528
21	0xbc64514a	-0.013935396
22	0x3ed82621	0.4221659
23	0x3f12f7d4	0.57409406
24	0x3f1cec0e	0.6129769
25	0x3f2c4f5c	0.6730859
26	0x3d6479f3	0.055780362
27	0x3eff443c	0.49856746
28	0x3f205abb	0.62638444
29	0x3f1f724b	0.6228377
30	0x3ed0ab27	0.4075558
