MRTAWorld_DQN/PruebaPosiciones/Caso2/DQN_model_4Tasks_Caso2.pth (torch, 12788 bytes, 8 tensors)

fc1.weight f4 [24, 26]
-0.0561462 -0.05865449 0.07513633 -0.14210384 -0.08626283 -0.095024236 -0.052228525 0.06497592
-0.100527 -0.020903908 -0.023930294 -0.04181057 -0.20264661 -0.4327415 -0.029496767 -0.31874666
0.021111771 0.02118398 0.14806765 0.14599662 -0.13297814 0.05456299 -0.06547056 0.016495436
0.13286966 0.18170457 0.035006534 0.04627287 0.088627994 0.07714367 -0.012219277 -0.07332755
0.038390603 0.015447318 -0.07373176 -0.025831895 0.040278688 0.0051647574 1.6455958 -0.1874414
-0.025908267 -0.2281528 -0.59393555 -0.046944678 0.22938691 0.04742253 -0.078464374 0.03731578
0.00022928909 0.015643418 0.041766297 0.034464505 0.07205452 0.011441533 0.058800463 -0.027640745
0.15475 0.18799438 0.12364054 -0.011665441 0.072688155 0.13803133 0.042543862 -0.117363535
-0.20004362 -0.43860826 -0.2132031 -0.057116807 -0.102030456 0.30140865 0.17684653 -0.049444437
-0.029220298 0.1425619 -0.18612894 -0.089287736 -0.29080743 0.036027003 0.0010382389 0.0072318325
0.006815738 -0.0023525646 0.017679295 0.0067751766 -0.019111732 -0.012214936 0.018675467 0.00969745
0.012391006 0.008936309 0.7660478 0.7759615 0.7662875 0.7625443 -0.35578477 -0.57096
-0.103042684 -0.21332596 0.013328421 0.0069718123 0.005334535 0.0105460845 -0.00961239 -0.012256069
-0.12109272 0.002721987 -0.022859648 0.14203766 -0.008283064 -0.029523611 -0.04255825 -0.023731884
0.032609932 0.005163494 0.0391314 0.02840148 -0.25968742 -0.13355568 -0.12378281 -0.35118115
0.13814841 0.29232746 -0.19481641 -0.1465556 0.1675399 -0.050736282 0.018527333 -0.14522754
0.035284676 -0.04260368 0.1309536 0.047224887 0.10865625 0.036313433 0.089171216 -0.051249143
-0.0475032 0.028094804 -0.07483452 -0.10052311 -0.013643339 -0.15515374 -0.003907524 -0.20615889
-0.20302847 -0.0590157 -0.16538824 -0.10632565 0.12530044 -0.14609154 0.063602194 0.23177929
0.19623913 0.20249465 0.17136589 -0.07959254 0.018155308 -0.030530896 -0.15827084 0.09454967
-0.014718525 0.051062632 -0.019730382 -0.09082556 0.10647942 0.0116653135 -0.0785434 -0.099984765
-0.30751368 -0.12140546 -0.44591835 -0.1630324 0.12360434 0.29522905 0.20055284 0.020343546
-0.14849433 -0.11612679 -0.015035006 -0.03596864 -0.049615644 0.19696154 0.01740901 -0.026331766
-0.0010642493 -0.06544113 0.10954755 0.019467399 0.0059002615 0.019864004 0.022676833 0.10666754
-0.043559417 0.029022135 0.84441644 0.12934555 -0.4584096 0.58044434 -0.13421434 0.12176589
-0.43511298 -0.10593483 -0.01978055 0.06173104 0.024758594 -0.062069934 0.018778896 -0.027955638
-0.033158872 0.08549131 -0.022169055 0.09618585 0.01929778 -0.010095115 -0.03983408 0.09810822
0.11291981 0.08181993 -0.08324263 0.057887923 0.11716374 -0.074577205 0.23182641 0.058327883
-0.4871261 -0.41176933 -0.3054426 -0.12934586 0.051508162 -0.0030040876 0.31995407 0.23002006
-0.31194878 0.095934585 -0.01503492 0.027957218 -0.0023282198 -0.007181816 0.050710946 0.032365046
-0.0033711207 0.038176257 0.0012834375 0.021262396 0.0013808548 0.024474936 0.72788155 0.57369506
0.79657054 0.6694591 -0.25142124 -0.06471553 -0.28503987 -0.16882563 0.032943867 0.034703705
00000000: 8ff9 65bd b13f 70bd 14e1 993d ab83 11be
00000010: 91aa b0bd 119c c2bd 94ed 55bd 1812 853d
00000020: 1ae1 cdbd ac3e abbc 7709 c4bc 8f41 2bbd
00000030: 9882 4fbe 4b90 ddbe 34a3 f1bc c332 a3be
00000040: 98f2 ac3c 078a ad3c 0c9f 173e 2380 153e
00000050: 6c2b 08be 717d 5f3d 6e15 86bd 7021 873c
00000060: fc0e 083e c310 3a3e 0363 0f3d 9f88 3d3d
00000070: 9882 b53d 80fd 9d3d 5d33 48bc c12c 96bd
00000080: 773f 1d3d bf16 7d3c ad00 97bd 699d d3bc
00000090: 44fb 243d 203d a93b e2a2 d23f a3f0 3fbe
000000a0: 933d d4bc e3a0 69be 290c 18bf 1049 40bd
000000b0: 67e4 6a3e 203e 423d eeb1 a0bd 6ed8 183d
000000c0: 526d 7039 a026 803c 2313 2b3d a72a 0d3d
000000d0: 5291 933d 4575 3b3c c1d8 703d d86e e2bc
000000e0: c976 1e3e 9981 403e 4037 fd3d 6820 3fbc
000000f0: 87dd 943d 1658 0d3e 7942 2e3d 4b5c f0bd
00000100: 3cd8 4cbe 4391 e0be ea51 5abe 50f3 69bd
00000110: 58f5 d0bd 3c52 9a3e 4217 353e 4086 4abd
00000120: 685f efbc bffb 113e 9698 3ebe 7ddc b6bd
00000130: b6e4 94be 0d91 133d 8415 883a 02f9 ec3b
00000140: 8e56 df3b 7c2d 1abb 2bd4 903c 4d02 de3b
00000150: 3590 9cbc 2821 48bc 4bfd 983c 0ee2 1e3c
00000160: a503 4b3c 9969 123c b51b 443f 6aa5 463f
00000170: 6b2b 443f 1a36 433f 6c29 b6be 6f2a 12bf
00000180: 0b08 d3bd 1f72 5abe 735f 5a3c cd73 e43b
00000190: 53cd ae3b 7cc9 2c3c 497d 1dbc aecd 48bc
000001a0: 76ff f7bd 5d63 323b 2844 bbbc 5272 113e
000001b0: b0b5 07bc 80db f1bc 8f51 2ebd 5e69 c2bc
000001c0: fe91 053d 8732 a93b 3f48 203d 38aa e83c
000001d0: c0f5 84be d2c2 08be d881 fdbd 04ce b3be
000001e0: c776 0d3e f2ab 953e f47d 47be ac12 16be
000001f0: 948f 2b3e d9d0 4fbd a2c6 973c 87b6 14be
00000200: aa86 103d 3281 2ebd b318 063e e26e 413d
00000210: 2b87 de3d 65bd 143d 669f b63d 9fea 51bd
00000220: b792 42bd 1327 e63c d742 99bd 0fdf cdbd
00000230: 5088 5fbc 9fe0 1ebe b00a 80bb 511b 53be
00000240: b2e6 4fbe 72ba 71bd 895b 29be 43c1 d9bd
00000250: c24e 003e 0599 15be de41 823d 8d57 6d3e
00000260: e9f2 483e c25a 4f3e 8a7a 2f3e 6a01 a3bd
00000270: 71ba 943c ee1b fabc c011 22be 42a3 c13d
00000280: f825 71bc 0d27 513d 9ca1 a1bc c002 babd
00000290: e211 da3d df1f 3f3c 5ddb a0bd d0c4 ccbd
000002a0: 6f72 9dbe 6da3 f8bd 694f e4be f7f1 26be
000002b0: 4624 fd3d 4328 973e b95d 4d3e 82a7 a63c
000002c0: e60e 18be e2d3 edbd 6355 76bc da53 13bd
000002d0: c639 4bbd 49b0 493e 579d 8e3c b7b5 d7bc
000002e0: 487e 8bba 0006 86bd 775a e03d 187a 9f3c
000002f0: fb56 c13b d6b9 a23c c4c4 b93c 8374 da3d
00000300: 5c6b 32bd d4bf ed3c ad2b 583f 2973 043e
00000310: aab4 eabe 0098 143f 7c6f 09be 6560 f93d
00000320: 21c7 debe 5cf4 d8bd d20a a2bc b0d9 7c3d
00000330: 89d2 ca3c 0b3d 7ebd 33d6 993c 3903 e5bc
00000340: 99d1 07bd 1116 af3d e19b b5bc 16fd c43d
00000350: 6116 9e3c fb65 25bc 0f29 23bd f6ec c83d
00000360: 8042 e73d 3591 a73d 1d7b aabd e31b 6d3d
00000370: 8bf3 ef3d efbb 98bd e763 6d3e 38e9 6e3d
00000380: 9868 f9be 6ed3 d2be f962 9cbe 3e73 04be
00000390: 39fa 523d 3ae0 44bb 05d1 a33e 618a 6b3e
000003a0: c0b7 9fbe 5a79 c43d 0655 76bc 8906 e53c
000003b0: 0c95 18bb 7055 ebbb 48b6 4f3d 3691 043d
000003c0: 05ee 5cbb b55e 1c3d 0439 a83a 7a2e ae3c
000003d0: ccfd b43a a97f c83c 7256 3a3f aedd 123f
000003e0: 0cec 4b3f ac61 2b3f 49ba 80be 9389 84bd
000003f0: bff0 91be a0e0 2cbe 26f0 063d 7925 0e3d

fc1.bias f4 [24]
1.0945057 -0.05550111 0.90424234 1.2974501 0.7796702 0.82302344 1.03114 -0.26082286
0.8702191 1.2030803 0.93169296 1.5306367 1.0093851 0.8469392 0.85745955 -0.45556822
-0.2864352 -0.10402419 0.98073494 1.0804051 1.0497115 0.9887543 0.025894845 1.0593748
00000000: c318 8c3f 2255 63bd 6d7c 673f d812 a63f
00000010: 7798 473f aab1 523f 65fc 833f 938a 85be
00000020: aec6 5e3f 89fe 993f 6e83 6e3f e7eb c33f
00000030: 8833 813f 02d1 583f 7882 5b3f 3d40 e9be
00000040: a2a7 92be a20a d5bd 7211 7b3f b74a 8a3f
00000050: f25c 863f 001f 7d3f 6d21 d43c 9899 873f

fc2.weight f4 [24, 24]
0.42718777 -0.20932955 0.18453223 1.0766703 0.23243801 0.07850758 0.3671934 -0.4165622
-0.111150585 0.94671017 0.45602393 -0.94126236 0.3314453 0.33111948 0.011965438 -0.623309
-0.8373123 -1.2968804 0.75855935 0.28926232 -0.009275351 0.3552729 -0.45522636 0.38797477
0.8501939 -0.754336 0.35316738 3.376587 0.47157055 0.3905451 0.5235926 -0.048759222
0.62558335 -0.62737817 0.362284 -0.91710985 -0.063306265 0.5385665 1.682025 -0.34416288
0.19588044 -0.010694176 0.097390145 0.2597472 0.47753233 0.26653448 -0.769602 0.12567356
-0.5463163 0.77396405 -0.2860557 -2.634586 -0.3965872 -0.101011135 -0.38061506 0.45351934
-0.32840607 0.04834668 -0.14183964 0.42977396 0.020494226 -0.39239737 -1.1098 0.9339309
0.47368988 0.731211 -0.13094613 -0.1501131 -0.4376237 0.1359374 0.9508889 -0.19021924
-0.35458463 0.76151747 -0.4534665 -1.5408194 -0.034840852 -0.18595557 -0.39815527 0.5418343
0.2449592 -0.71135616 -0.3952703 1.0039445 -0.35021165 -0.064916894 -0.31540644 0.45656294
0.3981336 1.1941453 -0.35091865 -0.117686525 -0.4166428 -0.2000187 0.7705058 -0.5094687
-0.13615003 0.51458764 -0.31916612 -0.48604998 -0.29326862 -0.1225221 -0.6736501 0.3634243
0.14467245 -1.5240552 -0.06442473 1.4363213 -0.8131326 -0.073966235 0.646557 0.26326573
0.7110816 0.22788385 -0.6889693 -0.38289002 -0.6959263 -0.2702772 -0.3746547 -0.6071532
-0.53075373 0.19304076 -0.13825496 -1.8692142 -0.047026966 -0.32847506 -0.1979695 -0.06433497
-0.008130989 -0.38565162 -0.23332062 0.61164045 -0.34019646 -0.2714691 -0.32214442 0.82695913
0.444082 1.262603 -0.7032733 -0.27233213 -0.064283825 -0.29219335 0.8942899 -0.4904028
0.5584378 -0.81348866 0.42498097 1.5644913 0.023877675 0.11631634 0.61549944 -0.43906635
-0.18489471 0.9218148 -0.07196936 -0.97315913 0.4286786 0.20206626 0.17236905 -0.60571456
-0.55583096 -1.076645 0.6014426 0.5884008 0.62205476 0.14050607 -0.74301124 0.43948734
-0.051063754 -1.3098335 -0.011943614 1.7676519 -0.26183906 -0.30323404 0.004818375 -0.7932024
-0.021960441 2.288735 0.017038262 -1.3636098 -0.4738147 -0.19633189 0.054112304 -1.3672271
-0.9288115 -1.4648322 0.11453669 -0.31116846 -0.25839543 0.031129422 -1.5315577 0.14198056
-0.38293687 0.57724893 -0.2750473 -2.0991108 -0.3539428 -0.17998111 -0.23716767 0.066823095
0.27463713 0.19495776 -0.44548592 1.0014952 -0.39980656 -0.6049276 -0.8547281 0.26409003
0.044546206 0.78968817 -0.295575 -0.101985365 -0.14005594 -0.9891197 0.6643529 -0.46632552
0.20978965 -0.4411973 -0.022970287 1.1227161 0.41901487 0.022637796 0.20792584 -0.24547534
-0.2185714 1.5282838 0.08729137 -0.9961478 0.7320244 0.17755558 -0.36155182 -0.52504015
-0.6418441 -0.6982023 0.97052455 0.31906614 0.1435544 0.32973853 -0.2399451 0.66625714
-0.873606 0.7473495 -0.18513596 -2.57589 -0.28746358 -0.650407 -0.16806561 0.29883865
-0.34435683 0.37977368 -0.6629989 0.23925376 -0.15342964 -0.27250704 -1.2387444 1.1036886
00000000: 5bb8 da3e 7c5a 56be 04f6 3c3e 55d0 893f
00000010: 3b04 6e3e 95c8 a03d c600 bc3e a447 d5be
00000020: eba2 e3bd 995b 723f f87b e93e 92f6 70bf
00000030: 33b3 a93e 7e88 a93e af0a 443c 2e91 1fbf
00000040: 195a 56bf 2d00 a6bf f230 423f 311a 943e
00000050: a4f7 17bc 54e6 b53e 6e13 e9be a1a4 c63e
00000060: 4fa6 593f 2a1c 41bf 5bd2 b43e 001a 5840
00000070: b271 f13e 87f5 c73e 2a0a 063f c0b7 47bd
00000080: 3b26 203f db9b 20bf 4a7d b93e b6c7 6abf
00000090: b7a6 81bd 7fdf 093f 984c d73f 1e36 b0be
000000a0: e294 483e a036 2fbc 7c74 c73d 96fd 843e
000000b0: 1e7f f43e 3577 883e a304 45bf 92b0 003e
000000c0: 63db 0bbf 8222 463f e575 92be 0f9d 28c0
000000d0: 7a0d cbbe edde cebd fadf c2be b033 e83e
000000e0: d724 a8be 2b07 463d 693e 11be 550b dc3e
000000f0: 82e3 a73c 4fe8 c8be ed0d 8ebf 1816 6f3f
00000100: 7b87 f23e a530 3b3f be16 06be 40b7 19be
00000110: 3710 e0be 2c33 0b3e 746d 733f d5c8 42be
00000120: 1e8c b5be cff2 423f c32c e8be 9239 c5bf
00000130: 48b5 0ebd 236b 3ebe 02db cbbe a7b5 0a3f
00000140: 96d6 7a3e 701b 36bf de60 cabe 4181 803f
00000150: f14e b3be 26f3 84bd f47c a1be 9ec2 e93e
00000160: 2bd8 cb3e c1d9 983f 9cab b3be a205 f1bd
00000170: 3552 d5be b4d1 4cbe de3f 453f 8a6c 02bf
00000180: ea6a 0bbe 04bc 033f be69 a3be 8bdb f8be
00000190: 4e27 96be deec fabd 5574 2cbf c012 ba3e
000001a0: 0425 143e 3e14 c3bf 1df1 83bd 60d9 b73f
000001b0: 7529 50bf 9c7b 97bd c284 253f c4ca 863e
000001c0: 7209 363f 625a 693e 4b60 30bf 290a c4be
000001d0: 3a28 32bf c661 8abe bed2 bfbe 646e 1bbf
000001e0: 7adf 07bf 7aac 453e b592 0dbe 6942 efbf
000001f0: 599f 40bd e22d a8be 84b8 4abe 0ec2 83bd
00000200: d737 05bc 2174 c5be 9aeb 6ebe 7894 1c3f
00000210: 3b2e aebe fffd 8abe 1df0 a4be 98b3 533f
00000220: b75e e33e fa9c a13f b809 34bf 1e6f 8bbe
00000230: 3da7 83bd 5e9a 95be 2ff0 643f 1316 fbbe
00000240: c8f5 0e3f cb40 50bf 1b97 d93e 4041 c83f
00000250: 1d9b c33c 4337 ee3d 5f91 1d3f 4ecd e0be
00000260: 0a55 3dbe 0efc 6b3f ac64 93bd f520 79bf
00000270: c37b db3e 75ea 4e3e 8381 303e 1c10 1bbf
00000280: f04a 0ebf 81cf 89bf 24f8 193f 6fa1 163f
00000290: fb3e 1f3f d3e0 0f3e fc35 3ebf 7c04 e13e
000002a0: 3a28 51bd a0a8 a7bf 26af 43bc 6b42 e23f
000002b0: c50f 86be 7e41 9bbe 76e3 9d3b 500f 4bbf
000002c0: 62e6 b3bc a27a 1240 d393 8b3c c48a aebf
000002d0: d797 f2be 3a0b 49be dda4 5d3d 4c01 afbf
000002e0: 97c6 6dbf 9f7f bbbf 3692 ea3d 7951 9fbe
000002f0: 684c 84be 2103 ff3c 150a c4bf 5a63 113e
00000300: 4d10 c4be 96c6 133f 00d3 8cbe d557 06c0
00000310: fe37 b5be f84c 38be 15dc 72be 8cda 883d
00000320: 3d9d 8c3e 02a3 473e bb16 e4be ff30 803f
00000330: 72b3 ccbe 89dc 1abf 76cf 5abf cf36 873e
00000340: 1576 363d 0129 4a3f 9b55 97be b4dd d0bd
00000350: d36a 0fbe f336 7dbf 0813 2a3f 38c2 eebe
00000360: 19d3 563e 9de4 e1be 2f2c bcbc 29b5 8f3f
00000370: 1e89 d63e e672 b93c 83ea 543e e35d 7bbe
00000380: 2ed1 5fbe ce9e c33f d1c5 b23d 8b03 7fbf
00000390: f365 3b3f 21d1 353e 521d b9be 0869 06bf
000003a0: e54f 24bf 63bd 32bf 4c74 783f a35c a33e
000003b0: edff 123e 7dd3 a83e 2bb4 75be d48f 2a3f
000003c0: a5a4 5fbf 4c52 3f3f 4894 3dbe 62db 24c0
000003d0: 6d2e 93be 1381 26bf 6419 2cbe 6101 993e
000003e0: 8a4f b0be b271 c23e 4cba 29bf f0fe 743e
000003f0: a91c 1dbe 0b86 8bbe 2d8f 9ebf ab45 8d3f

fc2.bias f4 [24]
0.53191084 1.1467124 -0.91513985 -0.7655211 -0.86864346 -0.8834459 0.8203606 0.464969
-0.7938048 0.7750004 -1.040803 -0.9795953 0.72848433 0.4951437 0.6424309 -0.62936866
0.81737 -0.6749918 -0.8428958 -0.93463266 1.217152 -1.0040127 -0.6870672 -0.7310102
00000000: 4f2b 083f 79c7 923f 9b46 6abf 31f9 43bf
00000010: 6b5f 5ebf 8329 62bf 2703 523f 6b10 ee3e
00000020: cb36 4bbf 6d66 463f 0839 85bf c2c6 7abf
00000030: f37d 3a3f 7a83 fd3e 5a76 243f 4e1e 21bf
00000040: 293f 513f 43cc 2cbf 05c8 57bf 1644 6fbf
00000050: a3cb 9b3f 7d83 80bf a3e3 2fbf 7c23 3bbf

fc3.weight f4 [24, 24]
0.40077546 0.20050998 -0.17223293 -0.17912836 -0.05812596 -0.5229166 0.122138396 0.5694606
-0.69566274 0.25067204 -0.98474234 -0.68984383 -0.045899432 -0.15045956 1.7881118 0.6158762
-0.14611079 0.35187936 -0.4514917 -0.37079117 0.6701961 0.11387605 0.104282066 -0.2612233
-0.23855184 -0.6535529 0.65113896 0.49404702 0.30509067 0.4324745 -0.5555371 0.23887646
0.697925 -0.29636678 0.46519056 0.33164412 -0.7367923 -0.40924922 -0.56339306 0.72325623
-0.4515071 -0.03104012 0.3754202 0.43279293 -0.42125043 0.12757728 0.46914086 0.31582487
-0.309759 0.5050783 -0.56105703 0.16927184 1.0330807 -0.056734256 -0.099481724 -3.2527988
-0.096884765 -0.7280448 -0.59893143 -0.119930245 0.34818715 -0.6542172 -3.7529125 0.36813846
-0.63493204 1.8545125 0.035519537 -0.004857495 0.21159369 1.3513448 0.1604046 -0.32943255
0.4576921 1.3590704 -1.1013405 -0.55110735 0.16711776 -0.7986554 0.61167645 -3.7623968
-1.0850638 0.4235627 -0.7413244 -0.61729455 0.23557344 0.63941455 -3.8175328 0.20652176
0.3726324 1.1507239 -0.39306954 -0.44557938 0.9475602 0.7959764 -0.7423975 -0.110192716
-0.4454775 -0.18769138 0.21389243 0.17026417 0.38365912 0.5135739 -0.45865723 -1.2666674
0.33660153 -0.17432271 0.60697985 0.3690902 -0.79268193 -0.08844537 -2.2471707 1.0507435
-0.45234755 0.25742003 0.35054874 0.3890188 -0.21260263 0.8743026 0.039501972 0.48235175
-0.1392508 -0.99637574 0.7714494 0.3368256 0.09965747 0.3229508 -0.35944358 2.1132433
0.08833266 0.043233965 0.81144446 0.20764183 -1.1466544 -0.5087829 1.6781591 1.2602478
0.2161449 -0.8387078 0.26390427 0.2498528 -0.48679817 0.06669766 0.4317598 0.8086359
-0.19103359 -0.37612715 0.034965042 0.44465098 0.6514256 0.46994588 -0.5067976 -0.99861354
0.74015117 -0.5604389 -0.15977436 0.24969833 0.90430754 -0.9195183 -1.4686589 -0.8911703
-0.42154285 0.38763788 0.21449214 0.37639913 -0.29066887 -0.3117994 0.29354644 -0.48491678
0.42157182 0.17481276 -0.17866729 -0.14116485 0.011491611 -0.5801643 0.34554127 1.6643567
-0.23098819 0.29848444 -0.4883451 -0.11949054 0.33278427 0.08382448 1.9877877 -0.39435855
0.13038257 -0.3073756 -0.15667109 -0.28390822 0.20352457 -0.43234017 0.06571267 -0.16743302
0.35094467 -0.32847553 0.32167268 0.008328553 -0.78628004 0.10443385 0.20393072 2.3105488
-0.0914873 0.4013693 0.40570292 -0.20440312 -0.1973267 0.25022706 2.6315005 0.014950332
0.5543398 -0.71631485 -0.089494854 -0.03854253 -0.054284878 -0.44684333 -0.13893142 0.42956412
0.56155264 0.9422015 -0.92204976 -0.8233925 -0.05621028 -0.5764477 0.63777184 -1.3132013
-0.667215 -0.07405898 -0.9350204 -0.4499928 1.0323111 0.38414758 -0.38850084 -0.7971573
0.31247076 0.122460425 -0.4781977 -0.5277465 0.5184134 0.076365404 -0.2942837 -0.5109055
0.08444879 0.9796101 -1.0655633 -0.4213512 -0.40009892 -0.32499313 0.7128494 -1.046559
-0.43209857 0.2824997 -0.55911386 -0.4165676 1.1812752 0.31697303 -0.6112373 -1.3457431
00000000: 7132 cd3e 7d52 4d3e d45d 30be 6d6d 37be
00000010: 7d15 6ebd dddd 05bf b223 fa3d 2bc8 113f
00000020: f416 32bf 1658 803e 1318 7cbf 9b99 30bf
00000030: 0b01 3cbd 1212 1abe d9e0 e43f 10aa 1d3f
00000040: 119e 15be 8829 b43e ec29 e7be 57d8 bdbe
00000050: f991 2b3f d937 e93d d691 d53d 0fbf 85be
00000060: ef46 74be 3e4f 27bf 0bb1 263f bbf3 fc3e
00000070: d834 9c3e 4c6d dd3e ae37 0ebf 089c 743e
00000080: 36ab 323f 63bd 97be 752d ee3e 42cd a93e
00000090: 6c9e 3cbf 1d89 d1be 873a 10bf 5227 393f
000000a0: f02b e7be da47 febc 1437 c03e 0997 dd3e
000000b0: 23ae d7be 9ea3 023e 3b33 f03e ccb3 a13e
000000c0: bb98 9ebe d04c 013f 6fa1 0fbf 9955 2d3e
000000d0: fd3b 843f 2e62 68bd 13bd cbbd db2d 50c0
000000e0: 856b c6bd 2561 3abf 9253 19bf fd9d f5bd
000000f0: 9645 b23e c77a 27bf b82f 70c0 a57c bc3e
00000100: e88a 22bf aa60 ed3f ef7c 113d 9f2b 9fbb
00000110: 04ac 583e def8 ac3f 1a41 243e 62ab a8be
00000120: 9e56 ea3e 05f6 ad3f baf8 8cbf 5f15 0dbf
00000130: eb20 2b3e ae74 4cbf d496 1c3f 1ccb 70c0
00000140: 5fe3 8abf 36dd d83e 70c7 3dbf 0407 1ebf
00000150: 2a3a 713e acb0 233f 7552 74c0 717a 533e
00000160: adc9 be3e ec4a 933f 6940 c9be fb22 e4be
00000170: 4e93 723f 1cc5 4b3f c30d 3ebf b8ac e1bd
00000180: a015 e4be 2b32 40be 9e06 5b3e bb59 2e3e
00000190: f86e c43e 9479 033f 1fd5 eabe 2822 a2bf
000001a0: 0957 ac3e a781 32be 0863 1b3f 64f9 bc3e
000001b0: 34ed 4abf d922 b5bd a5d1 0fc0 c37e 863f
000001c0: 199a e7be 8fcc 833e 207b b33e 792d c73e
000001d0: 81b4 59be 4cd2 5f3f d2cc 213d cff6 f63e
000001e0: c397 0ebe 7b12 7fbf b57d 453f 6874 ac3e
000001f0: 3719 cc3d cf59 a53e fd08 b8be 613f 0740
00000200: c1e7 b43d 1916 313d d3ba 4f3f 0fa0 543e
00000210: 92c5 92bf 993f 02bf ebcd d63f cd4f a13f
00000220: 1755 5d3e 8eb5 56bf 761e 873e 6ad9 7f3e
00000230: 9c3d f9be c898 883d 9f0f dd3e c302 4f3f
00000240: 4f9e 43be bd93 c0be 8137 0f3d 4ba9 e33e
00000250: d4c3 263f bf9c f03e 7dbd 01bf 23a5 7fbf
00000260: 8c7a 3d3f ec78 0fbf e49b 23be ebb0 7f3e
00000270: b380 673f 8d65 6bbf 04fd bbbf bd23 64bf
00000280: 77d4 d7be 7978 c63e d4a3 5b3e 63b7 c03e
00000290: 8dd2 94be 2ca4 9fbe b84b 963e 0347 f8be
000002a0: 43d8 d73e 1e02 333e 8ff4 36be 858d 10be
000002b0: 4f47 3c3c a685 14bf c9ea b03e a409 d53f
000002c0: 2b88 6cbe f4d2 983e 5e08 fabe 75b7 f4bd
000002d0: b362 aa3e 2bac ab3d d46f fe3f 5de9 c9be
000002e0: 0283 053e 5660 9dbe 636e 20be 6b5c 91be
000002f0: bf68 503e b15b ddbe 5d94 863d 9073 2bbe
00000300: 05af b33e f22d a8be 48b2 a43e 7c74 083c
00000310: a649 49bf 6ae1 d53d 37d3 503e 08e0 1340
00000320: b25d bbbd 4780 cd3e 4bb8 cf3e 0d4f 51be
00000330: 0310 4abe c31d 803e 816a 2840 3df2 743c
00000340: 37e9 0d3f 6960 37bf 1449 b7bd c6de 1dbd
00000350: d259 5ebd a6c8 e4be 0a44 0ebe d4ef db3e
00000360: eac1 0f3f 1e34 713f 740b 6cbf dac9 52bf
00000370: c03c 66bd 1492 13bf 0445 233f fb16 a8bf
00000380: 9ace 2abf 3cac 97bd 7f5d 6fbf 7565 e6be
00000390: c522 843f feae c43e 95e9 c6be 8012 4cbf
000003a0: 2bfc 9f3e 88cc fa3d 54d6 f4be 651a 07bf
000003b0: beb6 043f 7765 9c3d 5aac 96be b4ca 02bf
000003c0: 7df3 ac3d bac7 7a3f 6164 88bf 58bb d7be
000003d0: c4d9 ccbe 8065 a6be 4c7d 363f a5f5 85bf
000003e0: 063c ddbe cda3 903e 1622 0fbf 5948 d5be
000003f0: 0734 973f 4a4a a23e 0c7a 1cbf 4f41 acbf

fc3.bias f4 [24]
1.0572299 -0.92750126 0.5318662 1.0833751 -0.74136233 -0.8172782 0.25317052 0.6833368
0.44568828 1.1076937 1.19611 0.93974996 1.1974447 -1.1402353 0.9903724 0.22902258
0.15681243 -0.21024351 -0.11834863 -1.3340632 0.8993264 -0.86388767 -1.8600887 -0.05983336
00000000: 4f53 873f b970 6dbf 6228 083f 09ac 8a3f
00000010: ecc9 3dbf 2539 51bf 919f 813e 29ef 2e3f
00000020: 4131 e43e e8c8 8d3f 221a 993f 7493 703f
00000030: de45 993f 3bf3 91bf 0c89 7d3f e584 6a3e
00000040: 7093 203e 134a 57be c460 f2bd 95c2 aabf
00000050: 413a 663f be27 5dbf 6317 eebf d313 75bd

fc4.weight f4 [21, 24]
-0.8520886 -0.18636827 -0.30635902 0.7421155 0.4389106 0.0064367494 -0.70620465 -0.43560266
-0.116563074 0.01152933 -0.070110835 -0.30340856 -0.10721216 0.32698607 -0.5382913 0.26831582
0.107912324 -0.116440095 0.32111627 -0.020471025 0.16694285 0.2033436 0.2849442 -0.17879073
0.1497547 0.03319038 -0.6280161 -0.113871194 -0.15067689 0.014774377 -0.52534914 0.34925884
0.5310473 -0.0634948 0.19283539 -0.11966364 0.07989921 -0.33228922 0.34533548 0.61836785
0.040958222 -0.50049657 0.49003273 -0.11884954 0.3815645 -0.23448637 -0.031162111 0.26805428
-0.084752694 -0.1830762 -0.29856244 -0.17626075 -0.37310374 -0.32074842 0.10649473 0.17285281
0.36486486 0.31183958 0.2866404 0.07942275 0.15928455 0.09642991 0.23850158 0.11620786
0.6242554 -0.907778 0.40477458 0.013804797 0.21052028 -0.07701056 0.08436118 0.53789645
0.36757508 -0.25565153 -0.8826473 -0.032724917 -0.16505846 0.18593852 -0.4247935 0.15846857
0.46971166 0.25747597 -0.080877446 0.14332019 -0.11428211 -0.3383662 0.116957285 0.7013759
0.18897852 -0.279481 0.48648056 0.10744839 0.13403474 -0.12735623 0.018555386 0.68477887
0.37478977 -0.1613591 0.3637764 0.48606083 -0.35236338 -0.38830316 -0.051031824 0.005078997
-0.21981345 0.43245676 0.43725386 0.45632637 0.33120173 -0.34512988 0.3178871 0.28024888
0.12783794 0.10668735 0.13432114 -0.51572466 0.34234768 -0.4150682 -0.31213117 0.029962623
0.09009249 -0.0826693 -0.59382105 -0.22804435 -0.5864782 0.06357265 0.08167417 0.14731154
0.38385537 0.30319268 0.15832163 -0.026727634 0.1982186 -0.23046899 0.0073336354 0.28370067
0.781095 -0.7696232 0.40815148 0.28736362 0.26762328 -0.20422341 0.10644479 0.74110746
0.035029504 -0.37635797 0.21810248 0.5358135 -0.38405618 -0.30865446 0.08394605 0.13043025
-0.039015893 0.3799965 0.417804 0.35557213 0.5157477 -0.030464087 0.32308877 0.3291611
-0.011778161 -0.059445817 0.06932391 -0.23509893 0.35421476 -0.043016933 -0.34565532 0.2133516
0.21030863 -0.18514907 -0.8804866 0.15746215 -0.27364355 0.090286106 -0.46505573 0.14463346
0.5465206 -0.17300664 -0.1122173 0.15274733 0.054270525 -0.3369157 0.35836697 0.6475268
0.32249528 -0.42727745 0.51736313 0.09007013 0.13071673 -0.36946505 -0.17110887 0.5524592
0.17847931 -0.46024254 0.2123841 0.5920215 -0.28423518 -0.47930315 -0.33237338 0.06922504
0.08360724 0.33385617 0.36518806 0.36067304 0.3978818 -0.12050141 0.18748298 0.040004484
0.19413665 0.18852676 0.3106277 -0.44641423 0.50771636 -0.184544 -0.47931114 -0.13951981
0.26703063 -0.514524 0.37426594 0.59120536 -0.28783596 -0.43967646 -0.1727781 0.2250801
0.09735568 0.6121478 0.31376585 0.35344446 0.350971 -0.40921924 0.16886792 0.1144808
0.089567035 0.09917641 0.09661069 -0.53186363 0.32106304 -0.4304291 -0.4823433 -0.0125556225
0.09380248 -0.3543362 -0.84145856 -0.06715535 -0.23311745 -0.17847402 -0.118870236 0.15342997
0.5227502 0.041781295 0.3431044 0.30469936 -0.10707253 -0.098063126 0.052379396 0.28837395
00000000: 7a22 5abf 53d7 3ebe 17db 9cbe 48fb 3d3f
00000010: e4b8 e03e 5eeb d23b d4c9 34bf 5007 dfbe
00000020: 9fb8 eebd 84e5 3c3c 4596 8fbd 5e58 9bbe
00000030: 0d92 dbbd b86a a73e 75cd 09bf b160 893e
00000040: 2301 dd3d 2578 eebd 5a69 a43e dab2 a7bc
00000050: 11f3 2a3e 4e39 503e 35e4 913e eb14 37be
00000060: 4c59 193e a3f2 073d aac5 20bf 4d35 e9bd
00000070: 0b4b 1abe 3b10 723c 487d 06bf 0ed2 b23e
00000080: b7f2 073f 9009 82bd a476 453e 3612 f5bd
00000090: 32a2 a33d d021 aabe d0cf b03e 5b4d 1e3f
000000a0: cfc3 273d 8b20 00bf 92e5 fa3e 6367 f3bd
000000b0: 6c5c c33e 321d 70be af47 ffbc 693e 893e
000000c0: d292 adbd 5478 3bbe 2ddd 98be b37d 34be
000000d0: 7407 bfbe 2339 a4be e919 da3d 5400 313e
000000e0: 91cf ba3e 70a9 9f3e 88c2 923e 65a8 a23d
000000f0: 7d1b 233e 0b7d c53d c239 743e 63fe ed3d
00000100: 34cf 1f3f 2464 68bf 9d3e cf3e 842d 623c
00000110: a192 573e b6b7 9dbd 8ec5 ac3d 95b3 093f
00000120: cd32 bc3e c2e4 82be 2cf5 61bf 900a 06bd
00000130: 1605 29be ab66 3e3e 897e d9be 9645 223e
00000140: 0c7e f03e e4d3 833e 13a3 a5bd 87c2 123e
00000150: bd0c eabd 563e adbe 4d87 ef3d 5f8d 333f
00000160: 9683 413e 2218 8fbe fb13 f93e e70d dc3d
00000170: 6740 093e ac69 02be 7701 983c ab4d 2f3f
00000180: 72e4 bf3e 523b 25be e640 ba3e f7dc f83e
00000190: f968 b4be accf c6be bf06 51bd b76d a63b
000001a0: c716 61be f96a dd3e bddf df3e 9ca3 e93e
000001b0: 4693 a93e ddb4 b0be 19c2 a23e c87c 8f3e
000001c0: f3e7 023e e67e da3d 7b8b 093e 8806 04bf
000001d0: 3248 af3e d283 d4be a8cf 9fbe 2d74 f53c
000001e0: 6982 b83d 864e a9bd a804 18bf 7584 69be
000001f0: 6f23 16bf 6132 823d ca44 a73d d6d8 163e
00000200: b188 c43e 123c 9b3e 111f 223e e9f3 dabc
00000210: d1f9 4a3e 1000 6cbe fe4e f03b 3741 913e
00000220: d8f5 473f 0706 45bf 3bf9 d03e 5321 933e
00000230: eb05 893e f11f 51be baff d93d 38b9 3d3f
00000240: 197b 0f3d feb1 c0be 4256 5f3e 132b 093f
00000250: 03a3 c4be f507 9ebe e8eb ab3d 828f 053e
00000260: 21cf 1fbd e78e c23e 68ea d53e 8d0d b63e
00000270: 0b08 043f d28f f9bc e46b a53e ce87 a83e
00000280: 30f9 40bc 757d 73bd b2f9 8d3d c6bd 70be
00000290: a35b b53e 8632 30bd bcf9 b0be d878 5a3e
000002a0: 255b 573e b897 3dbe 9267 61bf c23d 213e
000002b0: 021b 8cbe ece7 b83d c91b eebe cb1a 143e
000002c0: c6e8 0b3f a728 31be 2fd2 e5bd cc69 1c3e
000002d0: c54a 5e3d 3780 acbe e07b b73e 51c4 253f
000002e0: 1a1e a53e 1cc4 dabe e971 043f b076 b83d
000002f0: 9bda 053e 862a bdbe 2a37 2fbe f76d 0d3f
00000300: 48c3 363e e9a4 ebbe 387b 593e b98e 173f
00000310: 4687 91be 3967 f5be d82c aabe dcc5 8d3d
00000320: 463a ab3d 32ef aa3e eef9 ba3e 23aa b83e
00000330: 2ab7 cb3e 71c9 f6bd 8afb 3f3e bedb 233d
00000340: c2cb 463e 290d 413e 980a 9f3e 6890 e4be
00000350: b3f9 013f 1af9 3cbe 4568 f5be 48de 0ebe
00000360: 3db8 883e d8b7 03bf c99f bf3e 3c59 173f
00000370: 3c5f 93be 461d e1be beec 30be 667b 663e
00000380: 6a62 c73d b8b5 1c3f eba5 a03e acf6 b43e
00000390: 79b2 b33e 2f85 d1be b6eb 2c3e e974 ea3d
000003a0: ec6e b73d 001d cb3d d3db c53d 3728 08bf
000003b0: 6062 a43e 3461 dcbe b3f5 f6be 19b6 4dbc
000003c0: 841b c03d 8e6b b5be d469 57bf bf88 89bd
000003d0: 57b6 6ebe e5c1 36be 3d72 f3bd bf1c 1d3e
000003e0: f5d2 053f dd22 2b3d 61ab af3e 8e01 9c3e
000003f0: d848 dbbd 52d5 c8bd c78b 563d c0a5 933e

fc4.bias f4 [21]
-1.7021849 -0.11295866 -0.5788938 -0.35460663 0.7443413 -0.46344128 0.73018426 -0.5626579
0.8619401 0.7456768 -0.5346422 0.8928794 0.8496868 -0.4841447 0.9878381 1.0985947
0.86495644 -0.1318054 0.80931723 0.9842176 1.2774365
00000000: 32e1 d9bf df56 e7bd 6232 14bf 008f b5be
00000010: 278d 3e3f 2d48 edbe 5bed 3a3f 590a 10bf
00000020: 1ba8 5c3f ade4 3e3f 50de 08bf bf93 643f
00000030: 1385 593f d0e1 f7be f5e2 7c3f c09e 8c3f
00000040: c96d 5d3f fff7 06be 6a2f 4f3f aff5 7b3f
00000050: 0a83 a33f
