MRTAWorld_DQN/PruebasDef/PruebaDef2/DQN_model_2Tasks_CasoX.pth (torch, 6004 bytes, 8 tensors)

fc1.weight f4 [16, 2]
0	0xbd816d89	-0.0631972
1	0xbf24c5c9	-0.64364296
2	0xbf61ee84	-0.8825457
3	0x3f8409ab	1.031545
4	0x3e2e0a93	0.16996221
5	0xbee56bdb	-0.4480885
6	0xbeca0ca6	-0.39462775
7	0xbf1b369b	-0.60630196
8	0xbc26381d	-0.010145214
9	0xc004aef1	-2.0731776
10	0xbfd0f31e	-1.6324193
11	0x3c4dddcd	0.012565088
12	0xbf1e3c0f	-0.6181039
13	0x3e98c199	0.29835203
14	0xbf97040a	-1.1798108
15	0x3e1178c4	0.14206225
16	0x3dab8bf3	0.083763026
17	0xc005ddf6	-2.0916724
18	0xbfd09e72	-1.6298354
19	0x3c6ab0b8	0.01432436
20	0xbf02258a	-0.5083853
21	0xbe9262e6	-0.2859108
22	0xbd5ef7c6	-0.054435514
23	0xbedf278a	-0.43584853
24	0x3f1f2f1c	0.6218126
25	0xbf1735ba	-0.59066355
26	0xbe3c4288	-0.18384755
27	0xbf06aaa3	-0.5260412
28	0x3f97f2f7	1.1871022
29	0x3f375bf7	0.716247
30	0x3e7b4496	0.24537882
31	0x3f8d1dfe	1.1024778

fc1.bias f4 [16]
0	0x3f8d9ba9	1.1063129
1	0x40296cd9	2.6472685
2	0x3fb38493	1.4024833
3	0x3fe671de	1.80035
4	0xbfd53d53	-1.665934
5	0xbfa7aa2b	-1.3098806
6	0x3fd3d167	1.654828
7	0xbf5ef94a	-0.87099135
8	0xbfe036ae	-1.7516687
9	0xbfa787aa	-1.3088276
10	0x3f21cb30	0.63200665
11	0x3f7b006c	0.9804752
12	0x3fb74095	1.4316584
13	0x3f9e360c	1.2360244
14	0x3fe0fd12	1.7577231
15	0x403eea44	2.9830484

fc2.weight f4 [16, 16]
0	0x3edcca28	0.43122983
1	0x3e03ff37	0.12890325
2	0x3e141e64	0.14464718
3	0x3df99a40	0.12187624
4	0xc0a3f8b4	-5.1241093
5	0xc0651500	-3.5794067
6	0x3ea6fd72	0.32615238
7	0xbf0d4806	-0.55188024
8	0xc0ba8fd8	-5.830059
9	0xc0796b9e	-3.8971934
10	0x3f1d2a9b	0.61393136
11	0x3ed7ee1c	0.4217385
12	0xbe853376	-0.26015824
13	0x3ee29c77	0.44259998
14	0xbf91b5fc	-1.1383662
15	0xbd47a5f9	-0.04874227
16	0x3fdd44b5	1.7286593
17	0x3f67f8b0	0.9061384
18	0x3fb6e936	1.428992
19	0x3f88cc09	1.0687267
20	0xc02f98e2	-2.7437062
21	0xc0005b7a	-2.0055833
22	0x3f58d675	0.84702235
23	0x3f57c945	0.8429149
24	0xbf73f044	-0.9528849
25	0xc0084a56	-2.129537
26	0x3f0b48dc	0.5440805
27	0x3fa86c7f	1.315811
28	0x3fcd6398	1.6046019
29	0x3fa94688	1.322465
30	0x3f55bda6	0.83492506
31	0x3f7aece4	0.98017716
32	0x3ed1b32e	0.40957016
33	0x3e7bc589	0.24587072
34	0x3dfa3340	0.122168064
35	0x3e9ce370	0.3064227
36	0xc098d6fc	-4.776243
37	0xc0650e80	-3.57901
38	0x3e2d1171	0.16901185
39	0xbf267dfd	-0.6503599
40	0xc0be1b8f	-5.940864
41	0xc08cc724	-4.399309
42	0x3f26dcc6	0.65180624
43	0x3e8ea2d3	0.278586
44	0x3de6b894	0.11265674
45	0x3e960eee	0.29308265
46	0xbefd64a7	-0.49490854
47	0xbeb63867	-0.35589907
48	0xbf804578	-1.00212
49	0xbeba7c97	-0.3642318
50	0xbf10e02a	-0.5659205
51	0xbedc27c0	-0.42999077
52	0x405239aa	3.2847695
53	0x405a957f	3.4153745
54	0xbebf2880	-0.37335587
55	0x3f31383d	0.6922644
56	0x403c2785	2.939912
57	0x40651e22	3.5799642
58	0xbeecc60b	-0.46244845
59	0xbf8d834f	-1.1055697
60	0xbf7ffc63	-0.99994487
61	0xbef80655	-0.4844233
62	0xbec0b188	-0.37635446
63	0xbe0837f9	-0.13302602
64	0xbf5f195c	-0.8714807
65	0xbf328bfe	-0.6974486
66	0xbf6d2c4c	-0.92645717
67	0xbf82914a	-1.0200589
68	0x404ad62f	3.1693227
69	0x400907b7	2.1410959
70	0xbf6fedea	-0.93722403
71	0xbf695d22	-0.91157734
72	0x4023921b	2.5557926
73	0x4025f7e0	2.593254
74	0xbf3a2862	-0.7271787
75	0xbf42935a	-0.7600609
76	0xbf4960cd	-0.7866333
77	0xbf4314c8	-0.76203585
78	0xbe9627e9	-0.29327324
79	0xbf5250ab	-0.8215434
80	0x3f94ccb5	1.1624972
81	0x3e4e91d1	0.20172812
82	0x3eadb4a4	0.3392688
83	0x3e903eab	0.28172812
84	0xc064d993	-3.5757797
85	0xc05a1b7d	-3.4079278
86	0x3cd3bf68	0.025848106
87	0xbf44b48e	-0.76838005
88	0xc040f1c9	-3.0147574
89	0xc0761709	-3.845156
90	0x3eb64f16	0.35607213
91	0x3f49b5d3	0.78793067
92	0x3f8b549e	1.0885198
93	0x3e8e8b74	0.2784077
94	0xbe219d06	-0.15782556
95	0x3dd31fcf	0.103088014
96	0x3e8f6acb	0.28011164
97	0x3f406f0b	0.7516944
98	0x3f1b3328	0.60624933
99	0x3f3dacf1	0.7409201
100	0x407cad65	3.9480832
101	0x40509c75	3.2595494
102	0x3f0f2459	0.5591484
103	0x3fbccc85	1.4749914
104	0x4095f17b	4.6857276
105	0x404f281a	3.2368226
106	0xbea8414c	-0.32862318
107	0x3e19c579	0.15016736
108	0x3e513cb9	0.2043332
109	0x3e8878f9	0.26654795
110	0x3f89226e	1.0713632
111	0x3f9bdd36	1.2176883
112	0x3e1e6bd1	0.15470816
113	0x3f49cd7d	0.78829175
114	0x3f320cf2	0.69551
115	0x3f3532e1	0.7078076
116	0x406fac33	3.7448852
117	0x40409fb4	3.0097475
118	0x3eeddf64	0.46459496
119	0x3f9cdb3b	1.2254404
120	0x4098bdfd	4.773192
121	0x40534b52	3.3014722
122	0xbe1ac709	-0.15114988
123	0x3e504d55	0.20342
124	0x3f17ed69	0.59346634
125	0x3f282167	0.6567597
126	0x3fb2b007	1.3959969
127	0x3fb87836	1.4411685
128	0x3edcf2ad	0.43153897
129	0x3e03b1aa	0.12860742
130	0x3f1f5720	0.6224232
131	0x3f0ecf44	0.5578501
132	0xc0723dc0	-3.785019
133	0xc06cef6a	-3.7021127
134	0x3eed9aaf	0.46407077
135	0xbd1ec922	-0.038766034
136	0xc0570d84	-3.3602
137	0xc081218b	-4.0353446
138	0x3eb6ff86	0.35741824
139	0x3f56f076	0.83960664
140	0x3f3c87f7	0.73644966
141	0x3ec482ea	0.3838113
142	0x3cd97bb1	0.026548238
143	0x3e38edd9	0.18059482
144	0xbfde7990	-1.7380848
145	0xbfffae3f	-1.9975051
146	0xbfb40a9a	-1.4065735
147	0xbfea8439	-1.8321601
148	0x400582f7	2.0861185
149	0xbe2f931d	-0.17145963
150	0xbfecca96	-1.8499324
151	0xbfe0bb5c	-1.7557178
152	0x3dc05ab4	0.093923
153	0xbe7667f8	-0.24063098
154	0xbf10cee3	-0.56565684
155	0xbfcfe680	-1.6242218
156	0xbfe23c23	-1.7674602
157	0xbfa7718b	-1.3081526
158	0xbfbd209c	-1.4775577
159	0xc0105d54	-2.2556963
160	0x3fa7e93c	1.3118052
161	0x3f729d1c	0.9477098
162	0x3f8fa8f4	1.1223435
163	0x3fb0e5c9	1.3820125
164	0xc02b2917	-2.674383
165	0xbff15fca	-1.8857358
166	0x3f9c10e5	1.2192656
167	0x3fc08283	1.5039829
168	0xbfd1d8f1	-1.639433
169	0xbfd4b414	-1.6617455
170	0x3ef38fcc	0.47570646
171	0x3f8ef962	1.1169856
172	0x3f9023ce	1.1260927
173	0x3f8580ab	1.0429891
174	0x3f1da2cb	0.6157653
175	0x3f850d0b	1.0394605
176	0x3f72fb19	0.94914395
177	0x3f848f35	1.0356203
178	0x3f2d761a	0.67758334
179	0x3f79cafe	0.97575366
180	0xc04fe7b5	-3.2485173
181	0xc00820f7	-2.127012
182	0x3f27bbd5	0.65520984
183	0x3f7d1f12	0.98875535
184	0xc00bf464	-2.1867914
185	0xc02bc0ba	-2.683638
186	0x3f3c775d	0.73619634
187	0x3f3a7393	0.728326
188	0x3f7dfa7e	0.99210346
189	0x3f053b6d	0.520438
190	0x3e76093e	0.24026963
191	0x3f515cee	0.81782424
192	0x3f8059f8	1.0027456
193	0x3ec36f6c	0.38170946
194	0x3f1b4045	0.6064494
195	0x3f6a714e	0.9157914
196	0xc05879cf	-3.3824346
197	0xc04362ce	-3.0529056
198	0x3f1b1602	0.60580456
199	0x3dda2cc1	0.106530674
200	0xc02fff20	-2.7499466
201	0xc046e383	-3.1076362
202	0x3efebded	0.49754277
203	0x3f914be7	1.1351289
204	0x3f185c46	0.595158
205	0x3efaa333	0.48952636
206	0x3eb1e2a7	0.34743235
207	0x3f10e655	0.5660146
208	0x3f29f14f	0.6638383
209	0x3f657ee3	0.8964674
210	0x3f574c72	0.8410102
211	0x3f96e528	1.1788683
212	0xc04f284f	-3.2368352
213	0xc0068fc2	-2.1025243
214	0x3f81f11b	1.0151705
215	0x3f92a22d	1.1455742
216	0xc0320a1c	-2.781867
217	0xc02bcaf1	-2.6842616
218	0x3f34c915	0.70619327
219	0x3f88ca9c	1.0686831
220	0x3f4e4656	0.80576074
221	0x3f5176ab	0.818217
222	0x3ef53ae4	0.47896492
223	0x3f393bbd	0.7235678
224	0x3f80458d	1.0021225
225	0x3f3eebcb	0.7457854
226	0x3f3a80a5	0.72852546
227	0x3f52178e	0.8206719
228	0xc0503dd9	-3.253775
229	0xc021218f	-2.5176733
230	0x3ebbf438	0.36709762
231	0x3f382b07	0.71940655
232	0xc0510b90	-3.2663307
233	0xc0491815	-3.1420949
234	0x3ead6076	0.33862656
235	0x3f214eea	0.6301104
236	0x3f1a4e6c	0.6027591
237	0x3f13fd6f	0.57808584
238	0xbe8154e4	-0.2526008
239	0x3f102340	0.5630379
240	0x3f86c491	1.0528737
241	0x3f1ddc7f	0.61664575
242	0x3f693309	0.910935
243	0x3f80d772	1.0065749
244	0xc04782e4	-3.117364
245	0xc02bd1c3	-2.6846778
246	0x3f13621e	0.5757159
247	0x3f255b20	0.6459217
248	0xc02f3439	-2.7375624
249	0xc03be2e7	-2.935724
250	0x3f34b774	0.7059243
251	0x3f2d16b2	0.67612755
252	0x3f8601ce	1.0469301
253	0x3f2b155f	0.66829485
254	0x3e9b83fe	0.3037414
255	0x3f212e47	0.6296124

fc2.bias f4 [16]
0	0xbedcb806	-0.4310915
1	0x3fb3c80d	1.4045426
2	0xbefa693f	-0.4890842
3	0xbeb8a60c	-0.36064184
4	0xbf13f2b3	-0.57792205
5	0x3e2cb47e	0.16865727
6	0x3f8c4259	1.0957748
7	0x3fa880e7	1.3164338
8	0xbc946a30	-0.01811704
9	0xc00901ca	-2.1407342
10	0x3f5ce94c	0.8629348
11	0x3f5e94a4	0.8694556
12	0x3ea5fb36	0.3241822
13	0x3ef51f64	0.47875512
14	0x3e96841b	0.29397663
15	0x3ef7f45b	0.48428616

fc3.weight f4 [16, 16]
0	0x3f8cb08b	1.0991377
1	0x3f95e443	1.1710285
2	0x3f932ee0	1.149868
3	0xbf886239	-1.0654975
4	0xbf9b861f	-1.2150306
5	0x3f364682	0.71201336
6	0xbf9a06d2	-1.2033331
7	0xbf890727	-1.0705308
8	0x3f85dca8	1.0457964
9	0xbf982e08	-1.1889048
10	0x3fa2b124	1.2710309
11	0x3fb186a6	1.3869216
12	0x3fa6e956	1.3039958
13	0x3fb42638	1.4074163
14	0x3f9cc0dd	1.2246357
15	0x3f8e94b3	1.1139129
16	0x40677f19	3.6171324
17	0x401e0c24	2.469491
18	0x3fc899c2	1.5671923
19	0xbfb1ea2f	-1.3899592
20	0xbfe94256	-1.8223369
21	0x3fccc08e	1.5996263
22	0x3e915e19	0.28392103
23	0x3f244dfa	0.6418148
24	0x3f465410	0.7747202
25	0xc019da35	-2.4039433
26	0x3fff5e96	1.995074
27	0x3fd6af35	1.6772219
28	0x3fcf5be7	1.6199921
29	0x3fe16202	1.7608035
30	0x3fcabf67	1.5839661
31	0x3fd3aa6f	1.6536387
32	0xc0a59c4f	-5.1753306
33	0xbdbaab6c	-0.091147274
34	0xc0a99d0a	-5.30042
35	0x3f96e3e8	1.1788301
36	0x3ebfe566	0.37479705
37	0xbfbf11f7	-1.4927357
38	0x4094913c	4.642729
39	0x40942465	4.6294427
40	0xbfb2459c	-1.3927493
41	0xbee0cfbf	-0.43908498
42	0xbbc475d4	-0.0059954915
43	0xbf09c520	-0.53816414
44	0xbf847949	-1.0349513
45	0xbebbbc10	-0.36666918
46	0xbf6b3a40	-0.9188576
47	0xbf2a137e	-0.6643599
48	0xc09c2501	-4.879517
49	0x3ce6df57	0.028182669
50	0xc0a3cde8	-5.118885
51	0x3f8c9ec0	1.0985947
52	0x3eed595d	0.4635724
53	0xbff6066e	-1.9220712
54	0x40964763	4.696214
55	0x4090fa00	4.5305176
56	0xbfca8b1e	-1.5823705
57	0xbf31e9c0	-0.694973
58	0xbe25bca8	-0.16185248
59	0xbeccade8	-0.3997643
60	0xbf6bbc83	-0.9208452
61	0xbf1bce33	-0.6086151
62	0xbf567779	-0.8377605
63	0xbf00405c	-0.50098205
64	0x3fc7a7b0	1.5598049
65	0x3f932b0f	1.1497515
66	0x3fa25dc9	1.2684871
67	0xbf959e71	-1.1688977
68	0xbfb0e974	-1.3821244
69	0x3f5c6420	0.8609028
70	0xbf99301a	-1.1967804
71	0xbf9a934b	-1.20762
72	0x3f6c3e2c	0.92282367
73	0xbfa0ded3	-1.2568
74	0x3fc54543	1.5411762
75	0x3fc4ff41	1.5390397
76	0x3fb4c584	1.4122777
77	0x3fc0fbf0	1.5076885
78	0x3fb8d820	1.4440956
79	0x3fc6e2c3	1.5537952
80	0xbf84133e	-1.0318372
81	0x3fbba965	1.466107
82	0xbeacb9ef	-0.33735606
83	0xbfbd2e18	-1.4779692
84	0xbfa126e4	-1.2589993
85	0x3fc7d7b9	1.5612708
86	0xbf4feca7	-0.8122048
87	0xbec61890	-0.38690615
88	0x3fd353e0	1.6509972
89	0xbfa46c81	-1.2845613
90	0x3fb08c59	1.3792831
91	0x3fb38604	1.4025273
92	0x3fa42486	1.2823646
93	0x3fb5bdd9	1.4198562
94	0x3f9630c3	1.1733631
95	0x3fd592ad	1.6685387
96	0xbfc00a12	-1.5003073
97	0xc00f3417	-2.2375543
98	0xbf88a38c	-1.067491
99	0x3fc1f6b4	1.5153413
100	0x3fbe68f1	1.4875776
101	0xbfb82243	-1.4385456
102	0x3cd969fe	0.026539799
103	0xbe6ff9a9	-0.23435082
104	0xbf9fc193	-1.2480949
105	0x3fd32439	1.6495429
106	0xbfeee8b5	-1.8664767
107	0xbfbd95ae	-1.4811304
108	0xbfbd8af9	-1.4808036
109	0xbfc06fb8	-1.5034094
110	0xbfc80452	-1.5626318
111	0xbfdd89a1	-1.7307626
112	0xbf8b6fb9	-1.089347
113	0x3fa05e7e	1.2528837
114	0x3dede2f7	0.11615556
115	0xbf958e9f	-1.168415
116	0xbfa3c2f1	-1.2793866
117	0x3fd473a9	1.6597797
118	0xbfb0b512	-1.3805258
119	0xbf9bcbee	-1.2171609
120	0x3fb33c66	1.4002807
121	0xbf9d07b1	-1.2267972
122	0x3fc8c212	1.5684226
123	0x3f97e911	1.1868001
124	0x3fa6fe96	1.3046443
125	0x3fac9963	1.348431
126	0x3fbcbc0e	1.474489
127	0x3fc33c99	1.5252868
128	0x405d167f	3.454498
129	0x3e6a2ce0	0.22868681
130	0x40091a1b	2.1422184
131	0x3f0b2583	0.54354113
132	0xbfb2bcaa	-1.3963826
133	0xbf8dd460	-1.1080437
134	0x3e342a9d	0.1759438
135	0xbe9268fa	-0.28595716
136	0x3ef65a1c	0.48115623
137	0xbfb6782a	-1.4255421
138	0x3f943789	1.1579448
139	0x3fbde1c5	1.4834524
140	0x3f431f97	0.7622008
141	0x3fc9e044	1.5771565
142	0x3fb56383	1.4170994
143	0x3f808315	1.0040003
144	0x3fbe1d3a	1.4852669
145	0x3fa4db47	1.2879418
146	0x3fd38d90	1.6527576
147	0xbf8ead08	-1.1146555
148	0xbfa543e0	-1.2911339
149	0x3f68e6ac	0.9097698
150	0xbfa6352e	-1.2984979
151	0xbfa29ef4	-1.2704759
152	0x3f95bdb3	1.1698517
153	0xbf9ce284	-1.2256627
154	0x3fb04f07	1.3774117
155	0x3fc97bc3	1.5740894
156	0x3fa3d745	1.280007
157	0x3fa34312	1.2754843
158	0x3fab54f1	1.3385297
159	0x3fccd341	1.600197
160	0xc04259a7	-3.036722
161	0xc0098880	-2.1489563
162	0xbfc6ab33	-1.5520996
163	0x3f9b531f	1.2134742
164	0x3fd469ce	1.6594789
165	0xbfd330e4	-1.6499295
166	0xbe22d23e	-0.15900514
167	0xbf45e7b3	-0.7730667
168	0xbf9eb594	-1.2399163
169	0x4006cfa2	2.106423
170	0xbff978fc	-1.9490047
171	0xbfe7f51f	-1.812168
172	0xbfc8d244	-1.5689168
173	0xbfb682a3	-1.4258617
174	0xbf9d915f	-1.2309989
175	0xbfb7da96	-1.4363582
176	0x3f8f1486	1.1178138
177	0x3fa8cd14	1.3187585
178	0x3f8bc487	1.091935
179	0xbf8ef1b9	-1.1167518
180	0xbfc405db	-1.5314287
181	0x3fb64429	1.4239551
182	0xbfbffea3	-1.4999584
183	0xbfa58e57	-1.2934064
184	0x3f884266	1.0645263
185	0xbfb6d793	-1.4284538
186	0x3fd3c53e	1.6544569
187	0x3fd33aef	1.650236
188	0x3fba9398	1.4576292
189	0x3fb49a68	1.4109621
190	0x3fe21fcc	1.7665954
191	0x3f9ede55	1.24116
192	0xbea32bb6	-0.31869286
193	0x3fc21788	1.5163431
194	0x3eb5e3a7	0.35525247
195	0xbf889e03	-1.0673221
196	0xbf904842	-1.1272051
197	0x3fc1b01b	1.5131868
198	0xbf7350b2	-0.95045006
199	0xbf83ad0f	-1.0287188
200	0x3face3fe	1.3507078
201	0xbf914c8a	-1.1351483
202	0x3fa7a3fa	1.3096917
203	0x3f8cd5e5	1.1002775
204	0x3f90e4ec	1.1319861
205	0x3fb919c1	1.4460984
206	0x3f8dc416	1.1075466
207	0x3fb43f49	1.4081813
208	0x3f503331	0.8132811
209	0xbfea491c	-1.8303561
210	0x3d424d27	0.04743686
211	0x3fc4ad70	1.5365429
212	0x3fc38565	1.5275084
213	0xbfeb80d6	-1.8398693
214	0x3f80029c	1.0000796
215	0x3f27d8bc	0.65565085
216	0xbfe8bb92	-1.8182242
217	0x3fab41b1	1.3379422
218	0xbfa14a61	-1.2600824
219	0xbfb99b05	-1.4500433
220	0xbfd79e30	-1.684515
221	0xbfb0f01f	-1.3823279
222	0xbf975045	-1.1821371
223	0xbfcb1ccf	-1.5868167
224	0x3eb6619c	0.35621345
225	0x400655c8	2.0989857
226	0x3ed41a59	0.41426352
227	0xbff94e89	-1.9477092
228	0xbfe23fdc	-1.7675738
229	0x3fe2e175	1.7725054
230	0x3ed4979b	0.41521916
231	0x3f75596f	0.9583959
232	0x3ff1e0fd	1.8896786
233	0xc0204aed	-2.504573
234	0x4001b1a4	2.0264673
235	0x3fff7f75	1.9960772
236	0x3ff0ff0f	1.8827838
237	0x3fb7fec5	1.4374624
238	0x3fa0ae29	1.255315
239	0x3ffbc231	1.9668638
240	0xc09e1f45	-4.941317
241	0x3d4c9be6	0.049953364
242	0xc09c366a	-4.8816423
243	0x3f8b105c	1.0864367
244	0x3f104c92	0.5636684
245	0xbfe16602	-1.7609255
246	0x408e42f7	4.4456744
247	0x4071359a	3.7688966
248	0xbfd1b48e	-1.6383226
249	0xbf3ce688	-0.7378926
250	0x3d751eaf	0.059843715
251	0xbe906822	-0.28204447
252	0xbf21eb89	-0.63250023
253	0xbe7e30c1	-0.24823286
254	0xbf6d640d	-0.9273079
255	0xbf40191c	-0.75038314

fc3.bias f4 [16]
0	0xbf8499ee	-1.0359476
1	0x40a29b59	5.0814633
2	0x3fcf6b23	1.620457
3	0x404057f2	3.0053678
4	0xbf99a499	-1.2003356
5	0x3f936068	1.1513796
6	0xc015bbf3	-2.3395965
7	0xbf9cbe6f	-1.2245616
8	0xbfe358b4	-1.7761445
9	0xbf2e33f9	-0.68048054
10	0xc08def80	-4.435486
11	0xbe1f8891	-0.1557944
12	0x3eb548ab	0.35407004
13	0xbe794bfe	-0.24345395
14	0x40ab2b21	5.3490148
15	0x3ff03b76	1.8768146

fc4.weight f4 [3, 16]
0	0xbce5593d	-0.027996654
1	0xc001c401	-2.0275881
2	0xbecf04cc	-0.40433347
3	0xbf16bef3	-0.58885115
4	0x3d72f528	0.05931583
5	0xbdaa6319	-0.08319683
6	0x3f8da059	1.1064559
7	0x3f01ba3a	0.50674784
8	0x3ec43a36	0.3832566
9	0xbe1e8d0d	-0.15483494
10	0x3fd6917f	1.6763152
11	0xbdfe47c7	-0.12416034
12	0x3b25ae13	0.0025280758
13	0x3d70bbb6	0.058772765
14	0xbfc1719d	-1.5112797
15	0xbf50b0f2	-0.8152
16	0xbec95c45	-0.3932821
17	0xbf04e2d9	-0.5190864
18	0x40b2dec5	5.5896935
19	0x40b27cb6	5.5777235
20	0xbf4020ce	-0.75050056
21	0xbe8efebb	-0.2792872
22	0x3f084f50	0.5324602
23	0xbec6f7ad	-0.38860837
24	0xbf37775f	-0.7166652
25	0xbf12a3cc	-0.57281184
26	0x3edbac18	0.42904735
27	0xbf27215b	-0.6528527
28	0xbea75d93	-0.3268858
29	0x3e9ce73b	0.30645165
30	0xbe515d27	-0.20445691
31	0x40ab0047	5.343784
32	0xbe9d4028	-0.3071301
33	0xbea8072a	-0.32817966
34	0x407b6858	3.9282436
35	0x408a2a97	4.317699
36	0xbef0dacc	-0.4704193
37	0xbf2ee05d	-0.683111
38	0x3f295e96	0.6615995
39	0xbf2de0df	-0.6792125
40	0x3eba7d40	0.36423683
41	0xbed1e2b2	-0.40993267
42	0x3eb57f33	0.35448608
43	0xbf15b257	-0.5847525
44	0xbf124545	-0.57136947
45	0x3f40e86d	0.75354654
46	0xbf303b7a	-0.68840754
47	0x40821379	4.064877

fc4.bias f4 [3]
0	0xc10d76b3	-8.841479
1	0x3f9478e2	1.159939
2	0x3fd0c027	1.630864
