MRTAWorld_DQN/PruebaConReasignaciones/Caso1/DQN_model_3Tasks_Caso1.pth (torch, 9524 bytes, 8 tensors)

fc1.weight f4 [20, 20]
000000 8c b1 41 3f 67 6d 91 ba 63 42 09 be d5 00 10 bc
       0.7566154 -0.0011095227 -0.13404231 -0.008789261
000010 6d 7d 8d be e2 64 2b 3e 23 09 40 3e 29 9d cf 3e
       -0.27634755 0.16737702 0.18753485 0.4054959
000020 4e 26 87 3e 67 d8 1a bd 07 57 8a bb 78 d7 11 bf
       0.26396412 -0.037804034 -0.0042218002 -0.56969404
000030 fc 0d 80 bd 57 1f 48 bc a7 87 bc 3d 00 14 1a be
       -0.06252667 -0.012214503 0.09205561 -0.15046692
000040 26 b1 85 3d b5 bf c5 3e 1c 91 45 3d 72 7d a3 be
       0.06527929 0.38622823 0.04823409 -0.31931645
000050 82 fe 0a bf 00 83 05 bf 6d 91 4a 3f dd 54 e8 be
       -0.542946 -0.52153015 0.7912815 -0.45377246
000060 3a 86 1c bf 27 ce 56 3f 9b e9 1c 3f 35 b5 d4 3d
       -0.61142313 0.83908314 0.61293954 0.10386125
000070 5b df 07 bf 28 5e f3 be 83 d6 54 be f4 33 5e 3e
       -0.5307519 -0.47532773 -0.20784955 0.21699506
000080 f6 33 26 bd 7a 64 7b bd 9d 5d f1 3d 48 39 29 bd
       -0.040576898 -0.06137512 0.117854334 -0.041314393
000090 01 f9 54 bd 35 35 61 be d0 f6 36 be ec ee 7a 3d
       -0.05199528 -0.21992953 -0.17867589 0.06126301
0000a0 4d 0e 35 bf ce b5 ee bd f7 5c 30 be f2 87 c4 be
       -0.70724946 -0.1165577 -0.17222963 -0.38384968
0000b0 e9 6c 01 bf 79 77 e8 bd 78 65 ba 3e 7b 59 1f be
       -0.5055681 -0.113509126 0.3640554 -0.15561478
0000c0 3e 73 94 3e 61 66 91 be 59 09 76 3d 36 f8 0b be
       0.28994173 -0.2839842 0.06006751 -0.13668904
0000d0 43 5d 26 be 9b 62 79 be 34 dd ad be e0 7b d9 3d
       -0.16246514 -0.24354021 -0.33957827 0.106193304
0000e0 e7 4f 8c bc 65 79 37 be 8d aa db bd 6b 22 9f 3b
       -0.017127944 -0.17917402 -0.10725889 0.004856398
0000f0 d7 18 e6 be 17 05 03 3d 56 58 10 bf 4d 52 09 3e
       -0.44940826 0.031987276 -0.5638479 0.13410302
000100 14 bb 6f be 25 f1 36 3e b8 6f 0a 3d df 26 71 3d
       -0.23411208 0.17865427 0.03379795 0.05887496
000110 21 5b f6 bd a2 74 0b bf fc 35 85 be 6e 4b ec bd
       -0.120291 -0.5447484 -0.2601775 -0.115378246
000120 56 c6 ef bd cd ff 50 bd a4 e2 99 bd 17 bf d8 bc
       -0.117077515 -0.0510252 -0.075139314 -0.026458306
000130 84 bc a3 3e 76 0b 82 be 58 0f b3 be da 87 92 be
       0.31979764 -0.2539937 -0.34972644 -0.28619272
000140 16 8b 95 3e 98 30 20 bf a7 09 01 3f 20 d5 e7 bd
       0.29207677 -0.6257415 0.50405353 -0.11319947
000150 5b d9 67 3f 05 01 ed be c5 f8 53 bd 6e 67 27 3c
       0.90566033 -0.4628984 -0.051750917 0.010217531
000160 56 79 a1 be ea d4 be 3e 27 78 55 bc bc c5 82 3e
       -0.31537884 0.37271816 -0.013029135 0.25541484
000170 bf 0a 8c 3e f8 fc f2 bd 74 83 79 be 66 61 7c bd
       0.2735195 -0.11864656 -0.24366552 -0.061616324
000180 b7 a0 0f bd ff 0a 95 bc 6f df 48 3e 9a ed 21 3e
       -0.03506538 -0.01819372 0.19616483 0.15813294
000190 e9 d3 44 3e af be 28 3e bb 96 f9 3e 91 d6 a2 be
       0.19221462 0.1647899 0.4874781 -0.31804326
0001a0 fc bc b3 3c 78 1b 61 be d6 08 fe be 5d 45 55 bf
       0.0219407 -0.21983135 -0.49616116 -0.83308965
0001b0 c9 9d 43 bf ae f4 de be 7f f7 7c bf b9 9f fe be
       -0.76412636 -0.4354605 -0.9881515 -0.49731234
0001c0 e5 15 c1 3d 91 93 ae 3c a9 83 16 3d f2 a4 8b be
       0.09428004 0.0213106 0.036746655 -0.2727428
0001d0 7c f0 78 3e 18 ae b6 3e 7a a5 19 be f5 76 b5 bd
       0.24310488 0.35679698 -0.1500453 -0.0886058
0001e0 d9 8a 48 be 7f 3c 33 3e 8d 28 f0 be 41 f7 9b 3e
       -0.19584216 0.17503546 -0.46905938 0.30462077
0001f0 46 cc 3b 3f 5b 47 d9 bd 12 d2 d4 3e 0a d3 9c 3e
       0.7335857 -0.10609313 0.4156652 0.3062976
000200 70 37 c2 3e a6 78 3d 3e 95 bb 09 3e a8 0c 82 be
       0.3793292 0.18503055 0.13450463 -0.2540028
000210 99 58 0c 3e 9a b6 35 3d 8b 06 47 be 1f 6f 83 bd
       0.13705672 0.044363596 -0.1943609 -0.06417679
000220 b5 6d 8a be 51 4e ed bc a4 6f 5a 3e e0 85 0e be
       -0.27036825 -0.028968008 0.2133165 -0.13918257
000230 15 e2 fc 3e 66 8b 22 3e ae 96 07 3e 0c 8e 15 3f
       0.49391237 0.15873489 0.13241073 0.5841987
000240 17 d8 be 3e 03 4e 0a be f1 31 f3 3d a9 1b 36 bd
       0.37274238 -0.13506322 0.1187476 -0.044459973
000250 40 d3 30 3e a5 7d 8d 3e ab c8 8e 3e 11 ab 2e 3e
       0.17268085 0.27634922 0.27887473 0.17057444
000260 0b 1b 4f 3e 02 c7 68 3e 4c 16 63 3e cc 49 f4 3d
       0.2022516 0.22732165 0.22176474 0.11928138
000270 0e d2 2f bd 8b 7a 4b 3e c4 c6 08 3e 09 f1 11 be
       -0.042924933 0.19870965 0.13357073 -0.14252104
000280 b8 f0 6f be 74 33 84 be 5f 53 fa bd 8f 0f 15 3e
       -0.2343167 -0.25820506 -0.12222933 0.14556716
000290 4f 11 14 be 69 8a 0f 3d 8f 15 a2 3f ba cb 82 3f
       -0.14459728 0.035044108 1.2662829 1.0218422
0002a0 9d 50 97 3f f8 cd fe 3d 60 72 87 3b 9a 14 62 bd
       1.1821476 0.12441629 0.0041335076 -0.05519543
0002b0 e1 ce ea 3d 18 db bb 3c 26 c9 d1 3d 9a 55 b2 3d
       0.1146524 0.02293162 0.10243444 0.087077335
0002c0 f7 c8 93 3d 86 6b 39 bf 4c 07 5f bf a6 98 0d bf
       0.072160654 -0.7242969 -0.8712051 -0.5531105
0002d0 c1 2e 1a bf e3 46 98 bf 85 6c 03 bf 7a 73 87 3f
       -0.6022759 -1.1896633 -0.5133746 1.0582116
0002e0 93 bb 6f 3e 61 a1 83 3f 04 49 15 3f 05 48 50 3e
       0.23411398 1.0283624 0.5831454 0.20339973
0002f0 b9 09 3e 3e 2d 6a 14 3b d1 80 91 3e f0 23 67 3e
       0.18558396 0.0022646294 0.28418592 0.22572303
000300 6d 35 11 3e a2 d6 02 be 83 b7 e6 bc 48 9d 64 3e
       0.14180537 -0.12777188 -0.028163677 0.22325623
000310 f5 ac 0a bd 31 eb 2f 3e 30 ea ab be bd 19 a2 bd
       -0.03385635 0.17179562 -0.33577108 -0.079150654
000320 2a 0a 36 3e 8c 05 90 bd 02 a3 a7 bd 04 46 87 3d
       0.17777315 -0.07032308 -0.08185388 0.06605151
000330 ad de 68 3e 66 c8 14 3e c4 46 01 bf 7c 4b 0d bf
       0.22741194 0.14529571 -0.50498605 -0.55193305
000340 27 9b ea be bc cf 45 bf 4e e1 91 bf b8 7b 4a bf
       -0.45821497 -0.772701 -1.1396883 -0.7909503
000350 a5 8c 1a 3d 98 92 96 3d d3 3f 88 bc b9 1e 9c 3e
       0.037731785 0.07352179 -0.016631996 0.3049219
000360 25 dd c6 be 92 75 3f bd 31 20 32 3e fc 2c 2e 3d
       -0.38840595 -0.046742983 0.17395093 0.04252337
000370 ad b4 3d 3f d3 14 90 3d 4e 86 7f bf ec 6c 4d bf
       0.74103814 0.07035222 -0.9981431 -0.80244327
000380 c5 c9 13 3d c8 7d 53 3f 5d c8 50 be 90 78 d7 bd
       0.036081094 0.826138 -0.20388933 -0.10521042
000390 d0 31 1b 37 6d 32 12 be 7a 2f e7 be 6b 64 eb bd
       9.250318e-06 -0.14277048 -0.4515341 -0.114937626
0003a0 43 03 74 3d 84 7a 33 3d 63 93 c8 bc f0 c9 39 3d
       0.059573423 0.043818012 -0.024484342 0.0453586
0003b0 95 e1 e3 3d e4 91 09 bc b9 1f d7 bb c7 4a a6 bd
       0.11127011 -0.008396599 -0.006565061 -0.081197314
0003c0 cc 7e 01 bf 2e b5 c5 bd 45 84 26 3e 66 52 88 be
       -0.505841 -0.09653698 0.16261394 -0.26625365
0003d0 da 4c f0 bd 67 5d 99 3c c7 20 f1 be a4 dc 10 bf
       -0.11733408 0.018721296 -0.4709532 -0.5658667
0003e0 34 49 34 bf dc 11 93 be 92 31 d7 be 3c 4b 9c bd
       -0.704242 -0.28724563 -0.42030007 -0.07631537
0003f0 ac f8 b9 bd b5 da 9b bd d6 61 98 be 8e fc bd bd
       -0.090806335 -0.076100744 -0.29762143 -0.092766866

fc1.bias f4 [20]
000000 9e aa 9f 3f ce 8c 04 bf fa 38 7e 3f c3 99 1e 3f
       1.2473943 -0.5177735 0.9930569 0.6195337
000010 05 f8 98 3f 35 a1 ac 3d ec c5 c9 3f fc c8 74 bf
       1.195069 0.08429185 1.5763526 -0.9561918
000020 0c 7c 6f 3f c9 ff be 3f 85 47 47 be dd 2a 81 bf
       0.93548656 1.492181 -0.19460876 -1.0091206
000030 56 dd c8 3e f3 67 ad 3f ab ec fd 3e 5e 25 38 3f
       0.39231366 1.3547348 0.49594626 0.7193202
000040 81 8d 90 3f 51 0e bc 3f 9b 81 ee 3f 4c 51 f1 3f
       1.1293184 1.4691869 1.8633302 1.8852935

fc2.weight f4 [20, 20]
000000 c6 b1 dd be 01 b5 f2 3e f1 7a e2 bc 83 e4 16 bd
       -0.43299693 0.4740372 -0.027646514 -0.03683902
000010 a4 47 8c bf 32 d1 43 bf ae e3 1f be 7b 64 7b 3e
       -1.0959363 -0.7649108 -0.15614197 0.24550049
000020 c0 1a da 3f eb 3f 7e 3f fd fa 90 3e 0c 0e 2a 3e
       1.7039413 0.9931628 0.2831649 0.16606921
000030 57 e4 1f be 00 ea d6 bf af 51 1b bf 94 26 dd bd
       -0.15614448 -1.6790161 -0.60671514 -0.10798374
000040 f5 7d 20 bf c2 86 65 bf 5c fb d9 be 69 35 a5 bf
       -0.62692195 -0.8965875 -0.42574584 -1.2906924
000050 27 11 21 bf 25 d4 ab bf f7 f0 b2 3e 2f 63 00 be
       -0.629168 -1.3424116 0.34949467 -0.12537836
000060 f3 49 39 3f ce 47 18 3f fc 5f 88 bf 22 81 1b be
       0.7237846 0.59484565 -1.0654292 -0.15185979
000070 d9 39 41 bf a1 97 8f 3f 31 df c5 3e 72 06 2e bf
       -0.75478894 1.1218148 0.38646844 -0.67978585
000080 43 80 28 3f e7 a2 a7 be 4e 47 c8 3c c3 c1 32 bc
       0.6582071 -0.32741472 0.024448063 -0.010910454
000090 9c 22 de 3f 21 19 4f 3f ae bc 46 be be 5c 81 be
       1.7354312 0.8089772 -0.19407913 -0.2526607
0000a0 f1 b7 98 3f 9f a2 ce 3e 02 84 a3 3e a9 70 e9 3e
       1.1931134 0.40358445 0.3193665 0.45593765
0000b0 5f 79 57 be 66 7c 93 3e 4e c6 86 3f 09 f9 be 3d
       -0.21042393 0.28805846 1.0529268 0.093248434
0000c0 fc 0b 2f c0 3b d4 8f 3e 88 a7 08 3f 0b 92 4a bf
       -2.7351065 0.28091606 0.5338063 -0.79129094
0000d0 99 09 05 be 84 3e 92 bf 7d 6b 49 3e 30 7b fa 3e
       -0.12991942 -1.1425328 0.1966991 0.4892211
0000e0 74 ef 1f bf e8 15 82 be b5 97 05 40 f4 3c 99 3f
       -0.6247475 -0.25407338 2.0873845 1.1971726
0000f0 e5 6a 1b be c2 6c 55 3f 23 92 22 bf b1 b9 0b bf
       -0.15177496 0.83369076 -0.63504237 -0.5458022
000100 85 86 81 bd 9d b1 3b be cc c8 ac be 3b 76 2a 3f
       -0.06324486 -0.18329473 -0.33746946 0.66586655
000110 6b 69 93 3f 1a 79 0c 3e 1b de 7b 3d 1e 65 b4 bd
       1.1516546 0.13718072 0.061491113 -0.08808349
000120 c6 28 da be 5b 76 17 bf e0 90 d6 be 80 1d 17 bf
       -0.42609233 -0.5916497 -0.41907406 -0.5902939
000130 6b 69 74 bf 89 2b d4 be 76 be 4d bf 3f 11 8c bf
       -0.95473355 -0.41439465 -0.80368745 -1.0942763
000140 9b e3 f2 be ea f7 aa 3e c0 c6 70 be 11 4e 25 be
       -0.47439274 0.33392268 -0.23513317 -0.16143061
000150 d8 7e 9a be cd 81 a8 be 16 19 de be fa d2 d3 3e
       -0.301749 -0.3291153 -0.43378514 0.413719
000160 53 71 eb 3f eb 20 32 be ef 1c 06 bf bf 3c b6 3e
       1.8393959 -0.1739537 -0.523879 0.3559322
000170 90 4c a2 bd 5a f5 04 3e ac 49 83 be 32 6c 32 be
       -0.079247594 0.12984219 -0.25642145 -0.17424086
000180 bb 44 14 bf 8a b1 10 bf ba 11 38 bf 16 d3 04 bf
       -0.57917374 -0.56520903 -0.7190205 -0.5188459
000190 8b 6c cc 3e 51 38 85 be ca 83 5e 3d 0d be c7 be
       0.39926562 -0.26019529 0.054324903 -0.39012185
0001a0 ec 79 72 3f 27 4a da bf fc bc 4a 3f ed 28 c9 3d
       0.9471729 -1.705388 0.7919462 0.09822259
0001b0 ce 26 ae 3f 80 1b a9 3f 9c 75 ea bf ab 9e a0 bf
       1.3605592 1.3211517 -1.8317142 -1.2548422
0001c0 03 94 35 bf a8 2c 8e 3f cb 8b 46 bf db 95 48 bf
       -0.7092897 1.1107378 -0.7755706 -0.7835366
0001d0 7c e9 bf 3e 3f b2 36 40 b3 c2 a8 3f 0d 1e f2 3f
       0.37482822 2.8546293 1.3184417 1.8915421
0001e0 18 50 5d 3f 57 58 94 be aa 3a f5 3e 92 3a a7 3e
       0.8645034 -0.28973648 0.4789632 0.32661873
0001f0 6a 9f 90 bd 74 ff b5 3e 30 30 a9 3f bc b9 b3 be
       -0.07061656 0.35546458 1.3217831 -0.35102642
000200 aa 16 2e c0 3e c4 23 bf b7 aa ea 3d 4f ab 3c bf
       -2.7201333 -0.63971317 0.114583425 -0.73698896
000210 fa 3d 0c be ea 0f 72 3f 83 d5 f5 3e 95 82 21 3f
       -0.13695517 0.9455553 0.4801446 0.6308988
000220 59 cf 77 be 94 fd e0 3e 17 c6 01 40 89 2f 07 40
       -0.2420019 0.43943465 2.0277154 2.1122763
000230 76 93 7a bf 91 c9 19 bf c3 21 ed 3c 30 35 8c 3e
       -0.9788126 -0.6007319 0.028946763 0.2738433
000240 5e ac c3 be 8a 63 8b be 18 9a 3a bf 54 91 b5 3e
       -0.38217443 -0.2722438 -0.7289138 0.3546244
000250 d1 1e 0c 40 9c 19 55 3f 6c 47 84 3d 7a 47 47 3e
       2.189381 0.832422 0.06458935 0.1946086
000260 37 80 3f be 9c 82 e1 bf 52 21 1f bf 36 0d 26 3e
       -0.18701254 -1.7617984 -0.6216022 0.16215977
000270 45 9b 38 bf 9b d2 3e bf 32 b2 21 bf 6e 8d e8 bf
       -0.7211192 -0.7454011 -0.6316253 -1.8168161
000280 30 5b c3 be e5 35 7b bf a6 8e c2 3e 6e 7d c3 3e
       -0.38155508 -0.9812911 0.37999457 0.38181633
000290 d9 8d 38 3f ff a6 9c 3c 33 d2 13 3e a1 76 12 bf
       0.7209144 0.019122599 0.14435653 -0.57212263
0002a0 0d 22 43 bf 09 87 91 3f 13 28 28 3f 75 a4 dd 3e
       -0.7622383 1.1369334 0.6568615 0.43289533
0002b0 6a 4f 2a 3f f9 71 46 bf 87 85 27 3f 6d ad 0c 3f
       0.66527426 -0.7751766 0.6543812 0.54952127
0002c0 ae 62 65 3f 81 45 7b 3f 93 98 47 3f 59 2a e7 3d
       0.896037 0.9815293 0.77967185 0.11287374
0002d0 86 99 76 bf 8d 2e 52 bf 84 19 d3 3e 52 e3 0a 3f
       -0.9632801 -0.8210228 0.41230404 0.54253113
0002e0 ed d8 a2 bf ba 7e 80 bf d8 d6 f3 be 35 64 40 bd
       -1.272245 -1.0038674 -0.4762485 -0.046970565
0002f0 f3 b3 11 40 26 8f bd 3e 6b c9 13 bf 18 3c 15 40
       2.2766082 0.37023276 -0.57729214 2.3317928
000300 7c 8e 21 be 05 f0 91 bf 2c 09 1e 3d fa 2f 87 3e
       -0.1577701 -1.1401373 0.038582966 0.2640379
000310 e9 34 90 bf 4b 5a 17 3f 6d 7a c0 be 7e fd 8c bf
       -1.1266147 0.5912215 -0.37593403 -1.101486
000320 2d 1f a9 3d 72 c8 10 3f 6e da ff bc 8f c7 ac be
       0.082578994 0.56555855 -0.031232085 -0.33746
000330 04 70 b2 be ed 1a 2b bf 23 38 9e bd de 3c a6 3e
       -0.34851086 -0.6683796 -0.07725551 0.32468313
000340 ad fc dd 3f bb 4c 61 3e 69 be 79 be 21 cc 87 3e
       1.7342736 0.22001927 -0.24389042 0.26522925
000350 5f 1b 96 be 49 82 8b bf f5 c2 0c bf f6 80 26 be
       -0.29317757 -1.0899135 -0.5498498 -0.16260132
000360 73 45 29 bf 9e 81 34 bf bf 04 95 be 74 3d 3c bf
       -0.66121596 -0.7051028 -0.29105183 -0.7353127
000370 51 11 79 be b2 8d 5f bf 99 fb cb 3e db 24 36 3f
       -0.24323012 -0.87325585 0.3984039 0.71149987
000380 13 b7 20 bf 65 dc a8 bc 27 42 12 3e bb 3b 08 bf
       -0.6277935 -0.020612905 0.14283048 -0.5321614
000390 4c aa a4 be 95 ed 31 3f 26 84 c6 bc 43 14 ae bf
       -0.32161176 0.69503146 -0.024232935 -1.3599933
0003a0 6c 30 20 3f f9 dd 2c 3f ed b3 90 3e 79 97 25 3f
       0.62573886 0.67526203 0.28262272 0.64684254
0003b0 da 57 d3 3f 4f 46 ba 3c 87 19 10 3f 72 18 69 3f
       1.6511185 0.022738604 0.5628895 0.91052926
0003c0 0d f3 8c 3f f5 31 54 3f a2 97 95 3d c8 f9 02 3e
       1.1011673 0.8288873 0.07304312 0.12790596
0003d0 d0 1e b7 3d fb 65 af 3e ea d3 80 3d d2 7f af be
       0.08941424 0.34257492 0.062904194 -0.34277207
0003e0 62 33 a4 bf 61 88 b1 3e 7f 03 95 3e e4 bb 05 bf
       -1.2828181 0.3467436 0.2910423 -0.52239823
0003f0 38 3f b4 3d 08 0d fe 3e 3f 42 f5 3e 8c 82 64 3e
       0.088011205 0.49619317 0.47902104 0.22315425

fc2.bias f4 [20]
000000 d7 90 2d bf 5e 9e 51 3f 19 29 e7 3e b6 22 4e bf
       -0.67799133 0.81882274 0.45148543 -0.80521715
000010 cc 75 54 bf 3e 88 db 3e c4 61 77 3f 92 01 56 bf
       -0.82992244 0.42877382 0.96633554 -0.83596146
000020 cf 3f 4b 3f c7 88 14 bf 8d e3 3a bf 3d fb 50 3f
       0.7939424 -0.58021206 -0.73003465 0.8163336
000030 da e0 64 3f 7f 83 89 3f f6 9a 60 bf 05 a8 59 3f
       0.89405596 1.0743254 -0.8773645 0.85022
000040 89 02 4c bf e2 2c 34 3f f0 83 51 bf e9 db 76 bf
       -0.7969137 0.70380986 -0.81841946 -0.96429306

fc3.weight f4 [20, 20]
000000 23 e3 30 3d d2 5c 82 3c 1b 2a ec be 76 27 b7 3e
       0.043185364 0.0159134 -0.46125874 0.35772294
000010 3f 4f 0b 3f 63 b6 62 be 9c 27 27 bf 37 e3 8e 3e
       0.54417795 -0.22139888 -0.65294814 0.27907726
000020 7e 16 a0 be df b2 d7 3e e9 30 e3 3d 27 d8 45 3d
       -0.3126716 0.42128655 0.11093313 0.048301842
000030 4e da 2c bf 77 bb 52 bf e5 43 ee 3e 82 be 8b be
       -0.67520607 -0.823173 0.46536174 -0.27293783
000040 be e1 ac 3d 3c 16 c5 bd eb 4e 38 3f 0d 59 25 3f
       0.084414944 -0.096233815 0.7199542 0.64589006
000050 9a c7 d0 bf fa 9a fb 3e c3 ed 0e bf 35 e8 aa be
       -1.6310914 0.49141675 -0.55831546 -0.33380285
000060 d5 84 4b be 09 8f ff be a9 bd 70 3e 23 e4 a5 bf
       -0.1987489 -0.49913815 0.2350985 -1.2960247
000070 b5 99 c9 be 50 8b e9 bf b1 b7 4f bf 14 62 5c bd
       -0.39375082 -1.824564 -0.81139666 -0.053804472
000080 b0 67 8a 3e e6 af 94 3f dd a2 a6 bf 00 ad bd bb
       0.27032232 1.161618 -1.3018452 -0.0057884455
000090 c9 3b 1f bc 83 3e c5 3f 6d 78 8a be 99 83 f1 be
       -0.009718844 1.5409702 -0.27045003 -0.47170714
0000a0 a7 c4 51 3e d3 79 bd 3f 68 2d c3 ba 5b b8 39 be
       0.20485173 1.4802803 -0.0014890851 -0.18136732
0000b0 c5 2f d2 be 8c ae bf 3e 33 03 06 bf 89 e0 2f 3f
       -0.4105207 0.37437856 -0.5234863 0.6870199
0000c0 aa d0 95 3f 8d 63 bd 3f 3c 78 2d be d8 18 c1 3e
       1.1704304 1.4796005 -0.16940397 0.37714267
0000d0 5d fa 6e 3e 76 90 98 3f d2 e8 f5 bd d1 0b 0b 3f
       0.23337694 1.1919086 -0.120072976 0.54314905
0000e0 9f d8 a3 bf 85 de c0 3d 58 22 8f be 71 1d 51 3f
       -1.2800483 0.09417442 -0.2795589 0.8168555
0000f0 84 bd 29 bf b1 90 43 bf 2e 41 03 bf 37 62 b1 3d
       -0.663048 -0.76392657 -0.5127133 0.08661311
000100 c5 b1 63 3c ef d8 96 3e 4d ec b1 be 4d 77 9f bf
       0.013897364 0.29462382 -0.34750596 -1.2458283
000110 ab 19 72 bf 9f db aa bf 29 5f 0a be c1 ac 54 bf
       -0.94570416 -1.3348273 -0.13512863 -0.830761
000120 3a 95 44 3e fc 08 26 be 7b e8 aa be 2e bb 37 bf
       0.1919755 -0.16214365 -0.33380494 -0.7176999
000130 17 b7 86 3f 6c cb c3 3d 6f bf 8f 3f bb 7d d4 be
       1.0524625 0.09560284 1.1230296 -0.41502175
000140 cf c7 6a be cd 21 16 3e ef 41 2c 3f 95 ae be bd
       -0.22927783 0.14661331 0.67288107 -0.09310643
000150 4a 56 10 bf bb 31 a6 c0 d0 89 e1 3e ca fa b8 be
       -0.56381667 -5.1935706 0.44050455 -0.36128837
000160 0c 08 a6 bd 89 68 6b bf 1e 24 52 be c2 a5 32 be
       -0.081070036 -0.91956383 -0.2052159 -0.17446044
000170 72 65 85 3e d3 76 34 3f 90 29 37 bf 05 e8 0d 3f
       0.2605396 0.7049381 -0.71547794 0.5543216
000180 2f f8 28 3e 9e 6a 02 3a 82 a0 8a 3e e2 03 44 bf
       0.16500925 0.00049749936 0.27075583 -0.76568425
000190 71 d2 3d bf 3a 9d 70 3e 7f 7d 12 3b 55 9e 0a bf
       -0.74149233 0.23497477 0.0022352634 -0.54147846
0001a0 b6 ba b3 be 1c c5 6b bf 3b c1 2b 3f 18 44 17 bf
       -0.35103387 -0.9209764 0.6709172 -0.5908828
0001b0 b7 99 f7 3e 32 a6 40 bf db e2 0d bf bc 95 fa 3e
       0.48359463 -0.75253594 -0.5542428 0.48942363
0001c0 06 e4 6d 3e dd 28 e6 3e eb 27 18 bf b4 c4 92 3e
       0.23231515 0.4495305 -0.5943591 0.28665698
0001d0 81 26 a0 be da 40 4d 3f e2 42 9e bf 1f bb 20 bf
       -0.31279376 0.8017708 -1.2364161 -0.62785524
0001e0 ef 01 39 3f bb ed e2 3e 55 ea 37 bf d9 fb ca bd
       0.72268575 0.44322 -0.7184194 -0.099113174
0001f0 ae 6a 18 3f 7c 1d c1 3f 39 d1 97 bf 34 c3 3e 3f
       0.5953778 1.5087123 -1.1860725 0.74516606
000200 4c 6c 21 be 9a af 88 be 4b 38 12 3f e4 1a e9 3e
       -0.15763968 -0.26696473 0.57117146 0.45528328
000210 ef 18 01 3e 93 35 85 3f be bd c9 be 90 48 66 bf
       0.12607168 1.0406975 -0.39402574 -0.8995447
000220 28 48 e7 be b5 17 91 be 67 bf 0f 3f 86 4b ab 3f
       -0.45172238 -0.283384 0.5615143 1.3382423
000230 a5 d1 39 bf ae c3 d2 bd 29 04 5c 3f f5 59 2d bf
       -0.7258552 -0.10291229 0.8594385 -0.6771539
000240 82 fe 3c bf ca 2b 8b 3f 4b df 81 3f af 9f a6 bf
       -0.7382585 1.0872738 1.0146269 -1.3017482
000250 c0 66 0a 3f 80 9a 36 bf a0 f7 31 bf d5 27 8d 3e
       0.54063034 -0.713295 -0.6951847 0.27569452
000260 0e 3a 99 3f 4a a5 fe be 74 d6 65 bf b5 f9 22 3f
       1.1970842 -0.4973548 -0.89780354 0.6366227
000270 f2 69 38 be 58 6c a7 3e 27 6f 60 bf a3 51 a9 bf
       -0.18009165 0.32699847 -0.87669605 -1.3228039
000280 b9 cc 61 bc 11 15 95 bf 00 be d4 3e f4 c0 19 bf
       -0.01378172 -1.1647054 0.41551208 -0.6006005
000290 06 d0 60 3d c3 8b 50 3e 81 db 49 3f 46 08 ad be
       0.054885887 0.20365815 0.7885056 -0.33795375
0002a0 e9 e9 eb bd 3c c7 2c 3f 2e b2 8c bd 82 82 bc 3e
       -0.11519224 0.6749151 -0.068699226 0.3681832
0002b0 7c 9e 67 be ee dd 2c c0 ca bc 3f be ce 7f fa 3d
       -0.2261905 -2.7010455 -0.18724361 0.12231408
0002c0 b1 b0 89 3d 1d 62 ab be dd c7 56 3e 33 3a d8 be
       0.06723154 -0.33473292 0.2097468 -0.42231902
0002d0 9a 8b c7 3e b5 8d 89 3d be b3 91 be c8 2c 08 3f
       0.38973695 0.067164816 -0.28457445 0.5319333
0002e0 96 8e 87 3e e3 40 12 bf fd 40 e6 be 1f 81 6e 3f
       0.26475972 -0.5713026 -0.44971457 0.93165773
0002f0 0f e8 b9 bd 83 df 02 3e 8a 80 14 3f ed 1e ea be
       -0.09077465 0.12780575 0.58008635 -0.4572672
000300 ff 2b 0f bf 83 c7 b6 bf 78 72 41 3f ee fb 8f ba
       -0.5592651 -1.4279636 0.7556529 -0.0010985115
000310 be 1d c1 3e 24 40 1a bf b1 f4 9b 3e 03 ed 02 3f
       0.37718004 -0.6025412 0.30460122 0.511429
000320 0c 10 39 3f 2f 9a ed bd 7e 79 e2 be 7b 4a e9 3e
       0.7229011 -0.11601674 -0.44233316 0.45564637
000330 a2 fa 80 3e 5b d6 72 3f 78 0f 11 bf a6 01 de 3e
       0.25191218 0.9485833 -0.5666423 0.43360633
000340 8e 9e 40 be d0 58 4c 3f e9 0a 16 3f 31 11 4b bf
       -0.18810484 0.7982302 0.586104 -0.79323107
000350 38 a3 9c be c1 7b f6 bd 96 69 0e 3f b3 e3 89 be
       -0.30593276 -0.12035323 0.5562986 -0.26931533
000360 e3 f9 9a bc 01 60 23 bf 82 23 46 3f 07 d6 17 3f
       -0.018917983 -0.63818365 0.7739793 0.59310955
000370 21 95 0c be 9f e1 07 bf cb 74 cf 3e 76 42 70 bd
       -0.13728763 -0.53078645 0.40518793 -0.058657132
000380 b2 fa c3 bd 7f 70 dd 3f e6 da 00 3f 3e e8 90 be
       -0.09569301 1.7299956 0.5033401 -0.28302187
000390 3b 57 d8 3e 12 63 e9 3e 53 5c 9d 3c 53 3e 0a bf
       0.42254052 0.45583397 0.019209063 -0.5400135
0003a0 97 c9 68 bd b2 be 17 c0 26 3c f5 bd 35 99 50 3e
       -0.056832876 -2.371014 -0.11974363 0.20370944
0003b0 92 92 06 3f 27 36 dd be 0f 9d 8a be c9 0a 60 bf
       0.525674 -0.43205377 -0.2707295 -0.87516457
0003c0 68 96 c1 3e 7f a1 2a 3f c1 6e 80 3f b3 6c e5 be
       0.37810063 0.66652673 1.00338 -0.44809493
0003d0 15 06 ea be 49 63 60 3e e7 bc ec 3e 9f 95 8b 3e
       -0.45707765 0.21912874 0.4623787 0.2726259
0003e0 7b 25 f2 3e 5a 79 89 3c 51 c8 9b bd 20 7f 43 3f
       0.4729422 0.016781498 -0.07606567 0.7636585
0003f0 d0 5f f4 3e ca 4c 27 3f e6 a4 95 be ff d1 39 3f
       0.4772935 0.65351546 -0.2922737 0.72586054

fc3.bias f4 [20]
000000 cf d4 74 bf d3 bc 96 3e 3d 41 5d 3c 0c 7b 8c be
       -0.9563722 0.29440936 0.013504324 -0.27437627
000010 5e cb fa 3d 98 68 1b 3f 11 ab c0 bd f1 d7 b4 3f
       0.122458205 0.6070647 -0.09407628 1.41284
000020 9b f5 a5 3e 38 f1 a7 be 75 ee a4 bf a0 36 17 3f
       0.32413945 -0.32801223 -1.2885271 0.59067726
000030 33 fe 54 3f 38 f4 99 bf d6 fd 9e 3e 91 9c 1c 3f
       0.8320038 -1.2027655 0.31053036 0.611764
000040 45 da 3a bf d1 85 18 bf 46 37 52 bf a6 f7 ab 3e
       -0.729893 -0.5957919 -0.8211559 0.33587378

fc4.weight f4 [13, 20]
000000 20 a5 66 3d 1b 8f 86 3e 73 7c 51 3e bc 7f 36 bf
       0.05630982 0.26281056 0.2045763 -0.7128866
000010 a7 d7 38 c0 ae d5 23 3f 97 4b fd 3e 52 37 cb 3d
       -2.8881624 0.63997924 0.49471733 0.09922661
000020 2a 42 de 3f dd 11 0e 3e cd a8 31 bf eb 60 6e 3f
       1.7363942 0.13874002 -0.69398195 0.93116635
000030 3f a2 2e 3e 8d c6 4c be 08 12 d5 be f9 a2 ea bd
       0.1705408 -0.19997616 -0.4161532 -0.11456866
000040 e8 35 be 3d 1e b5 92 be 19 a1 6d be a4 9d b2 3e
       0.092876256 -0.28653806 -0.23205985 0.34885895
000050 99 a5 f6 be cd b7 e0 3c b5 dd 53 3f 47 f4 1b bf
       -0.48173216 0.027431393 0.82760173 -0.6091961
000060 d1 f8 ce 3e ae 1c 27 3e 31 71 16 3f 51 bd 2e 3d
       0.40424207 0.16319534 0.58766466 0.042661015
000070 58 da d7 be 6f 47 05 bf 84 ee b6 b9 6b ff 8e bf
       -0.4215877 -0.52062124 -0.00034891453 -1.1171697
000080 dc 67 d8 3e c8 81 fc be 0f 2d 8e bf e6 5f 91 bf
       0.42266738 -0.49317765 -1.1107501 -1.1357391
000090 43 7f 3b bf 52 04 7a be ad 3f 98 be cb 59 f4 3e
       -0.7324106 -0.2441571 -0.2973608 0.47724757
0000a0 42 84 57 be 67 a6 6b 3f 1c 5b 59 3d 1a 6e cb be
       -0.21046546 0.92050785 0.053065404 -0.39732438
0000b0 5d fa 7b 3f 53 43 09 3f 15 b3 82 3f 62 3e 6e be
       0.984289 0.53618354 1.0210901 -0.23265985
0000c0 ff c3 d9 bf 00 b7 a6 be 88 b5 e2 be 3b 2b 0b bf
       -1.7012938 -0.32561493 -0.44279122 -0.5436284
0000d0 a1 05 18 3e 72 b0 00 be 34 d1 ff be 7e 7a 3e be
       0.14845897 -0.12567309 -0.49964297 -0.18601415
0000e0 1e 33 d5 bd 5b 0b 4e bf f0 a8 81 be 12 49 22 3f
       -0.104101405 -0.8048608 -0.25324202 0.63392746
0000f0 53 cb a3 bd 04 b6 47 3e 3f b4 5c 3f 24 86 81 be
       -0.079977654 0.19503027 0.86212534 -0.25297654
000100 59 ec 55 3e 32 0a e8 3e f3 cd 27 3f b9 bc 94 3e
       0.2089094 0.45320278 0.6554863 0.29050234
000110 7e 6f 8b bf f2 7a 56 3d 14 f0 6e be 57 57 41 bf
       -1.08934 0.052363344 -0.2333377 -0.75523895
000120 7f 83 93 3e 0c 06 20 be d3 cc 89 bf f8 3d 13 bf
       0.2881126 -0.15627307 -1.0765632 -0.5751643
000130 a1 19 e6 be 8e be 41 bd ea 19 1e bf 5c c4 10 3e
       -0.44941428 -0.047300868 -0.6175829 0.14137405
000140 d6 62 1f bf 68 92 89 3e 3e 05 8b bd 9c 41 3c bd
       -0.62260187 0.26869512 -0.06788109 -0.045961007
000150 65 1d 92 3e eb d2 e7 3e fd 44 23 3f e8 5b 2c 3f
       0.2853805 0.45278105 0.6377714 0.6732774
000160 3d 65 64 3d 63 b6 22 bf 78 e7 11 bf a5 7f 0d 3e
       0.05576061 -0.6355955 -0.5699382 0.13818224
000170 b2 a2 fc 3e 4d 42 07 bf 1c 44 4c 3a 6c 73 58 be
       0.49342877 -0.5283554 0.00077921315 -0.2113778
000180 f8 08 da be c6 5a 4e be 22 4e 32 be 20 c2 a0 3e
       -0.42584968 -0.20151815 -0.17412618 0.31398106
000190 51 99 d1 bd 6a 2b 26 3f 05 7e 17 3e 8c 5b fc 3d
       -0.10234321 0.64909995 0.14794166 0.12322149
0001a0 21 b7 34 3f 43 1a 86 3e b4 cb 5f 3f 8c 9a 9b 3e
       0.7059193 0.2619191 0.874202 0.30391347
0001b0 fc 75 72 3d 52 6c 2a bf 87 05 f6 be f2 04 7b bf
       0.05919455 -0.66571534 -0.48051092 -0.9805442
0001c0 7b 96 b0 3e a6 2c 83 3d 3d 71 d9 bd c8 cb 43 bf
       0.34489807 0.064050004 -0.106173016 -0.7648282
0001d0 95 25 d3 be 41 0a 8e be 92 64 fb be 4d 1b 43 3e
       -0.4123961 -0.27742198 -0.49100167 0.19053383
0001e0 33 13 24 bf b3 e0 ac bd 85 a5 f6 3d 51 d2 9e be
       -0.64091796 -0.084412955 0.12043289 -0.31019834
0001f0 81 b2 0d 3e 32 5a f3 3e 34 20 3a 3c 78 b7 22 3f
       0.13837625 0.4752975 0.011360217 0.635612
000200 f5 c6 96 3f 66 4b fa be a0 b0 bf be 73 03 3b 3f
       1.1779467 -0.4888565 -0.37439442 0.7305214
000210 20 ae 11 3f 8f 88 e2 be 75 00 a0 3e 0a ba d2 be
       0.5690632 -0.4424481 0.3125035 -0.41157562
000220 de d9 95 be 19 17 07 be 84 7e 63 be f3 96 bc 3e
       -0.29267782 -0.13192405 -0.2221623 0.36833915
000230 31 1e 05 be 86 2b 16 3e 6a cb 42 3f c5 92 3a bf
       -0.12999798 0.1466504 0.76091635 -0.728802
000240 73 85 bc 3e 89 ff 64 3e ee e9 71 3f 1e 9d 62 bd
       0.36820564 0.22363104 0.94497573 -0.05532562
000250 93 e5 97 3e 30 5c df bd 61 78 22 be f5 5c bb bf
       0.2966734 -0.10906255 -0.15866233 -1.4637743
000260 ce 0c 20 3f b9 39 a2 bd 83 a7 95 bf 9d 64 56 bf
       0.6251954 -0.07921166 -1.1691746 -0.83747274
000270 dd ea e5 be ea 0a 1f be 6e 60 a8 be 44 0d d0 3e
       -0.4490575 -0.15531507 -0.3288607 0.4063512
000280 58 14 dc be eb 1e 10 3e 73 d9 9a 3e 4b 88 df be
       -0.4298427 0.14074294 0.30244026 -0.4365867
000290 68 34 30 3d 6e 03 e3 3e 42 9c db 3d 84 60 29 3f
       0.04301873 0.44338554 0.10723163 0.66162896
0002a0 51 73 9c 3e d8 56 5b be 90 ff ae be 3d 34 b2 3e
       0.3055673 -0.21419847 -0.34179354 0.3480548
0002b0 f5 9c c3 3e f8 93 2c bf a7 2d 13 3a 57 fa ac bd
       0.38205686 -0.6741328 0.0005614408 -0.08446186
0002c0 94 67 1d bf 89 77 dd be 1a 3c 37 be 7d fb bf 3e
       -0.6148617 -0.4325526 -0.1789402 0.37496558
0002d0 62 e7 8b be ed 87 43 3d bf 6a 37 3e d2 a4 7b be
       -0.2732497 0.04773705 0.17911814 -0.24574593
0002e0 9d 5a 29 3f ca 04 df 3e 35 ee ae 3e 5b 30 0d 3f
       0.6615389 0.4355834 0.34166113 0.5515191
0002f0 4e 6f 71 3f 68 1e b7 be ce 15 a5 be 4e 8a 36 be
       0.9431046 -0.35765386 -0.32243198 -0.17826197
000300 38 ac 19 3f ae 2c 0e bf b4 d9 80 bd 5b 03 47 3e
       0.6002841 -0.55536926 -0.062915236 0.19434874
000310 4e c0 85 be 91 17 a4 be be 37 15 bf 75 62 1f 3e
       -0.2612328 -0.3204923 -0.5828818 0.15564902
000320 a5 4d 95 be 04 64 5e 3f dd 38 18 3e 69 96 8a 3e
       -0.291608 0.8687136 0.14865442 0.2706788
000330 27 d9 52 3f 49 9e 09 3f 4d 75 4a 3f 5f 7e bf 3e
       0.823626 0.5375715 0.79085237 0.374011
000340 18 49 b4 bf dc 37 d2 be 3a 4b 89 bd 12 02 11 bf
       -1.4084806 -0.41058242 -0.067038015 -0.56643784
000350 3e 35 42 be e2 5b 88 bd bb ca 66 be f8 6c 2f be
       -0.18965623 -0.0665815 -0.22538273 -0.17131412
000360 55 18 9a 3c 2c 9c 7f be 30 00 80 bd bf 08 c2 3e
       0.01881043 -0.24961919 -0.06250036 0.37897298
000370 87 58 00 bf 72 3a 9a 3e 27 2c 4f 3e 80 d9 9a be
       -0.5013508 0.30122715 0.20231687 -0.30244064
000380 a9 cc 8e 3e 47 fd e2 3e f0 e9 06 3f 61 2d e5 3e
       0.27890518 0.4433386 0.5270071 0.44761184
000390 0f f8 00 3f 7d c6 13 bf 52 6e 27 bf ca c5 fa 3e
       0.5037851 -0.57724744 -0.6540271 0.48979026
0003a0 0a bc 1a 3f b3 4e 1e bf 9d 88 74 be f5 55 cf bd
       0.60443175 -0.61838835 -0.23880239 -0.10123817
0003b0 35 b8 07 bf 4d 8d bb be cf 92 0f bf 22 c9 83 3e
       -0.5301545 -0.3663124 -0.5608339 0.2573939
0003c0 07 42 17 bf fa e4 a9 3e ac f2 16 3e 8d 95 86 be
       -0.59085125 0.33182508 0.1474101 -0.26285973
0003d0 bf 6a a3 3e 49 7d 23 3e 7a fd 6c bd a4 6c 27 3f
       0.31917378 0.15965761 -0.05785892 0.6540015
0003e0 20 71 87 bf c6 fc a2 be 2d d5 47 be e1 e4 97 3e
       -1.0581398 -0.31833476 -0.19514914 0.29666808
0003f0 43 c6 07 3f 8f 2b 19 bf d7 7f 8d be 56 35 31 3e
       0.530369 -0.5983209 -0.27636597 0.17305502

fc4.bias f4 [13]
000000 59 0f d5 3e 21 6a 5c bf 3f dd bf be 6e 73 d9 be
       0.41613272 -0.8609944 -0.37473485 -0.42470878
000010 a1 ba be 3f 93 60 9f bf 3c e2 88 3f 1e d4 42 bf
       1.4900705 -1.2451347 1.0694041 -0.76104915
000020 39 2e f0 3f 95 05 b3 3f f8 de 94 bf 17 ed ae 3f
       1.8764106 1.3986079 -1.1630545 1.3666104
000030 12 15 e4 3f
       1.781893
