MRTAWorld_DQN/PruebaPosiciones/Caso1/DQN_model_3Tasks_Caso1.pth (torch, 7924 bytes, 8 tensors)

fc1.weight f4 [16, 21]
0	0x3e85cd58	0.26133227
1	0x3dc5a6a2	0.09650923
2	0xbe0980b3	-0.13428001
3	0xbdacff69	-0.08447153
4	0xbce3ee5a	-0.027823616
5	0xbb5c4c19	-0.0033614694
6	0x3e1071ba	0.14105883
7	0xbd944fed	-0.07241807
8	0x3e6303f1	0.22169472
9	0xbda8f653	-0.082501076
10	0xbdff113b	-0.12454458
11	0xbf109bd0	-0.5648775
12	0xbef40a87	-0.47664282
13	0xbe8b1a04	-0.27168286
14	0xbe7c6e96	-0.2465156
15	0xbe4f0e1d	-0.20220228
16	0x3c288617	0.010285876
17	0xbf11d6ed	-0.56968576
18	0xbe419f7f	-0.18908499
19	0x3dbf140a	0.09329994
20	0xbda41479	-0.08011717
21	0x3e81df97	0.25365898
22	0x3dc898d2	0.09794773
23	0xbde1409f	-0.109986536
24	0x3e0b8957	0.1362661
25	0xbc46b54c	-0.0121281855
26	0x3ddf8e0a	0.10915764
27	0x3e04ce6e	0.12969372
28	0xbd96e5f8	-0.07368082
29	0x3e507abc	0.2035932
30	0x3dce6900	0.10078621
31	0xbebc48ec	-0.36774385
32	0xbf02824c	-0.5098007
33	0xbed11d90	-0.40842867
34	0xbeb2d765	-0.34929958
35	0xbe8b25dc	-0.27177322
36	0xbf009281	-0.5022355
37	0xbdf0355d	-0.11728928
38	0x3f0cad4d	0.54951936
39	0x3e280935	0.16409762
40	0xbe9fc65a	-0.31206018
41	0x3d5119cf	0.051050004
42	0x3bcc95ae	0.006243429
43	0x3cd76d9b	0.026297381
44	0x3d5d2914	0.053994253
45	0x3cfe687a	0.031055678
46	0x3bc9f12b	0.0061627827
47	0x3d1bc16d	0.038026262
48	0x3ceb37f4	0.028713204
49	0x3f08eb5d	0.53484136
50	0xbf0fdcd2	-0.5619632
51	0xbcd3996c	-0.025829993
52	0x3f71d260	0.9446163
53	0x3f5babf3	0.8580925
54	0x3f2d3616	0.67660654
55	0xbe20f8e6	-0.15719947
56	0xbee24a19	-0.44197157
57	0x3d73b85a	0.059501983
58	0x3dcba936	0.09944384
59	0x3d8bf848	0.06834465
60	0x3ddb2c70	0.10701835
61	0xbdaf25ad	-0.08552108
62	0xbd42fa69	-0.04760209
63	0xbe50de51	-0.20397307
64	0x3c9d23e4	0.019182153
65	0x3cc2f182	0.0237968
66	0xbd864978	-0.06556982
67	0xbde2a6b5	-0.11066953
68	0xbcbf260f	-0.023333577
69	0xbe1b442e	-0.15162727
70	0xbe181f86	-0.14855775
71	0x3dba1c1a	0.09087391
72	0xbdc43cf1	-0.09581936
73	0xbeefef80	-0.46862411
74	0xbf2cd941	-0.67519003
75	0xbef6abb3	-0.4817787
76	0xbe502a43	-0.20328622
77	0xbeae54f9	-0.34049204
78	0xbb52d3d7	-0.0032169723
79	0xbeb509c4	-0.35359013
80	0x3dfedb74	0.12444201
81	0x3ea17516	0.31534642
82	0x3ef9c690	0.48784304
83	0xbf0100a9	-0.5039163
84	0x3d811f4c	0.063047975
85	0x3dafd691	0.08585847
86	0x3e88b483	0.2670022
87	0x3e62fbca	0.22166362
88	0x3e76a73d	0.24087234
89	0x3b5994c5	0.0033200246
90	0x3de4a10d	0.111635305
91	0xbe08cb17	-0.13358723
92	0x3dba3003	0.09091189
93	0x3d4bc3c6	0.04974725
94	0xbecbc789	-0.3980067
95	0xbdbb1198	-0.09134215
96	0xbe9f0237	-0.31056377
97	0xbdc3c08f	-0.09558212
98	0x3e8eccc1	0.2789059
99	0xbe0c64db	-0.13710348
100	0xbe3511e3	-0.17682604
101	0xbc10847d	-0.00882065
102	0xbd32cde1	-0.043653373
103	0xb9456f0f	-0.00018828757
104	0x3e56ece6	0.20988807
105	0x3e0cc221	0.1374593
106	0xbe513b30	-0.20432734
107	0xbe1b6a7c	-0.1517734
108	0x3e25292e	0.1612899
109	0x3e18327b	0.14863007
110	0xbd8c30ef	-0.06845271
111	0x3e0cb8ac	0.13742322
112	0xbe939cf1	-0.28830674
113	0x3eb31665	0.34978023
114	0x3e0833a8	0.13300955
115	0xbeabbb26	-0.3354122
116	0xbe9d5d4f	-0.3073525
117	0xbebbb16c	-0.366588
118	0xbe7de499	-0.24794234
119	0x3e4f98c5	0.2027312
120	0x3c8c9a4c	0.017163418
121	0x3e54aa97	0.207682
122	0xbdeeb90e	-0.1165639
123	0xbe9fb6cd	-0.31194153
124	0xbcec726d	-0.028863156
125	0xbea1868f	-0.31547973
126	0x3d1dae64	0.03849639
127	0x3da46ade	0.08028196
128	0x3e4fc314	0.2028926
129	0xbdb4423c	-0.08801696
130	0xb8864017	-6.4015556e-05
131	0xbdb4a3d2	-0.08820309
132	0x3db49629	0.08817703
133	0x3dbede6d	0.09319768
134	0x3e6f48db	0.23367636
135	0x3d0d2669	0.03446046
136	0x3ed72b89	0.42025402
137	0xbedbd2fd	-0.4293441
138	0xbe66cc34	-0.22538835
139	0x3e8c7d04	0.2743913
140	0x3d48f5ea	0.049062647
141	0xbdd3dace	-0.10344468
142	0x3f619697	0.88120407
143	0xbf0ade11	-0.54245096
144	0xbf04a79d	-0.5181826
145	0xbd6389b7	-0.055551257
146	0x3d58e425	0.05295195
147	0xbd7d7a06	-0.06188395
148	0x3d1e696b	0.038674753
149	0xbdda83e0	-0.106696844
150	0xbdf7bb81	-0.120963104
151	0xbe73b3f8	-0.23799121
152	0xbe499f38	-0.19689643
153	0xbe2fb630	-0.17159343
154	0xbe922d9f	-0.2855043
155	0x3ddbcfe7	0.107330136
156	0xbc55c49b	-0.013047363
157	0xbf0d02d7	-0.5508246
158	0xbedbd39d	-0.42934886
159	0xbe7f9839	-0.24960412
160	0xbdb77efd	-0.08959768
161	0xbe65a52d	-0.22426291
162	0xbdbe8b4d	-0.09303913
163	0x3e472203	0.19446568
164	0x3e7f8ade	0.24955317
165	0xbe37cae9	-0.17948498
166	0xbf081451	-0.53156
167	0x3f22fcca	0.63666975
168	0x3e6a89c2	0.22904113
169	0x3e3c2b71	0.18375947
170	0x3e10029a	0.14063492
171	0x3e3d4278	0.18482387
172	0x3d6a6b34	0.057231143
173	0x3dbd0fa0	0.09231496
174	0x3e65280d	0.2237856
175	0x3e428a53	0.18998079
176	0x3e8ada7a	0.2711981
177	0x3dbc8e26	0.092068
178	0xbe42d7b3	-0.19027595
179	0xbea32692	-0.31865364
180	0xbe8ebe2c	-0.27879465
181	0x3d77a190	0.060456812
182	0x3ea9bba1	0.33150962
183	0x3ec5f294	0.38661635
184	0xbf0695ce	-0.52572334
185	0xbe895969	-0.26826027
186	0x3dd1ea57	0.10249775
187	0xbddc48c7	-0.10756069
188	0xbe55ad21	-0.20866825
189	0x3eb26dc1	0.3484936
190	0x3e45ed61	0.19328834
191	0x3eb24a9b	0.34822544
192	0x3ef472d5	0.4774386
193	0x3eaf8781	0.3428307
194	0x3eb0027a	0.3437689
195	0x3ee573c2	0.4481488
196	0x3ef24da9	0.47324875
197	0x3e2e684b	0.17031972
198	0x3e7bcd6c	0.24590081
199	0x3dc4229b	0.09576913
200	0x3d8bdb3e	0.068289265
201	0xbdae6861	-0.085160024
202	0xbf08c7bf	-0.5342979
203	0xbf151f49	-0.5825086
204	0xbe828e1b	-0.25499043
205	0x3d927b1c	0.071523875
206	0x3e175f6f	0.14782499
207	0x3bbfe593	0.005856225
208	0xbacc41f2	-0.0015583618
209	0x3d15e006	0.0365906
210	0xbdf87a78	-0.12132734
211	0x3e6d8cad	0.23198195
212	0x3d2596c2	0.040426977
213	0x3e89d314	0.26918852
214	0x3e2c6d42	0.16838554
215	0x3e3f43fd	0.18678279
216	0x3a943881	0.0011308343
217	0x3e0770cf	0.13226627
218	0x3dff4d5b	0.12465926
219	0x3c06c1fa	0.008224959
220	0xbee22b05	-0.44173446
221	0xbe406dae	-0.1879184
222	0xbe875112	-0.2642904
223	0x3dec23a7	0.11530238
224	0x3dd83761	0.10557438
225	0xbe17758a	-0.14790931
226	0xbea36e75	-0.3192021
227	0x3eb0bd9e	0.34519666
228	0xbd836619	-0.06415958
229	0xbd694734	-0.05695267
230	0xbe05c0f5	-0.13061889
231	0x3dea374f	0.114363305
232	0x3d6875d6	0.056753002
233	0x3de16953	0.11006417
234	0x3da32189	0.07965381
235	0x3e6bfc19	0.23045386
236	0x3dea828b	0.1145068
237	0xbd55843e	-0.05212807
238	0xbcc3bc67	-0.023893548
239	0x3e03ffb1	0.12890507
240	0xbd0aca26	-0.03388419
241	0xbee4bc52	-0.44674927
242	0xbe36a29a	-0.17835465
243	0xbe0f56aa	-0.13997903
244	0x3e02dd8b	0.12779824
245	0x3d1d9688	0.038473636
246	0x3e5e1ae2	0.21689942
247	0xbd0cb1b2	-0.03434915
248	0x3df9f8fd	0.12205694
249	0xbe935093	-0.2877241
250	0x3dee4389	0.11633975
251	0xbe14b880	-0.14523506
252	0x3c585322	0.013203414
253	0x3cb11f1d	0.021621281
254	0x3b3d5141	0.0028887542
255	0xbc7d35ac	-0.015454691

fc1.bias f4 [16]
0	0x3f8eb63c	1.1149364
1	0x3f81b151	1.0132238
2	0x3fb0c607	1.3810433
3	0x3f6e3078	0.9304271
4	0x3f623535	0.8836244
5	0x3f6dc307	0.92875713
6	0x3f253eca	0.64548934
7	0x3f557137	0.8337588
8	0x3f53aeba	0.82688487
9	0xbee85167	-0.45374605
10	0x3f82162f	1.016302
11	0x3f86638e	1.0499132
12	0xbf8ead56	-1.1146648
13	0x3f8c153a	1.0943978
14	0xbf4b8b20	-0.7950916
15	0x3f57a3ca	0.842343

fc2.weight f4 [16, 16]
0	0x3f5947b4	0.84875035
1	0x3f041272	0.51590645
2	0xbf90c1b4	-1.1309114
3	0x3f61220f	0.87942594
4	0x3eb7de63	0.35911855
5	0x3ef2a382	0.47390372
6	0x3ec6d32f	0.38832995
7	0x3e63d6f1	0.22249962
8	0x3deb7bf5	0.11498252
9	0xbf06095d	-0.5235804
10	0x3f1a701b	0.6032731
11	0x3e8be56c	0.27323472
12	0xbfce78d0	-1.6130619
13	0x3edd9ef7	0.43285343
14	0xbf427866	-0.75964963
15	0x3f5670ff	0.8376617
16	0x3ea7aa40	0.32747078
17	0xbe2e45c3	-0.170188
18	0x4012e33b	2.295119
19	0xbeb9dd69	-0.36301735
20	0x3f0260bd	0.5092886
21	0x3ec32794	0.38116133
22	0x3f5f06ad	0.8711956
23	0x3f08eeb3	0.53489226
24	0x3f0a7695	0.5408719
25	0xbf88a82e	-1.0676324
26	0x3e8ad1cc	0.27113187
27	0x3f0d5621	0.5520955
28	0xc0117133	-2.2725341
29	0x3ef2e801	0.4744263
30	0xbfa01d1f	-1.2508887
31	0x3b97beb8	0.0046308897
32	0xbd124fb5	-0.035720546
33	0xbf66fbc0	-0.9022789
34	0xbe9cb24c	-0.3060478
35	0xbfc8a079	-1.5673972
36	0x3e04ace2	0.12956575
37	0xbe95d735	-0.29265752
38	0x3f9b2b65	1.2122618
39	0xbdcd338b	-0.10019597
40	0x3eea3e6f	0.45750758
41	0x3e131e6f	0.14367078
42	0xbf610ab5	-0.8790696
43	0xbeafc86f	-0.34332606
44	0x400651fe	2.0987544
45	0xbe13fcfd	-0.14451976
46	0x3e679fde	0.22619578
47	0xbf2c0f0f	-0.6721048
48	0x3ea40326	0.32033652
49	0xbef3f750	-0.47649622
50	0x3e376af6	0.17911896
51	0xbf0f83d0	-0.56060505
52	0xbf0936fd	-0.5359953
53	0xbe6e64cc	-0.23280638
54	0x3f20bf34	0.6279175
55	0xbf30ab89	-0.6901174
56	0x3e731f34	0.23742372
57	0x3ea8ca3f	0.32966802
58	0xbf3ef94d	-0.7459915
59	0xbf1fffa0	-0.6249943
60	0x40016d6a	2.022303
61	0xbeb3d9c5	-0.35127082
62	0xbd980183	-0.07422163
63	0x3ddab011	0.10678113
64	0x3f02927a	0.51004755
65	0xbf1f3828	-0.6219506
66	0xc039ecaa	-2.9050698
67	0xbec98d8f	-0.39365813
68	0xbee9cd86	-0.45664614
69	0x3e4fbe8c	0.20287532
70	0x3f685f64	0.90770555
71	0xbe73ba2d	-0.23801489
72	0xbf4c7006	-0.79858434
73	0x3f2eafb6	0.68236864
74	0xbf53be5d	-0.82712346
75	0xbf568545	-0.83797103
76	0x3ff4e127	1.9131211
77	0xbee7f6ee	-0.4530558
78	0xbe8acc11	-0.27108815
79	0x3e672b73	0.22575168
80	0xbe7bb57f	-0.24580954
81	0xbe7ba6e3	-0.24575381
82	0xbfaa5dd4	-1.3309884
83	0xbee1093d	-0.4395236
84	0xbeb69de2	-0.3566733
85	0xbeb2f859	-0.349551
86	0xbecba221	-0.39772132
87	0x3d0ec7e3	0.034858596
88	0xbefb3947	-0.49067137
89	0x3f311a3a	0.69180644
90	0x3c3afd5e	0.0114129465
91	0xbf2f5500	-0.68489075
92	0x3fd8ac7b	1.6927637
93	0xbf00d604	-0.5032656
94	0x3f933782	1.1501315
95	0xbe5ee06e	-0.217653
96	0xbe8addfb	-0.27122483
97	0xbe9ca576	-0.30594987
98	0xbfc1f7bf	-1.5153731
99	0xbeadf6f1	-0.33977464
100	0xbebf01ca	-0.37306052
101	0xbef39a30	-0.47578573
102	0xbe756a73	-0.23966388
103	0xbefcd089	-0.4937785
104	0xbef4a7ba	-0.47784215
105	0x3efb367c	0.49065006
106	0xbe5e1106	-0.21686181
107	0xbf14b1e6	-0.5808395
108	0x3ff51039	1.9145576
109	0xbecc763f	-0.39933965
110	0x3f48bef0	0.7841635
111	0xbe8a2634	-0.26982272
112	0xbc547238	-0.012966685
113	0xbe6eeb6b	-0.23331992
114	0xbfe4799c	-1.7849612
115	0xbf2fe99a	-0.6871582
116	0x3dd3d14f	0.10342657
117	0xbe123de0	-0.14281416
118	0x3f115af6	0.5677942
119	0xbef82ccf	-0.48471686
120	0xbc2531fc	-0.010082718
121	0x3f578e33	0.84201354
122	0xbeeece83	-0.4664193
123	0xbf2b6ee8	-0.66966105
124	0x4018e899	2.3891966
125	0xbed20fb4	-0.41027606
126	0x3e3abcd3	0.18236093
127	0xbd1120bb	-0.035431605
128	0x3cbc3a33	0.02297697
129	0xbe3873cd	-0.18012924
130	0xc04d1119	-3.2041686
131	0x3e5b8fac	0.21441525
132	0xbec163dd	-0.37771502
133	0x3e64b81a	0.22335854
134	0xbe81af6f	-0.25329158
135	0xbe9b5448	-0.3033774
136	0xbef9914b	-0.48743662
137	0x3f4b8363	0.79497355
138	0xbe2506c4	-0.16115862
139	0xbec9b82f	-0.39398333
140	0x4003924f	2.055805
141	0xbf304f53	-0.6887104
142	0x3c1fb7d5	0.009748419
143	0x3d2249fc	0.03962134
144	0x3e179c1c	0.14805645
145	0x3eba2803	0.36358652
146	0x3fb66e3c	1.4252391
147	0xbe262854	-0.16226321
148	0x3f04ed1b	0.51924294
149	0x3e71d4e6	0.2361637
150	0xbdb67065	-0.08908156
151	0x3eed9c9b	0.46408543
152	0x3ecc3ece	0.39891666
153	0xbf64deaf	-0.8940229
154	0x3f0e182b	0.5550563
155	0x3e5024e3	0.20326571
156	0xc004bdc1	-2.0740817
157	0x3f1bd710	0.60875034
158	0xbf53e1c8	-0.8276639
159	0x3ea5d200	0.3238678
160	0x3f0ac154	0.54201245
161	0x3f1385ba	0.57625926
162	0xbed801d4	-0.42188895
163	0x3f120af5	0.5704797
164	0x3ebe7bb1	0.37203744
165	0x3ef68ef5	0.48155943
166	0x3f0c7be1	0.54876524
167	0x3ee5e9e6	0.44905013
168	0xbc8ad733	-0.016948318
169	0xbf228b7b	-0.6349408
170	0x3ed855b4	0.42252886
171	0x3eacda7f	0.3376045
172	0xc0022617	-2.0335748
173	0x3f2830e4	0.656996
174	0xbf2426c7	-0.6412167
175	0x3f0bf10f	0.546647
176	0x3ec22517	0.37918922
177	0xbe2293d1	-0.158767
178	0x40194428	2.394785
179	0x3f630963	0.886862
180	0x3e742838	0.23843467
181	0x3eacdf83	0.33764276
182	0xbd801daf	-0.06255662
183	0xbf1fe815	-0.62463504
184	0x3f7a4f2c	0.97777057
185	0xbf68f9fd	-0.9100645
186	0x3eef606c	0.46753252
187	0x3f1736cc	0.5906799
188	0xbfe939a7	-1.8220719
189	0x3d64f8d4	0.055901363
190	0xbf822ab0	-1.0169277
191	0x3e622c92	0.22087315
192	0x3f1712bb	0.59012955
193	0x3e990b40	0.29891396
194	0xbe07439d	-0.13209386
195	0x3f1e1281	0.61746985
196	0x3eb5f75b	0.3554028
197	0x3f3199f7	0.69375557
198	0x3e5e4518	0.21706045
199	0x3f0cbab8	0.5497241
200	0x3d2edd06	0.042691253
201	0xbed85418	-0.42251658
202	0x3e0e466b	0.1389405
203	0x3f2661ce	0.6499299
204	0xbfe678a0	-1.8005562
205	0x3ec716bd	0.38884535
206	0xbf8a2904	-1.0793767
207	0x3ec5f5f5	0.38664213
208	0x3d532925	0.05155291
209	0xbf37f0e5	-0.7185195
210	0xbe5b683a	-0.21426478
211	0xbf1cc671	-0.612403
212	0xbda46ab0	-0.080281615
213	0xbe099657	-0.13436256
214	0x3f39aeaa	0.7253214
215	0xbe945ed4	-0.28978598
216	0xbd9a8ab4	-0.07545987
217	0x3e55f4ca	0.20894161
218	0xbeae318d	-0.3402218
219	0xbd787c7a	-0.060665585
220	0x4018a76a	2.3852181
221	0xbdc3c778	-0.0955953
222	0xbe39e4bd	-0.18153663
223	0x3e01f0fe	0.12689587
224	0x3dc9f962	0.09862019
225	0x3f268ffd	0.6506346
226	0x3e279f53	0.16369371
227	0x3e1f4ef6	0.15557465
228	0x3f1b648f	0.60700315
229	0xbd97ac5f	-0.07405924
230	0xbe9c5580	-0.3053398
231	0x3f53969b	0.8265168
232	0x3e4787ae	0.19485351
233	0xbecedc01	-0.40402225
234	0x3f203bc3	0.6259119
235	0x3e4074e4	0.1879459
236	0xc013debd	-2.3104699
237	0x3ee77c3b	0.45211968
238	0x3d69d2c3	0.057085764
239	0xbddad1e3	-0.10684564
240	0xbed2e97f	-0.41193768
241	0x3d3348cf	0.043770608
242	0xc00db765	-2.2143185
243	0x3f23f6a8	0.6404824
244	0xbe982ee1	-0.29723266
245	0xbf2a908b	-0.66626805
246	0xbfa83834	-1.3142152
247	0xbf4f0bd7	-0.8087744
248	0xbebb4ef8	-0.36583686
249	0x3f058ccb	0.5216796
250	0x3e62fc42	0.22166541
251	0xbf0e1b3b	-0.555103
252	0x3fffadf3	1.997496
253	0xbef15214	-0.47132933
254	0x3f5bcd2d	0.8585995
255	0xbec2b552	-0.3802896

fc2.bias f4 [16]
0	0x3f5ce4e8	0.86286783
1	0x3f8511c5	1.0396048
2	0xbf80b86a	-1.0056279
3	0xbf8bacc7	-1.0912102
4	0xbf76649d	-0.96247274
5	0xbf8007eb	-1.0002416
6	0xbf619efa	-0.88133204
7	0xbf6cafa8	-0.9245553
8	0xbf7f6d7e	-0.99776447
9	0x3f81601b	1.0107454
10	0x3f799e1d	0.97506887
11	0x3f1f9de1	0.6235028
12	0x3f7232c8	0.94608736
13	0xbf8312fd	-1.024017
14	0x3f41cc32	0.757022
15	0xbf4e41c2	-0.8056909

fc3.weight f4 [16, 16]
0	0xbfab7bee	-1.3397195
1	0x3fa664eb	1.2999548
2	0x3faa9daa	1.3329365
3	0x3dabd1d2	0.083896294
4	0xc0208982	-2.5083928
5	0xbf0a93e0	-0.5413189
6	0xbde0cc1d	-0.109764315
7	0xbf1eabbe	-0.6198081
8	0xc012a94a	-2.2915826
9	0x3f11ae7a	0.56906855
10	0xbf20ecdc	-0.6286142
11	0x3f5f2534	0.8716614
12	0xbf2a35d6	-0.664884
13	0x3f3bb7a5	0.73327094
14	0xbe6aa8d1	-0.22915961
15	0xbf9fcee9	-1.2485019
16	0xbe9b7979	-0.30366114
17	0x3fd8d9ef	1.6941508
18	0x3e5fb289	0.2184545
19	0xbedc58db	-0.4303654
20	0xbfb0e140	-1.3818741
21	0xbf4b7465	-0.7947448
22	0xbf3bf71e	-0.73423946
23	0xbf8ca3a4	-1.0987439
24	0xbff4c06f	-1.9121226
25	0x3f83fe49	1.0311977
26	0x3d6602c6	0.05615499
27	0x3f739c9b	0.95160836
28	0x3e9ea232	0.3098312
29	0xbe0a6878	-0.13516414
30	0x3e8a661b	0.27031025
31	0xbfcaedf3	-1.5853866
32	0x3d590251	0.052980725
33	0x3eeebdca	0.46629173
34	0xbf8b1cd5	-1.0868174
35	0xbf949788	-1.1608744
36	0xc0031f70	-2.0487938
37	0xbe8829bf	-0.2659435
38	0xbeee135c	-0.46499145
39	0xbf8ae768	-1.085187
40	0xbf9971fb	-1.1987909
41	0x3f618e66	0.8810791
42	0x3e04fb76	0.1298655
43	0x3ebf94bc	0.37418163
44	0x3e02961d	0.12752576
45	0xbfdb7965	-1.7146422
46	0x3f879e6c	1.0595222
47	0xbc04fcac	-0.008116882
48	0x3f3d76a3	0.7400915
49	0x3f988298	1.1914854
50	0x3f2cd83d	0.67517453
51	0x3ecece02	0.40391546
52	0x3f0989e6	0.5372604
53	0xbf4b6f3a	-0.79466593
54	0xbf277468	-0.65411997
55	0x3eb6385c	0.35589874
56	0xbf49df00	-0.78855896
57	0x3f1f5c22	0.6224996
58	0x3ef6e484	0.4822122
59	0x3f6e94d2	0.9319583
60	0x3f3a62fd	0.72807294
61	0x3ef76bb8	0.4832437
62	0x3d007a8c	0.03136687
63	0xbf96b65e	-1.1774404
64	0x3f6312ec	0.8870075
65	0x3e2cb31e	0.16865203
66	0xbf333c36	-0.7001375
67	0xbf89d7b2	-1.076895
68	0x3f690698	0.91025686
69	0xbe873ef5	-0.2641522
70	0xbeb3dff5	-0.35131803
71	0xbea0927e	-0.31361765
72	0x3eb8c8ef	0.360908
73	0x3f02a0df	0.5102672
74	0x3f50475a	0.81358874
75	0xbf84dc98	-1.037982
76	0x3f81fc10	1.0155048
77	0xbf40cc60	-0.7531185
78	0x3f2035f4	0.62582326
79	0xbf3c655b	-0.73592156
80	0xbf0fdc1f	-0.56195253
81	0xbf329fd2	-0.69775116
82	0x3f79465c	0.97372985
83	0x3d7b82b9	0.061403964
84	0x3f6be86b	0.92151517
85	0x3f212d77	0.6296
86	0x3f01e5bd	0.5074118
87	0x3f5beea6	0.85911024
88	0x3fa17135	1.2612673
89	0xbf39e7e1	-0.72619444
90	0xbf11bb97	-0.56926864
91	0xbf87d4af	-1.0611781
92	0xbeacc2bd	-0.33742324
93	0x3f1887a7	0.5958199
94	0xbe9ebac9	-0.3100188
95	0x3e36da7b	0.17856781
96	0x3eb34af8	0.35018134
97	0x3f20aff0	0.6276846
98	0xbf3d7884	-0.7401202
99	0xbeaab338	-0.33339858
100	0xbf04fd00	-0.5194855
101	0xbee8f0d4	-0.45496237
102	0xbf1a5ac2	-0.60294735
103	0xbf6ff046	-0.93726003
104	0xbfa37cfd	-1.2772518
105	0x3ee89a2c	0.45430124
106	0x3ec4902a	0.38391238
107	0x3ee80d09	0.45322445
108	0x3eb64955	0.35602823
109	0xbf0518a6	-0.51990736
110	0x3e8d0f86	0.27550906
111	0xbf55adf8	-0.8346858
112	0x3f435be4	0.7631209
113	0xbe030501	-0.12794878
114	0xbfdf77cb	-1.7458433
115	0xbec4ce9e	-0.38438886
116	0xbf41b7ea	-0.75671256
117	0xbf562a99	-0.8365875
118	0xbeb59eb7	-0.35472652
119	0xbf8b4146	-1.0879295
120	0xbe3bfe12	-0.18358639
121	0x3e9a2a59	0.30110434
122	0x3f06914a	0.52565444
123	0x3fb133f1	1.3843976
124	0x3f41246c	0.754462
125	0xbf538fb8	-0.8264117
126	0xbd8c6192	-0.068545476
127	0x3eb9199e	0.36152357
128	0xbf1210af	-0.5705671
129	0x3f0dcf06	0.5539402
130	0x3fe3ff08	1.7812204
131	0x3faa9b89	1.3328716
132	0x3fb31b65	1.3992735
133	0xbcb76200	-0.022385597
134	0x3e7b3f4d	0.24535866
135	0x3f455bd8	0.7709327
136	0xbe2c3894	-0.16818458
137	0xbde6eed9	-0.11276025
138	0xbe89eeea	-0.2694009
139	0xbf773279	-0.9656139
140	0xbf2bb06f	-0.6706609
141	0x3fe6a46e	1.801893
142	0xbf805eaf	-1.0028895
143	0xbfbdff82	-1.48436
144	0x3e68940e	0.22712728
145	0xbfd2c0ff	-1.6465148
146	0xbfc49e92	-1.5360892
147	0xbeb0d8ae	-0.34540313
148	0x3ec2fdb8	0.38084197
149	0x3f1ea9ef	0.6197805
150	0x3f3674d5	0.7127202
151	0x3eb4f198	0.3534057
152	0x3fdab986	1.7087867
153	0xbf7b2fc2	-0.9811975
154	0xbf1a1211	-0.6018382
155	0xbed5a45b	-0.41726956
156	0xbe980fe3	-0.2969962
157	0xbf0d2b5b	-0.5514428
158	0xbefeb285	-0.49745575
159	0x40293d8b	2.6443813
160	0xbf4deaa7	-0.80436176
161	0x3f184450	0.59479237
162	0x3fd4665a	1.6593735
163	0x3fa7c67b	1.3107446
164	0x3fa7817b	1.3086389
165	0x3d97ef0c	0.074186414
166	0x3ebfe840	0.3748188
167	0x3f38268e	0.7193383
168	0xbee43eb2	-0.44579083
169	0xbf07466e	-0.5284184
170	0xbe81dd9b	-0.25364384
171	0xbf145639	-0.57944065
172	0xbf1b24d4	-0.6060307
173	0x3fb94c07	1.4476327
174	0xbf5ebbde	-0.8700541
175	0xbfb67d38	-1.4256964
176	0xbf48e8a4	-0.7847998
177	0xbfa24543	-1.2677387
178	0xbf335c45	-0.7006267
179	0xbed9c934	-0.42536318
180	0xbfa96073	-1.3232559
181	0x3f557828	0.8338647
182	0x3f365321	0.71220595
183	0xbd27bf0a	-0.040953673
184	0x3f20d15a	0.62819445
185	0xbf0ec6a6	-0.55771863
186	0xbf27eb0d	-0.65593034
187	0xbf12b457	-0.57306427
188	0xbf6a0463	-0.91412944
189	0xbe642afa	-0.2228202
190	0xbdc22c45	-0.094811
191	0x3fe5ca37	1.7952336
192	0xbe12bda5	-0.14330156
193	0xbfc9cfa3	-1.5766491
194	0xbf7470e3	-0.9548475
195	0xbbf0be15	-0.0073468783
196	0x3ea02fd5	0.31286493
197	0x3f349882	0.7054521
198	0x3f11beca	0.56931746
199	0x3f02dc35	0.5111726
200	0x3fd8e46c	1.6944709
201	0xbf8a6754	-1.0812783
202	0xbea42853	-0.32062015
203	0xbe38bdb8	-0.18041122
204	0xbe8dd1d6	-0.27699155
205	0xbe3f3d1c	-0.18675655
206	0xbf15c970	-0.58510494
207	0x3ff287ba	1.894767
208	0x3f44b837	0.7684359
209	0x3f0a97ae	0.54137695
210	0xbe988df0	-0.2979579
211	0xbf22895b	-0.6349084
212	0x3de15118	0.110017955
213	0xbed40e73	-0.41417274
214	0xbe919c07	-0.28439352
215	0xbea7bd8d	-0.32761803
216	0x3c493e4d	0.01228292
217	0x3f1eebce	0.6207856
218	0x3f1f99cc	0.6234405
219	0x3e561eb1	0.20910145
220	0x3f0d0e23	0.55099696
221	0xbf3475f7	-0.704925
222	0x3f1ad8e1	0.6048718
223	0xbec37402	-0.38174444
224	0x3ef28bb1	0.473722
225	0x3e7d7552	0.24751785
226	0xbfa082e5	-1.2539946
227	0xbf7129ee	-0.94204605
228	0xbf3f45dd	-0.7471598
229	0xbed62126	-0.41822165
230	0xbf1b6e29	-0.60714966
231	0xbf2a517e	-0.665306
232	0xbee34255	-0.44386545
233	0x3f0ad870	0.5423651
234	0x3e8b1602	0.27165228
235	0x3f843175	1.0327593
236	0x3f12ccce	0.5734376
237	0xbf98a7b3	-1.1926178
238	0x3f1eb262	0.6199094
239	0x3de02fe3	0.10946634
240	0xbf7a5d17	-0.97798294
241	0x3f5a78bb	0.8534047
242	0x3fd1b95f	1.6384696
243	0x3f295025	0.66137916
244	0xbe54737d	-0.2074718
245	0x3e188166	0.14893112
246	0x3d9be302	0.07611658
247	0x3e48b31b	0.19599573
248	0xbf5def6e	-0.86693466
249	0x3e0d489a	0.13797227
250	0xbeb31714	-0.34978545
251	0xbf7a87f2	-0.97863686
252	0xbf4e1a3e	-0.8050879
253	0x3f832648	1.0246058
254	0xbe081a11	-0.13291194
255	0xbf925d01	-1.1434633

fc3.bias f4 [16]
0	0x3b115387	0.002217503
1	0x3ec44636	0.38334817
2	0x3f620dcd	0.8830231
3	0x3f3fcdcf	0.74923414
4	0x3fcab238	1.5835638
5	0xbee9527f	-0.45570752
6	0x3f520bd6	0.8204931
7	0x3f20d6d8	0.62827826
8	0xbed08191	-0.4072385
9	0xbf3ab1fe	-0.72927845
10	0xbf4297e4	-0.76013017
11	0xbf8799b5	-1.0593783
12	0xbf6f8867	-0.9356751
13	0x3f2451a2	0.6418706
14	0x3f2e2c77	0.680366
15	0xbf4e01e7	-0.8047165

fc4.weight f4 [13, 16]
0	0x3e5252ae	0.20539352
1	0xbe941ec0	-0.2892971
2	0xbe9b5ce0	-0.30344296
3	0x3f161af0	0.58634853
4	0xbe393768	-0.18087542
5	0x3e010200	0.12598419
6	0xbe65250d	-0.22377415
7	0xbe0c782f	-0.13717721
8	0xbd2a1555	-0.04152425
9	0xbddd9cc3	-0.108209155
10	0x3a93fdf5	0.0011290895
11	0xbed5e23c	-0.41774166
12	0xbda9158d	-0.082560636
13	0x3dbe73b9	0.09299416
14	0xbd6d229c	-0.057894334
15	0xbd4eae1e	-0.05045902
16	0x3f9c7c57	1.2225446
17	0x3e935eea	0.2878335
18	0x3d263406	0.040576957
19	0x3f2abf3a	0.6669804
20	0x3e52cbcf	0.2058556
21	0xbe9e8d63	-0.30967245
22	0x3ec6a241	0.38795665
23	0x3ee051b2	0.4381233
24	0xbefff2c2	-0.49989897
25	0xbe2f86fb	-0.17141335
26	0xbdb729f1	-0.089435466
27	0xbe9e60a5	-0.3093311
28	0xbe22101a	-0.15826455
29	0x3eb33a56	0.35005444
30	0x3e8c9546	0.27457637
31	0xbf1b25f9	-0.60604817
32	0x3f08095d	0.5313929
33	0x3f56f087	0.83960766
34	0x3f01535f	0.5051784
35	0x3e8f4aea	0.27986842
36	0x3f146d5b	0.57979363
37	0xbe37ad3e	-0.1793718
38	0x3e6b125f	0.22956227
39	0x3d22ff21	0.03979409
40	0x3e039ddc	0.12853187
41	0xbf6472a2	-0.89237416
42	0x3df8a62b	0.12141069
43	0xbf041550	-0.5159502
44	0xbf3ac4dd	-0.7295664
45	0x3e511840	0.20419407
46	0x3e4bbdf9	0.19896688
47	0x3f1bd0ea	0.6086565
48	0x3eb8be36	0.3608262
49	0x3f312897	0.6920256
50	0x3cb4818f	0.022034435
51	0x3f250ce6	0.64472806
52	0x3d428403	0.047489177
53	0xbf1dbfc2	-0.61620724
54	0x3f0b6497	0.5445036
55	0x3f03734e	0.51347816
56	0x3e5cc422	0.21559194
57	0xbf3b417e	-0.7314681
58	0x3c9eeccc	0.019400023
59	0xbf16b00c	-0.58862376
60	0xbf213783	-0.6297533
61	0x3e1ce325	0.15321024
62	0x3e51363f	0.2043085
63	0xbd0bfdd6	-0.034177624
64	0x3f1c17be	0.6097373
65	0xbd6131ea	-0.054979242
66	0x3ec64800	0.38726807
67	0x3ee76b3d	0.45199004
68	0x3f125651	0.5716296
69	0xbe7db715	-0.24776872
70	0x3f0eadd9	0.5573402
71	0x3f033e31	0.5126677
72	0xbf24dc53	-0.6439869
73	0xbea68f4d	-0.32531205
74	0xbf2c58ea	-0.6732317
75	0xbedd56f1	-0.43230394
76	0xbec73d66	-0.3891403
77	0x3eaa3dea	0.33250362
78	0x3ed44e68	0.4146607
79	0xbf109906	-0.56483495
80	0x3f0239e9	0.50869614
81	0x3f3158e5	0.6927627
82	0x3eb13cf6	0.34616822
83	0x3f05d4bd	0.5227774
84	0x3e6f562f	0.2337272
85	0xbea32313	-0.31862697
86	0x3eb9d025	0.36291614
87	0xbdd17458	-0.10227269
88	0x3e056eaf	0.13030504
89	0xbf68ec37	-0.90985435
90	0x3d496367	0.049167063
91	0xbf080c29	-0.53143555
92	0xbf3bc058	-0.7334037
93	0x3f172628	0.59042597
94	0x3e0e0c2a	0.13871828
95	0x3e8175fa	0.2528532
96	0x3fce943e	1.613899
97	0xbddaf4fe	-0.1069126
98	0x3e1024ba	0.1407651
99	0x3f12fa4c	0.5741317
100	0x3f4b42e5	0.7939895
101	0xbf0520aa	-0.52002966
102	0x3e8ef336	0.2791993
103	0x3ec446bd	0.3833522
104	0xbeaccb42	-0.33748823
105	0xbe957ed3	-0.29198322
106	0xbea1c414	-0.31594908
107	0xbef69983	-0.48163995
108	0xbdc61070	-0.09671104
109	0x3efef874	0.4979893
110	0x3f005d6b	0.50142545
111	0xbf4867ff	-0.78283685
112	0x3f1d0976	0.6134256
113	0x3f0aadc1	0.5417138
114	0x3f1d9c3d	0.61566526
115	0x3da9e18a	0.08294971
116	0xbe41b3b1	-0.18916203
117	0xbf23d074	-0.6398995
118	0x3dcc7065	0.09982375
119	0x3f3e0b58	0.7423606
120	0xbf0e6bc7	-0.55633205
121	0xbe124f39	-0.14288034
122	0xbf188298	-0.5957427
123	0xbe55ebfa	-0.20890799
124	0x3bd53e00	0.006507635
125	0x3eaa2d88	0.33237863
126	0x3f1f1298	0.62137747
127	0xbe989e18	-0.29808116
128	0x3f83ecd7	1.0306653
129	0x3e0944b5	0.13405116
130	0x3dbc434b	0.091925226
131	0x3ed384c9	0.41312245
132	0x3f047037	0.51733726
133	0xbe78f811	-0.2431338
134	0x3ee9e55c	0.456828
135	0x3f1e205c	0.61768126
136	0xbedca747	-0.43096372
137	0x3e3925f5	0.18080886
138	0xbf3d6af8	-0.73991346
139	0xbe7eee8d	-0.24895687
140	0xbe8889e1	-0.26667693
141	0x3f2a6455	0.66559345
142	0x3ea14e8c	0.3150524
143	0xbf3e2188	-0.74269915
144	0x3fa4311f	1.282749
145	0x3e17251a	0.14760247
146	0x3e6fe2a0	0.23426294
147	0x3f00c3cb	0.50298756
148	0x3f481311	0.78154093
149	0xbf0085cd	-0.50204164
150	0x3dde2835	0.10847513
151	0x3ee568c5	0.44806495
152	0xbec2f1d2	-0.3807512
153	0xbf0e47a3	-0.5557806
154	0xbec4a6b5	-0.38408437
155	0xbf0f5c96	-0.5600065
156	0xbea0a909	-0.31378964
157	0x3f0dd202	0.5539857
158	0x3e99b217	0.30018684
159	0xbf1322ad	-0.57474786
160	0x3f122f95	0.57103854
161	0x3eec310f	0.4613118
162	0x3f75fff2	0.96093667
163	0x3e84c13f	0.25928685
164	0x3e1614eb	0.14656417
165	0xbeb6c7ee	-0.3569941
166	0x3ecce741	0.40020183
167	0x3d5a36fd	0.053275097
168	0xbf3cd379	-0.7376018
169	0xbeafb04a	-0.34314185
170	0xbf1ad643	-0.6048319
171	0x3d85a6d1	0.06525958
172	0xbedcc775	-0.43120924
173	0x3e976d9d	0.29575816
174	0x3ec1c20a	0.37843353
175	0xbe2cfc5f	-0.16893147
176	0x3f065cba	0.5248524
177	0x3e31e139	0.17371072
178	0x3ed817c8	0.42205644
179	0x3f085fa7	0.53270954
180	0x3f231fc7	0.63720363
181	0xbeb3e71d	-0.35137263
182	0x3e223477	0.15840326
183	0x3ea4119a	0.3204468
184	0xbe97781a	-0.29583818
185	0xbe0bd018	-0.136536
186	0xbf28b4de	-0.6590098
187	0xbf0bda1a	-0.5462967
188	0xbe7b454b	-0.24538152
189	0x3f241967	0.6410126
190	0x3e85f40d	0.26162758
191	0xbecc13af	-0.39858767
192	0x3f9bc9da	1.2170975
193	0x3d0f40a2	0.034973748
194	0x3ebf708f	0.37390563
195	0x3e6c9d3b	0.23106854
196	0x3f2043c4	0.626034
197	0xbebf1fa2	-0.3732882
198	0x3eee2da5	0.465192
199	0x3ef27131	0.47351983
200	0xbecaa6dc	-0.3958043
201	0xbe459a38	-0.19297111
202	0xbe845446	-0.25845546
203	0xbf29fbb7	-0.6639971
204	0xbe5f7ec7	-0.21825705
205	0x3f2dca11	0.67886454
206	0x3eb17041	0.34655955
207	0xbecd8f65	-0.40148464

fc4.bias f4 [13]
0	0xc00b3518	-2.1751156
1	0xbece8972	-0.40339237
2	0x3dfd279a	0.12361069
3	0xbf48d0ec	-0.7844379
4	0x3fd26b75	1.6439043
5	0xbf07be1c	-0.5302446
6	0x3fb971ba	1.4487832
7	0xbf604513	-0.876054
8	0x3f9097bd	1.1296307
9	0x3f875e49	1.0575649
10	0x3e485c4e	0.19566461
11	0x3f6a63c3	0.91558474
12	0x3f9e0e4a	1.2348111
