MRTAWorld_DQN/Prueba1/Caso2/DQN_model_4Tasks_CasoX.pth (torch, 12404 bytes, 8 tensors)

fc1.weight f4 [24, 22]
0.23594949 0.26990172 0.021765277 -0.3832878 0.04487158 0.16737765 0.01490004 -0.22346579
0.16552275 0.5020621 -0.0035642039 -0.9538433 0.14924315 0.53284603 -0.08231738 -0.20821762
0.042010017 -0.013964652 0.06691167 -0.13883522 -0.14241442 -0.1265553 -0.097688474 -0.11519724
0.0029437682 0.12051453 0.0023450172 -0.17156771 0.05786743 0.18537568 -0.13385329 0.51965505
-0.27717942 1.5895542 0.15951258 -0.14566334 -0.09136162 0.03220989 -0.009747732 -0.053979862
0.06249186 0.008629664 0.055834018 0.073685825 0.22889778 -0.06738203 -0.05672012 -0.030897627
-0.4880073 -0.14501001 0.020642817 0.044964604 -0.20340063 0.09374687 -0.06977677 0.25741526
-0.008823253 0.1674445 0.4617576 -0.16604543 -0.13039581 -0.10707478 -0.020555684 -0.023571135
-0.11379891 -0.029834848 0.021295654 0.052832868 0.08071728 -0.072133064 0.09784305 0.16873908
-0.07059855 -0.097197615 -0.9073555 0.54537374 0.09217786 0.24430205 -0.0063991332 0.14054683
-0.2508602 -0.37286496 0.15893838 -0.026123205 -0.075455576 -0.05902263 -0.029207507 -0.04260235
0.045271687 0.08207788 0.31056532 0.37235546 0.17948389 -0.29223967 -0.26447764 -0.19514991
-0.111454956 -0.35497794 -0.31176004 -0.007671863 -0.18423077 0.26360446 0.15994516 -0.09557921
-0.14197227 -0.14420737 0.07521412 -0.05040734 -0.01215316 0.05943526 0.14313178 0.052452013
-0.21283118 0.22010453 -0.11876908 0.04873574 -0.3546737 -0.19859284 -0.2655541 -0.25006393
-0.42673248 -0.3416263 0.04545624 0.14952743 -0.12080371 0.36248574 -0.07759249 -0.034795035
0.030656174 0.04445749 -0.20883326 0.05324351 0.038762122 -0.16753824 -0.32291344 0.30418923
0.17532808 -0.1791319 0.025682833 -0.52252436 -0.6500447 -0.29334345 0.11163197 -0.25903004
-0.16964903 -0.05219207 0.071325764 0.5011592 0.021174932 -0.07566186 -0.16413194 0.026394235
0.08077264 0.17888819 -0.10196318 0.035678774 0.019599684 0.021651473 -0.089944705 0.03426513
0.12062327 -0.058533844 -0.14208217 1.0280595 0.66975945 0.35839203 -0.5075587 -0.06600023
0.45951742 -0.17776814 0.0053752465 -0.003648179 0.008225692 0.00092177186 -0.058708657 -0.07235734
-0.052866902 -0.032696486 -0.0085473815 0.013096569 -0.016807646 -0.0065012877 0.034412295 -0.024299031
0.14412692 0.121584214 -0.8104935 -0.16237386 -0.68983006 -0.06699021 0.053725403 0.014615186
-0.0017112726 -0.007580033 0.0071972627 0.012297619 -0.02485442 -0.029183282 -0.13408606 -0.06877294
0.23415717 0.017865522 -0.03041315 0.024418177 0.053686574 0.34030074 -0.46843117 -0.2747687
-0.118396595 -0.565613 -0.0024956292 -0.030255022 0.24696206 0.26072845 -0.0015850496 0.028130084
0.02819366 -0.011371351 -0.10669181 -0.10728954 0.1576613 -0.16284429 -0.49381182 -0.85690266
0.32739654 0.40245306 0.4485582 0.24630138 0.12307937 0.18580423 -0.1250168 0.13324735
-0.51089907 0.24738689 -0.30974075 -0.12885652 -0.037127845 -0.043756377 -0.056238968 -0.1803472
0.06388902 -0.2686796 -0.19163798 -0.3847866 -0.3735508 0.73824215 -0.021134855 0.57246804
0.10943625 -0.1856897 0.013010391 -0.08635097 -0.22554715 -0.376514 0.15847762 -0.24216263
00000000: be9c 713e 8f30 8a3e 184d b23c 4c3e c4be
00000010: 43cb 373d 0c65 2b3e 4c1f 743c 37d4 64be
00000020: cc7e 293e 2487 003f 6b95 69bb 132f 74bf
00000030: 32d3 183e 9968 083f 0496 a8bd 0037 55be
00000040: b212 2c3d ffcb 64bc fc08 893d d22a 0ebe
00000050: 16d5 11be b697 01be e510 c8bd 88ec ebbd
00000060: 3cec 403b 52d0 f63d dcae 193b 72af 2fbe
00000070: 6606 6d3d 1fd3 3d3e d610 09be 1d08 053f
00000080: 76ea 8dbe 8376 cb3f 4457 233e c528 15be
00000090: cd1b bbbd 85ee 033d f4b4 1fbc fd19 5dbd
000000a0: 77f7 7f3d 6f63 0d3c 36b2 643d 98e8 963d
000000b0: 2e64 6a3e 97ff 89bd 5b53 68bd 051d fdbc
000000c0: 18dc f9be 817d 14be 201b a93c ce2c 383d
000000d0: 4148 50be 5cfe bf3d 20e7 8ebd efcb 833e
000000e0: 688f 10bc 9276 2b3e 7e6b ec3e d007 2abe
000000f0: 7b86 05be 064a dbbd 6564 a8bc 4118 c1bc
00000100: 670f e9bd 3668 f4bc 3974 ae3c 4767 583d
00000110: 1a4f a53d 80ba 93bd f061 c83d f0c9 2c3e
00000120: f995 90bd 8b0f c7bd 7348 68bf 9d9d 0b3f
00000130: bfc7 bc3d 512a 7a3e d2af d1bb 82eb 0f3e
00000140: c070 80be 28e8 bebe bec0 223e 5500 d6bc
00000150: 7488 9abd b7c1 71bd 9544 efbc cd7f 2ebd
00000160: ce6e 393d 7318 a83d 6b02 9f3e 60a5 be3e
00000170: a0ca 373e 70a0 95be 9d69 87be 61d5 47be
00000180: 7f42 e4bd abbf b5be 039f 9fbe 4064 fbbb
00000190: fea6 3cbe 2af7 863e aac8 233e 08bf c3bd
000001a0: 2e61 11be 19ab 13be dc09 9a3d ed77 4ebd
000001b0: 0c1e 47bc 6372 733d 2391 123e ecd7 563d
000001c0: 6bf0 59be 1563 613e 343d f3bd 219f 473d
000001d0: cb97 b5be ec5b 4bbe b5f6 87be 6108 80be
000001e0: ae7c dabe a4e9 aebe 5330 3a3d b81d 193e
000001f0: ef67 f7bd bb97 b93e d0e8 9ebd 3d85 0ebd
00000200: a822 fb3c 0f19 363d 63d8 55be de15 5a3d
00000210: 08c5 1e3d 258f 2bbe e954 a5be b1be 9b3e
00000220: 3489 333e 5a6e 37be ce64 d23c 28c4 05bf
00000230: 5469 26bf 1d31 96be 4d9f e43d 969f 84be
00000240: 7ab8 2dbe 5ac7 55bd 3e13 923d f84b 003f
00000250: 0d77 ad3c 9bf4 9abd 3412 28be b938 d83c
00000260: 206c a53d 772e 373e 12d2 d0bd e823 123d
00000270: 848f a03c 6e5e b13c ee34 b8bd 9859 0c3d
00000280: 5509 f73d 2fc1 6fbd fd7d 11be 7497 833f
00000290: 5b75 2b3f 297f b73e 5eef 01bf 212b 87bd
000002a0: de45 eb3e da08 36be d622 b03b 4916 6fbb
000002b0: 0ec5 063c 10a3 713a 7d78 70bd 1630 94bd
000002c0: f78a 58bd c0ec 05bd 510a 0cbc fe92 563c
000002d0: 30b0 89bc c108 d5bb e8f3 0c3d c30e c7bc
000002e0: 0296 133e 2501 f93d 817c 4fbf 5545 26be
000002f0: b498 30bf 2a32 89bd 2b0f 5c3d 8874 6f3c
00000300: c84c e0ba ed61 f8bb 04d7 eb3b f47b 493c
00000310: 7f9b cbbc c711 efbc db4d 09be d4d8 8cbd
00000320: e6c6 6f3e b75a 923c 0025 f9bc a108 c83c
00000330: 74e6 5b3d e63b ae3e 36d6 efbe 7cae 8cbe
00000340: ea79 f2bd 03cc 10bf b68d 23bb 61d9 f7bc
00000350: 9fe3 7c3e 337e 853e 70c1 cfba 1071 e63c
00000360: 64f6 e63c e74e 3abc 3c81 dabd 9eba dbbd
00000370: f771 213e a7c0 26be e7d4 fcbe f95d 5bbf
00000380: 85a0 a73e 540e ce3e 6ca9 e53e 6e36 7c3e
00000390: 0911 fc3d 7743 3e3e 6704 00be fe71 083e
000003a0: 48ca 02bf fd52 7d3e 5796 9ebe f7f2 03be
000003b0: 5e13 18bd e339 33bd d55a 66bd f0ac 38be
000003c0: 3fd8 823d 5f90 89be bf3c 44be c002 c5be
000003d0: 0d42 bfbe 70fd 3c3f 0123 adbc 448d 123f
000003e0: 1d20 e03d 7125 3ebe 8929 553c c7d8 b0bd
000003f0: d5f5 66be 71c6 c0be f547 223e 7bf9 77be

fc1.bias f4 [24]
0.6771315 -0.038274337 0.8955347 -0.5511099 0.8409554 0.81047946 0.95052516 -0.06332638
-0.98568827 0.78056836 0.5939398 0.8236321 0.7721628 0.990131 0.8752373 0.9701744
0.6753295 -0.19255972 0.65081316 0.33909252 1.0194952 -0.7362984 1.0919416 -0.7050035
00000000: 7d58 2d3f 8dc5 1cbd c341 653f 8a15 0dbf
00000010: da48 573f 957b 4f3f 9e55 733f 43b1 81bd
00000020: 1156 7cbf 54d3 473f 700c 183f 8ed9 523f
00000030: 76ac 453f 3a79 7d3f 8d0f 603f 595d 783f
00000040: 65e2 2c3f 602e 45be b19b 263f 899d ad3e
00000050: d27e 823f 0d7e 3cbf bec4 8b3f 1c7b 34bf

fc2.weight f4 [24, 24]
0.2453606 0.0007867233 0.08972661 -1.0015557 0.3747491 0.5710869 0.033250958 -0.2226773
-0.7200178 0.44827953 -0.7566948 0.06354476 -0.25380793 -0.5388914 0.23158497 -0.10605475
0.21511604 -0.5990263 0.6941864 -0.8001934 0.3050783 -0.6595556 1.4773697 -0.7549067
1.3744998 0.52571815 0.50436586 0.19911876 0.28424886 0.31971705 0.43874693 0.8006153
0.09956432 0.17093763 -0.357275 -0.53016853 0.47546166 0.70258754 0.18673791 0.7012006
-0.9831767 0.34897068 0.42329797 -1.0278194 -0.8301082 -1.1747667 0.7998514 -0.5632964
0.42938396 0.5125079 0.49955472 -0.99619985 0.7574908 0.95088536 0.862706 -0.11343461
-0.40529063 -0.06371508 -0.8172246 0.2444115 0.05003514 -0.54846877 0.30688694 0.33009604
-0.30807978 -0.0068635223 0.23244745 -0.0597446 -0.20345652 0.21544181 0.9469997 0.111566395
0.6210488 0.6684711 0.03289482 -1.1365591 -0.015122898 0.42427427 -0.16395298 0.80926764
-2.0196896 0.64293766 0.030936334 -0.22274938 0.157855 0.27934787 -0.068699144 -0.80830103
0.91637164 -1.008278 -0.40190563 1.8889315 -0.48867986 1.008712 -1.0699723 -2.4057
-0.277665 -0.489305 -0.19630805 0.8689856 -0.6013857 -0.7345057 -0.7088626 0.2965266
0.56952506 -0.31036162 0.5906693 0.07871575 0.008598183 -0.031227192 -0.2583393 -0.06280514
0.17683801 0.47728392 -0.3601529 0.44017738 0.31198838 0.07099418 -1.218101 0.63533676
0.20294744 0.1656572 -0.13815078 -0.38334417 -0.14965406 0.18140993 0.32930425 -0.6078581
-0.5255087 0.5401921 0.5987275 0.6816176 0.30047044 0.4466096 0.7229776 0.4112177
0.24952109 -0.53725815 0.17755136 -0.29949468 -0.028349424 -0.36150452 1.4671413 -0.30393195
0.11014184 0.32513982 0.31449547 -0.1724602 -0.01287827 0.336646 0.27391878 0.081310675
-0.08241079 0.4477834 0.31748676 0.24324548 0.6241547 -0.0797835 0.44948158 0.45158976
-0.343395 -0.025320847 0.036705114 -0.2281156 0.603967 -0.45579976 1.1634095 -0.19511208
1.0738677 0.44654912 0.5163929 -0.27019224 -0.26440528 0.46681345 0.63515073 0.21864441
0.28265876 -0.09310265 0.7435541 1.0634269 0.49253696 0.10421646 0.5656012 0.46136525
-1.1936948 0.5740429 -0.16503896 -0.93353784 -0.09871865 -0.9055205 0.5466446 1.0607271
-0.28033668 -0.51688457 0.27972168 -1.0645475 0.0063362955 -0.20615923 0.1542432 -1.0111814
-1.8402182 -0.6798129 -0.016996948 0.23899032 0.30210322 -0.09530872 -0.47529072 0.22577697
0.0688608 -1.2353328 0.20307375 -1.1398532 0.07363856 -0.65731955 2.4502778 -1.894971
-0.0075057773 -0.2521036 0.1715388 -1.3832905 0.3401019 0.21086927 1.1229037 0.12747373
-0.2533223 -0.102874525 0.7717557 -0.38573185 -0.23492138 -0.429319 -0.0663295 0.070513085
-0.5863097 0.48863438 0.4102638 -1.4659045 0.6969587 0.5455919 0.95640814 -0.8469406
0.9307159 0.58019114 0.37182596 0.08908176 0.40661597 0.09196761 0.23981224 0.5602202
0.37295502 0.20127843 0.26775488 -0.16361316 0.85827976 0.49837214 0.11135012 0.64602625
00000000: cf3f 7b3e 1b3c 4e3a 96c2 b73d fa32 80bf
00000010: 1ddf bf3e c032 123f 2832 083d 8505 64be
00000020: 1653 38bf e584 e53e c0b6 41bf c123 823d
00000030: 1df3 81be c9f4 09bf 9c24 6d3e 3c33 d9bd
00000040: 6147 5c3e ca59 19bf 33b6 313f 7ad9 4cbf
00000050: 3933 9c3e a3d8 28bf 731a bd3f 9141 41bf
00000060: 9cef af3f 7795 063f 1f1e 013f cae5 4b3e
00000070: 1189 913e f4b1 a33e 70a3 e03e 20f5 4c3f
00000080: 61e8 cb3d 460a 2f3e c0ec b6be 20b9 07bf
00000090: b66f f33e c7dc 333f 3938 3f3e e281 333f
000000a0: 78b1 7bbf 49ac b23e 83ba d83e 968f 83bf
000000b0: f981 54bf c15e 96bf 10c3 4c3f 3134 10bf
000000c0: 37d8 db3e b833 033f a3c5 ff3e f406 7fbf
000000d0: ebea 413f 396d 733f 4dda 5c3f 6850 e8bd
000000e0: 4182 cfbe 0d7d 82bd a235 51bf 0247 7a3e
000000f0: a6f1 4c3d 7368 0cbf 4920 9d3e 5902 a93e
00000100: a2bc 9dbe 66e7 e0bb b406 6e3e c1b6 74bd
00000110: e856 50be c79c 5c3e 936e 723f ec7c e43d
00000120: 0efd 1e3f ec20 2b3f b8bc 063d c57a 91bf
00000130: 08c6 77bc 7a3a d93e 4ae3 27be 2a2c 4f3f
00000140: 9842 01c0 9097 243f 326e fd3c 6a18 64be
00000150: bea4 213e af06 8f3e 23b2 8cbd d1ec 4ebf
00000160: 5597 6a3f 410f 81bf 93c6 cdbe 82c8 f13f
00000170: 3f34 fabe 7a1d 813f daf4 88bf fdf6 19c0
00000180: 1b2a 8ebe 2f86 fabe fa04 49be d775 5e3f
00000190: 6af4 19bf 9108 3cbf 0578 35bf 56d2 973e
000001a0: 65cc 113f b8e7 9ebe 1a36 173f b935 a13d
000001b0: 65df 0c3c 2bd0 ffbc 0c45 84be fb9f 80bd
000001c0: 0615 353e 8f5e f43e f665 b8be ee5e e13e
000001d0: f1bc 9f3e 6665 913d bcea 9bbf 6ea5 223f
000001e0: 74d1 4f3e 0ba2 293e 6677 0dbe b045 c4be
000001f0: ea3e 19be 86c3 393e 919a a83e 979c 1bbf
00000200: bd87 06bf 084a 0a3f 3546 193f 7e7e 2e3f
00000210: 43d7 993e 03aa e43e 0f15 393f 208b d23e
00000220: 7582 7f3e c089 09bf 06d0 353e 5e57 99be
00000230: 0d3d e8bc 1f17 b9be 49cb bb3f f89c 9bbe
00000240: 0c92 e13d ba78 a63e 8d05 a13e 6899 30be
00000250: 61ff 52bc dd5c ac3e 153f 8c3e 3686 a63d
00000260: fdc6 a8bd de43 e53e a08d a23e 5815 793e
00000270: 9ac8 1f3f 8865 a3bd 7322 e63e c636 e73e
00000280: 78d1 afbe aa6d cfbc 1a58 163d 2397 69be
00000290: 959d 1a3f 965e e9be 9aea 943f 76cb 47be
000002a0: 7f74 893f 16a2 e43e 5332 043f a356 8abe
000002b0: 2160 87be 2c02 ef3e 3d99 223f 52e4 5f3e
000002c0: a6b8 903e 9aac bebd 9059 3e3f 5f1e 883f
000002d0: ce2d fc3e 706f d53d 3ecb 103f 1138 ec3e
000002e0: feca 98bf 7af4 123f f9ff 28be 56fc 6ebf
000002f0: 012d cabd 31d0 67bf e7f0 0b3f e8c5 873f
00000300: 4a88 8fbe 8c52 04bf ae37 8f3e 1843 88bf
00000310: b3a0 cf3b 681b 53be eef1 1d3e 646e 81bf
00000320: 458c ebbf 3808 2ebf 2f3d 8bbc e1b9 743e
00000330: 46ad 9a3e 3831 c3bd 4e59 f3be 1432 673e
00000340: e406 8d3d 631f 9ebf 91f2 4f3e b6e6 91bf
00000350: d0cf 963d 1846 28bf 5ad1 1c40 698e f2bf
00000360: 06f3 f5bb b913 81be dea7 2f3e aa0f b1bf
00000370: d621 ae3e 1dee 573e 4fbb 8f3f 7988 023e
00000380: 76b3 81be e1af d2bd c891 453f a57e c5be
00000390: 3b8f 70be b3cf dbbe c3d7 87bd 2a69 903d
000003a0: 6418 16bf 492e fa3e 190e d23e c2a2 bbbf
000003b0: e36b 323f e9ab 0b3f 2ad7 743f 19d1 58bf
000003c0: 6643 6e3f 6887 143f f95f be3e 7f70 b63d
000003d0: f82f d03e 8459 bc3d 5791 753e 976a 0f3f
000003e0: f6f3 be3e ef1b 4e3e 2b17 893e 358a 27be
000003f0: 39b8 5b3f a22a ff3e 880b e43d fa61 253f

fc2.bias f4 [24]
0.6537826 0.5822917 0.5382012 -0.16430841 -0.82138574 0.8757745 0.704894 0.6520928
0.08149704 0.76157326 0.5436699 -0.419651 0.92463535 0.50984466 0.63478386 0.1351712
0.17321822 0.091727845 -0.33090106 0.985027 -0.5616441 0.33951652 0.03247186 0.5559753
00000000: 4c5e 273f 1211 153f 8ec7 093f 7740 28be
00000010: 5646 52bf c232 603f ef73 343f 8eef 263f
00000020: ece7 a63d 77f6 423f f32d 0b3f 7fdc d6be
00000030: e7b4 6c3f 2e85 023f 3281 223f 526a 0a3e
00000040: 1e60 313e cfdb bb3d dd6b a9be bb2a 7c3f
00000050: e8c7 0fbf 1cd5 ad3e 3701 053d 6654 0e3f

fc3.weight f4 [24, 24]
0.9177805 -0.19117695 0.42714304 0.4044417 -0.57798177 0.802851 0.65885943 0.08114422
-3.5750759 -7.225794e-05 -0.04346325 0.62423104 1.25127 1.1889613 0.5954917 -2.5714128
-1.6693956 -0.89082426 0.07717449 0.89597374 -0.83448654 0.4119199 -1.6914536 0.53528035
0.96402293 0.49022126 0.8830246 -1.1718894 -0.8643504 -0.03361079 -0.0052798847 -0.4986783
-0.35220674 0.9977162 -0.10241273 -1.0207458 0.08506292 0.68549 -0.11885765 2.4144928
1.0940646 0.3962697 -0.82726115 0.31814918 -0.725816 0.81672084 -1.046485 -0.2698241
-0.18801863 -0.28850725 0.59089917 1.4944265 -0.48223877 -0.4514357 -0.55923873 -0.17603464
-0.78024614 0.9731427 -0.71380067 0.7577494 -0.12671295 -0.8122673 -0.48480546 -1.6547542
-1.5604645 -2.5049496 0.8776973 0.24494147 -0.019059371 0.864456 -1.2368634 -0.19817454
0.32369134 1.1732663 -0.27929297 -1.6868106 -0.24612685 0.3925082 -0.00052465015 0.45901763
-0.6370958 -0.3063324 0.31835556 -0.87692225 0.24738498 1.248756 0.1444517 2.546877
1.1978152 1.5185188 -1.2138718 0.17260334 -0.43063605 0.6723343 -0.49636403 -0.58837986
0.18060328 -0.95126754 0.4186856 -1.5035176 -0.27966228 0.5728208 0.47897792 0.9791231
-0.64325684 1.0209565 0.10986817 -0.1329238 0.5836312 0.020460201 -0.16596255 -0.14602928
1.0933264 1.4356993 -0.12052704 0.22684775 -0.1527061 0.30054152 -1.2431961 0.4229558
0.16645041 0.11928796 0.8437293 -0.27328318 -0.70830935 0.58741546 0.2989268 0.28857502
-1.1464722 0.84992576 0.17148437 -0.5426822 0.7274202 0.54614073 0.26524952 0.3554695
0.81273085 0.70010483 -0.1634885 0.709613 -0.3610428 0.6985107 -1.6043957 0.22396788
-0.6808487 -0.66672105 -1.0575024 -0.4258817 0.7828726 -0.85775334 -0.6128753 -0.45097
1.5612448 0.6021155 -0.0724925 -0.36711833 -1.0754638 -0.18638541 -0.45143875 0.7808776
1.0904062 1.5244286 0.1882254 -0.5520509 0.5023216 -0.8626053 1.8730586 -0.64819705
-0.59881306 0.2848582 0.30977187 -0.8792409 -0.09479155 0.43322998 0.5385867 0.8654398
1.7829746 -0.04771521 0.40344945 -0.35313922 0.07657548 -0.48637468 0.37459135 1.6539943
1.7349509 2.0200765 0.21491154 -0.053238656 0.19986309 -0.46732387 -1.2251693 0.5569016
0.60708374 0.22016405 0.3101692 -2.1878397 -0.09767758 0.27658954 0.77916604 0.63563335
-0.37241015 0.34787276 0.4685377 -1.0001166 0.4199663 0.5839514 0.47283214 0.31469446
1.3280709 1.2695094 -1.1510806 0.19694427 -0.29349062 -0.35429865 0.35181466 0.465964
-0.5011834 -0.12288236 0.4523829 1.089426 -0.09750099 -1.1047956 -0.36337176 -0.20843454
2.8856921 0.73715305 -0.24285273 0.85792047 -0.87193626 -2.6542091 -0.15739065 1.5883706
1.4781388 0.20129071 0.9634594 -0.47322345 0.95561194 0.08425065 1.018203 0.17280912
0.57168734 1.4542618 0.62681484 -0.7817496 -0.7286351 0.40490586 -0.042222653 0.19137003
0.5060956 -0.80708265 0.5893777 -0.6701344 0.21938646 0.4789642 0.73805875 1.6402328
00000000: aaf3 6a3f e4c3 43be 7eb2 da3e fc12 cf3e
00000010: 9df6 13bf a587 4d3f 03ab 283f f12e a63d
00000020: 0bce 64c0 3089 97b8 8506 32bd 9bcd 1f3f
00000030: 9e29 a03f e22f 983f 2572 183f 0792 24c0
00000040: c1ae d5bf 0f0d 64bf a90d 9e3d 895e 653f
00000050: e9a0 55bf 2ae7 d23e 8d81 d8bf 2208 093f
00000060: 35ca 763f 48fe fa3e e60d 623f 7900 96bf
00000070: 1146 5dbf 78ab 09bd e202 adbb c352 ffbe
00000080: 7154 b4be 546a 7f3f c4bd d1bd cca7 82bf
00000090: 7835 ae3d 467c 2f3f a46b f3bd 0d87 1a40
000000a0: 4f0a 8c3f dde3 ca3e 63c7 53bf 73e4 a23e
000000b0: 14cf 39bf 9e14 513f 38f3 85bf 6226 8abe
000000c0: f587 40be 39b7 93be 2b45 173f 5e49 bf3f
000000d0: 00e8 f6be 9422 e7be 452a 0fbf 6d42 34be
000000e0: 36be 47bf e11f 793f a4bb 36bf ddfb 413f
000000f0: 0ac1 01be c0f0 4fbf 6c38 f8be fcce d3bf
00000100: 4dbd c7bf 1851 20c0 c5b0 603f f0d1 7a3e
00000110: 6622 9cbc fd4c 5d3f 8a51 9ebf 44ee 4abe
00000120: dfba a53e 972d 963f 7dff 8ebe 69e9 d7bf
00000130: ad08 7cbe d6f6 c83e ad88 09ba 5c04 eb3e
00000140: b618 23bf 9ad7 9cbe 80ff a23e fa7d 60bf
00000150: 7d52 7d3e 3dd7 9f3f 25eb 133e 0800 2340
00000160: 0252 993f d35e c23f 2760 9bbf eebe 303e
00000170: 547c dcbe 1a1e 2c3f 6d23 febe 10a0 16bf
00000180: 11f0 383e 4586 73bf f55d d63e 4473 c0bf
00000190: e52f 8fbe 62a4 123f 983c f53e d0a7 7a3f
000001a0: 7bac 24bf b4ae 823f 9002 e13d 2d1d 08be
000001b0: db68 153f 279c a73c 16f2 29be b388 15be
000001c0: 1ff2 8b3f ffc4 b73f e1d6 f6bd c74a 683e
000001d0: fd5e 1cbe 94e0 993e 0d21 9fbf aa8d d83e
000001e0: fa71 2a3e 3f4d f43d a5fe 573f c6eb 8bbe
000001f0: c353 35bf dc60 163f ef0c 993e 1bc0 933e
00000200: 9abf 92bf bc94 593f 9999 2f3e 38ed 0abf
00000210: 3638 3a3f e1cf 0b3f c9ce 873e 1900 b63e
00000220: 210f 503f 123a 333f 8869 27be 33a9 353f
00000230: 9ada b8be 99d1 323f d75c cdbf d657 653e
00000240: 1a4c 2ebf 3bae 2abf 3d5c 87bf 2b0d dabe
00000250: 576a 483f b995 5bbf 65e5 1cbf 8ae5 e6be
00000260: dfd6 c73f 3e24 1a3f f376 94bd eff6 bbbe
00000270: cca8 89bf d1db 3ebe fb22 e7be 98e7 473f
00000280: 6e92 8b3f 7a20 c33f 29be 403e 3553 0dbf
00000290: 2698 003f b3d3 5cbf 62c0 ef3f 3ef0 25bf
000002a0: d04b 19bf efd8 913e 6b9a 9e3e ee15 61bf
000002b0: 1222 c2bd 52d0 dd3e d1e0 093f 768d 5d3f
000002c0: 8338 e43f 0671 43bd ed90 ce3e aace b4be
000002d0: 9bd3 9c3d 1a06 f9be 70ca bf3e 16b6 d33f
000002e0: df12 de3f ef48 0140 c511 5c3e c710 5abd
000002f0: e9a8 4c3e 1345 efbe 59d2 9cbf 1a91 0e3f
00000300: d769 1b3f af72 613e 7fce 9e3e 9105 0cc0
00000310: 2f0b c8bd 259d 8d3e 6d77 473f deb8 223f
00000320: 8bac bebe 611c b23e 2ce4 ef3e d203 80bf
00000330: d305 d73e d77d 153f 0e17 f23e a21f a13e
00000340: 3afe a93f 497f a23f 9c56 93bf c2ab 493e
00000350: 6744 96be a266 b5be 0d21 b43e d592 ee3e
00000360: 8e4d 00bf bfa9 fbbd bb9e e73e 5072 8b3f
00000370: 99ae c7bd f169 8dbf dd0b babe dd6f 55be
00000380: 2eaf 3840 10b6 3c3f 63ae 78be ada0 5b3f
00000390: 3737 5fbf 90de 29c0 042b 21be ba4f cb3f
000003a0: a733 bd3f 271f 4e3e 46a5 763f 584a f2be
000003b0: fca2 743f 9b8b ac3d 7a54 823f e0f4 303e
000003c0: 1a5a 123f 4025 ba3f f076 203f be20 48bf
000003d0: d487 3abf d24f cf3e a9f1 2cbd 81f6 433e
000003e0: 7b8f 013f f89c 4ebf 75e1 163f ee8d 2bbf
000003f0: d8a6 603e cc3a f53e 6bf1 3c3f 26f3 d13f

fc3.bias f4 [24]
1.794042 0.82761323 -0.31799185 0.6331618 0.43417543 0.73896956 -0.7188213 0.35817906
0.49779284 -0.5206653 0.49022603 0.7535185 -0.6354979 -1.2096257 0.09762255 -0.021097017
-0.0030761748 0.60260075 0.7476102 -0.18494295 0.85670966 -0.7636794 1.1186577 -0.7423044
00000000: 2ba3 e53f 76de 533f d4cf a2be e416 223f
00000010: 3e4c de3e 1c2d 3d3f ac04 38bf 3f63 b73e
00000020: b4de fe3e 524a 05bf e8fe fa3e 97e6 403f
00000030: feaf 22bf 04d5 9abf 55ee c73d a7d3 acbc
00000040: a699 49bb 0b44 1a3f 6263 3f3f af61 3dbe
00000050: 5351 5b3f 7e80 43bf 2d30 8f3f a907 3ebf

fc4.weight f4 [21, 24]
0.15353525 -0.53234744 0.9437203 -0.5704881 -0.048262805 0.24789152 -0.531032 0.18674462
-0.20269188 0.29174802 -0.19075629 0.23504707 0.052607503 -0.078699745 -0.09490724 -0.8191907
-0.043268856 0.1575252 0.032611147 -0.29980612 -0.19641407 0.20434214 0.26749432 0.47465256
-0.05610754 -0.30438069 -0.6359411 0.14506245 0.46995303 0.050925788 0.32652935 0.7002589
0.19738898 0.27900514 -0.041888308 0.18675834 -0.079246745 -0.29951695 0.023881815 1.1651136
1.0694808 -0.33096755 0.12944308 -0.21261361 0.43264169 -0.8489094 0.2682187 0.58046967
-0.19989434 0.63133544 0.6323651 -0.39065433 0.53926945 0.37376073 0.0052912026 0.36069867
0.20977736 1.0327166 -0.19392997 0.1383253 -0.29186624 -0.5285762 0.28918555 0.7435347
0.36735895 0.32372868 0.5046878 0.37933844 0.83419937 -0.52304304 -0.44290125 0.64301896
-0.19871329 0.37360287 -0.070015855 0.73892254 0.25244537 0.31808424 -0.33937243 0.38705784
0.0012403599 0.017471433 0.23029499 0.05997067 -0.5021125 -0.07412072 -0.28410244 0.9075338
0.12211 1.0205951 -0.10956779 0.11803167 -0.28512603 -0.52308714 0.023256673 0.9588342
0.3629004 0.2937724 -0.04848222 0.23448358 0.42802563 0.4107463 -0.3182689 0.12766424
0.32754987 -0.36585015 0.24805416 0.15499592 -0.3109171 -0.2832938 -0.051675834 -0.39626616
-0.047049616 0.30970672 0.41662902 0.05863074 0.32228723 -0.01845321 0.39601204 -0.7846325
0.009798452 -0.2014395 -0.56162214 0.13182275 -0.24675095 -0.025450172 -0.4342558 0.53757674
-0.07685159 0.36299664 0.8606516 0.29002413 -0.41660503 0.09510785 0.8386008 0.5301689
-0.025922414 0.5375669 0.15301667 -0.0543472 0.1839445 -0.057131063 0.027740037 1.3890066
0.4400206 0.052409474 -0.40921563 0.19606818 0.1503417 0.42450982 -0.36112309 0.24373776
0.39842582 -0.17322995 0.17680758 0.08908731 -0.31044123 -0.42390388 0.24521391 -0.456084
0.2129656 0.36924395 0.4019784 -0.38273397 0.2156856 0.21382591 0.40986267 -0.36548603
-0.21009184 -0.17654839 -0.41271183 0.18235424 0.17957762 -0.05891002 0.023714995 0.38205513
0.40696114 0.0006452056 0.17508152 0.12624522 -0.24243052 0.0710124 0.23723033 1.4051228
0.7483759 0.22668892 0.03862446 -0.19606152 0.18858837 -0.39200726 0.2610915 1.3718631
0.2919668 0.082919694 -0.1346521 0.39914814 0.32957008 0.33943808 -0.3832693 -0.044753265
0.4429683 -0.17301257 0.24727285 0.22850469 -0.35586533 -0.21783455 0.05873988 -0.085257694
0.12753437 0.4022415 0.42819086 -0.47329187 0.36673954 0.06638399 0.30261716 -0.35706908
0.41052917 0.4629657 -0.12127236 0.12730503 0.45795214 0.1391741 -0.47893634 0.37699097
0.08538951 -0.12711807 0.109404474 0.1390265 -0.20871554 -0.48661855 0.30321643 -0.10371594
-0.00769635 0.3263417 0.48186788 -0.122057654 0.23079817 -0.5011544 0.4497787 -0.31663737
-0.33768925 0.8401592 -0.29574272 0.5298287 -0.30210894 0.20159738 0.263579 0.23855019
0.19765571 0.37438777 0.30873147 0.5780891 -0.33529758 -0.13743563 0.89546466 0.15037215
00000000: 5838 1d3e ec47 08bf a797 713f 820b 12bf
00000010: 38af 45bd 46d7 7d3e b7f1 07bf fb39 3f3e
00000020: 768e 4fbe ff5f 953e 9e55 43be 2eb0 703e
00000030: f77a 573d 552d a1bd ba5e c2bd 7bb6 51bf
00000040: af3a 31bd 494e 213e 4493 053d 3080 99be
00000050: c520 49be 113f 513e 04f5 883e a905 f33e
00000060: 05d1 65bd c9d7 9bbe 09cd 22bf 408b 143e
00000070: af9d f03e 8f97 503d db2e a73e 2b44 333f
00000080: 5620 4a3e c3d9 8e3e 1393 2bbd 943d 3f3e
00000090: 1e4c a2bd 495a 99be cca3 c33c 7122 953f
000000a0: bfe4 883f 9474 a9be ba8c 043e 62b7 59be
000000b0: 3683 dd3e 2052 59bf f653 893e a999 143f
000000c0: 1ab1 4cbe 339f 213f aee2 213f d803 c8be
000000d0: 900d 0a3f 915d bf3e d361 ad3b 7fad b83e
000000e0: e0cf 563e 0f30 843f 9495 46be 26a5 0d3e
000000f0: 7e6f 95be c550 07bf 2110 943e 4a58 3e3f
00000100: 7916 bc3e c4bf a53e 3833 013f a638 c23e
00000110: 178e 553f 26e6 05bf f4c3 e2be e49c 243f
00000120: 7f7b 4bbe e048 bf3e 7964 8fbd 072a 3d3f
00000130: 8540 813e f0db a23e 39c2 adbe 722c c63e
00000140: 9293 a23a 4020 8f3c 73d2 6b3e cea3 753d
00000150: 728a 00bf 9bcc 97bd e075 91be 2354 683f
00000160: cf14 fa3d dca2 823f 1465 e0bd 97ba f13d
00000170: 0afc 91be 0ae9 05bf c784 be3c 2876 753f
00000180: 15ce b93e 5669 963e 4b95 46bd 771c 703e
00000190: 2d26 db3e 574d d23e 24f4 a2be 6aba 023e
000001a0: 9eb4 a73e b650 bbbe e901 7e3e 40b7 1e3e
000001b0: 8730 9fbe e30b 91be 0aaa 53bd 66e3 cabe
000001c0: 19b7 40bd e191 9e3e 6650 d53e c926 703d
000001d0: d502 a53e 302b 97bc 17c2 ca3e addd 48bf
000001e0: b089 203c 2846 4ebe 78c6 0fbf 8bfc 063e
000001f0: 48ac 7cbe e17c d0bc c756 debe a19e 093f
00000200: 5e64 9dbd b2da b93e aa53 5c3f 0b7e 943e
00000210: 414d d5be e8c7 c23d 8bae 563f 26b9 073f
00000220: 3e5b d4bc fc9d 093f 67b0 1c3e 2b9b 5ebd
00000230: f25b 3c3e 4302 6abd 133f e33c f8ca b13f
00000240: 614a e13e 51ab 563d b684 d1be 19c6 483e
00000250: 2df3 193e 5a59 d93e 20e5 b8be 6496 793e
00000260: 78fe cb3e 3163 31be 0c0d 353e 6873 b63d
00000270: 27f2 9ebe ee09 d9be 5b19 7b3e d883 e9be
00000280: a713 5a3e 8b0d bd3e 1dd0 cd3e b5f5 c3be
00000290: b0dc 5c3e 2ef5 5a3e 85d9 d13e fc20 bbbe
000002a0: 5122 57be 1ac9 34be f74e d3be 12bb 3a3e
000002b0: 32e3 373e a24b 71bd f345 c23c bb9c c33e
000002c0: 365d d03e 0423 293a 9248 333e 6d46 013e
000002d0: b53f 78be f36e 913d 82ec 723e 10db b33f
000002e0: 9095 3f3f 2421 683e af34 1e3d 5ac4 48be
000002f0: 4f1d 413e 2db5 c8be c9ad 853e 3699 af3f
00000300: ac7c 953e cdd1 a93d 3de2 09be 255d cc3e
00000310: 69bd a83e d4ca ad3e e03b c4be 334f 37bd
00000320: becc e23e 352a 31be 1835 7d3e 22fd 693e
00000330: fb33 b6be 0510 5fbe 3a99 703d 969b aebd
00000340: 5f98 023e 99f2 cd3e d53b db3e 5053 f2be
00000350: 49c5 bb3e 54f4 873d a3f0 9a3e c2d1 b6be
00000360: e130 d23e d709 ed3e a55d f8bd 405c 023e
00000370: b478 ea3e a883 0e3e 2537 f5be f604 c13e
00000380: b2e0 ae3d 3d2b 02be 740f e03d f65c 0e3e
00000390: 87b9 55be 1126 f9be 2f3f 9b3e 0669 d4bd
000003a0: aa31 fcbb 4216 a73e 63b7 f63e 5df9 f9bd
000003b0: 5b56 6c3e a84b 00bf 6549 e63e 4b1e a2be
000003c0: 9be5 acbe ac14 573f 976b 97be dba2 073f
000003d0: 06ae 9abe 8b6f 4e3e d4f3 863e 8046 743e
000003e0: 4266 4a3e c1af bf3e 0d12 9e3e a6fd 133f
000003f0: 20ac abbe edbb 0cbe 2c3d 653f 28fb 193e

fc4.bias f4 [21]
-1.9654099 -0.26570836 -0.21364415 -0.16793486 0.9369073 -0.057691645 0.70261246 -0.28924263
0.67332625 0.685915 -0.35149923 0.88311625 0.54123473 -0.5226087 0.58003426 0.65464586
0.58550036 -0.57614493 0.7188006 0.6822212 0.45647237
00000000: 8d92 fbbf ed0a 88be 88c5 5abe 1ef7 2bbe
00000010: 28d9 6f3f 134e 6cbd 69de 333f 9c17 94be
00000020: 1c5f 2c3f 2098 2f3f b5f7 b3be e813 623f
00000030: 5c8e 0a3f afc9 05bf 207d 143f df96 273f
00000040: 5ae3 153f 3c7e 13bf 5103 383f 0ca6 2e3f
00000050: bfb6 e93e
