MRTAWorld_DQN/PruebasDef/PruebaDef6/DQN_model_3Tasks_CasoX.pth (torch, 7348 bytes, 8 tensors)

fc1.weight f4 [16, 12]
00000000: e089 433e 17ce ec3e 2f0f 7dbf f1d3 7d3e
00000010: f3cc d0bf 1a4c 673d 64a1 7cbe 8ced 313e
00000020: 88f6 913d 70e5 363f 5fb0 b83e ee9e e13e
00000030: f593 fdbe 382c a73c 3dd7 373f 74cb c23e
00000040: e81e 50be 94aa b43e b1ea b3be 86dd e33e
00000050: 1fbf d03e b1f4 4bbf 9f49 533e e8a4 a43d
00000060: fe17 9b3e 9816 1c3f c530 f03e 14eb c9bd
00000070: 0f07 9fbe 51e4 a9bf 293b bbbe e7ea 56bc
00000080: be1a 373e 5c35 763e 5e02 8c3e da7f 4b3f
00000090: 5c9f 4bbf 85ee 0d3f d814 ae3e 13cf babd
000000a0: 48df 203f f1b1 4abf 2fac 4c3f 6e27 6b3f
000000b0: 9093 ce3d 41cc 15be abe5 733f c395 943e
000000c0: 170f af3e fbc0 f8bd a22e c03d 70bf 8cbe
000000d0: a259 14be 7287 8c3e 40db 20bf 94d1 09bf
000000e0: 1024 c3be bfc7 7f3f 8daa 08bf 8854 aebc
000000f0: 3e7f 89be 5905 3dbf f299 483d 2414 793e
00000100: 7d68 f3bb 1033 093e c1f6 c33c f97a 77bf
00000110: a617 31bf 3e2c ac3e 9125 bebe 7cb5 933e
00000120: 52b8 ec3d e7d1 77be e3e2 12bf 472e 353f
00000130: 18da 2cbf b627 81bf 97ad f8be 098a 20be
00000140: 464a 723d 8ea5 cdbd 21b7 2abe a79a 0abe
00000150: cae4 c63e 4161 283f e273 3abf 8fe8 0f3e
00000160: bcca 403e e247 74bf 162c 963e 911b 343f
00000170: 1615 27bf 3199 babe ed1d 41bd 8cf7 00bf
00000180: 24ce 033e 6c53 c63e 470e 30bf 3403 3dbf
00000190: 73f2 533e 51bd d73e 4abe 54be 528a 05bf
000001a0: 3789 febe 6a3c 92be e2c2 a2be aeff 89bd
000001b0: b835 fc3c a84a f53d acbd 123d 3521 e3bc
000001c0: 5f3c 01be 89d4 01bd 15ad 833f 5da7 893f
000001d0: 9d3e 733f 2041 37bf 2cea d1be 954d f4be
000001e0: 7f28 6abe 8be2 67be 7e36 3abe 731a cf3d
000001f0: 5f6f bf3d b6af d23d e0b8 963f b5ae 3f3f
00000200: 6587 933f 8f88 a9bf a8fc 93bf 4edb af3d
00000210: 109a abbf 500c 983f 52a9 733d 5128 00bf
00000220: bdf7 5abf 2649 0bbe baae 89bf 5d81 2fbf
00000230: 81f4 11bf a48a 23be 4cca c8be d2d6 79be
00000240: 1cb5 aebe b8a2 d4be 58e2 3e3f e5a4 7bbe
00000250: b87b a6be d6bc a83e 233f 6d3e e207 2a3e
00000260: d18d 673f ca68 bdbf 0ec6 dfbe bafc 923c
00000270: 8886 cfbd 544e 0b3f 4024 c63d 86e1 04c0
00000280: 1b59 203d 96af 33be 4426 823f 1c19 c4bd
00000290: 3567 4cbe e3f3 c03e aa7b 963e 8920 c83e
000002a0: 4f8c e4be 2190 1e3d 8ab6 03bf e9c0 71be
000002b0: b9df ddbd f92a 193b c761 aebe 7d95 eebe
000002c0: 1a91 a6be 5803 9ebe df0b 6dbe 3180 80bc
000002d0: fb70 9d3c 3efd c4be ec53 4e3f 7864 efbe
000002e0: dcff 173f 7ed1 6cbf 4e9b e1be 6fda 2ebf
000002f0: 7c33 df3e 8aff 19bf 53c5 a5bf 5782 7bbe
0.19095564 0.46250984 -0.98851293 0.2478788 -1.6312546 0.05646906 -0.2467094 0.17375773
0.071271 0.71443844 0.3607206 0.44066566 -0.49526945 0.020406827 0.718128 0.38045847
-0.2032429 0.3528639 -0.35139993 0.44504946 0.40770814 -0.79670244 0.20633553 0.08039266
0.30291742 0.60971975 0.46912208 -0.09859291 -0.31060073 -1.3272802 -0.36568573 -0.0131175285
0.17881295 0.24043792 0.27345556 0.7949196 -0.7954004 0.55442077 0.34000278 -0.091215275
0.628407 -0.7917777 0.7995023 0.9185704 0.10086739 -0.14628698 0.9527232 0.2902051
0.341912 -0.12146183 0.093838945 -0.27489805 -0.14487317 0.27447087 -0.6283455 -0.53835416
-0.3811345 0.99914163 -0.5338524 -0.021280542 -0.2685489 -0.73836285 0.04897494 0.2432409
-0.0074282275 0.13398385 0.023921372 -0.96672016 -0.6917671 0.33627504 -0.37138036 0.288494
0.11558594 -0.24201165 -0.5737745 0.7077374 -0.67520285 -1.0090244 -0.4856994 -0.15677656
0.059152864 -0.10041343 -0.1667142 -0.13535558 0.38846427 0.657734 -0.72833073 0.14053558
0.18827337 -0.95422184 0.2933051 0.70354563 -0.6526655 -0.36445 -0.04714768 -0.50377727
0.12871605 0.3873552 -0.68771785 -0.7383301 0.20697956 0.42136624 -0.20775715 -0.52164185
-0.49714062 -0.28561717 -0.3178931 -0.0673822 0.030787334 0.1197713 0.035825416 -0.027725795
-0.12620686 -0.03169683 1.0287195 1.07542 0.95017415 -0.7158375 -0.4099897 -0.4771544
-0.2286701 -0.22645013 -0.1818485 0.10112467 0.09347414 0.102874205 1.1775169 0.74875957
1.1525694 -1.3244799 -1.156148 0.08586751 -1.3406391 1.1878757 0.05948765 -0.5006152
-0.8553427 -0.13602123 -1.0756447 -0.6855677 -0.5701371 -0.15970856 -0.3921684 -0.24398354
-0.3412255 -0.41530395 0.74564123 -0.24574621 -0.32516265 0.3295657 0.23168616 0.1660457
0.9045077 -1.4797604 -0.4370579 0.017942775 -0.10133082 0.54416394 0.09674883 -2.0762649
0.039147478 -0.1754745 1.0167928 -0.09575102 -0.19961245 0.3768607 0.29391223 0.39087322
-0.44638297 0.03871167 -0.5145041 -0.23608746 -0.10833687 0.002337156 -0.34058973 -0.46598426
-0.3253258 -0.30861926 -0.2314906 -0.015686126 0.019218912 -0.38474458 0.80596805 -0.4675634
0.59374785 -0.9250716 -0.440638 -0.68302053 0.43593967 -0.60155547 -1.2950844 -0.2456144

fc1.bias f4 [16]
00000000: e507 5dbf 4a57 7f3f 479e 47bf 2297 45bf
00000010: af27 863e 35ed cb3d b1e9 563f 6c33 6e3f
00000020: cfda 7a3f 06d3 433f e066 0b3f 5b2f 5c3f
00000030: 3a82 263f 1758 86bf 4cd7 493f 3083 dd3e
-0.8634017 0.9974257 -0.7797589 -0.77183735 0.2620215 0.09957353 0.83950335 0.93047214
0.97990125 0.7649387 0.5445385 0.8600976 0.6504246 -1.0495633 0.7884414 0.4326415

fc2.weight f4 [16, 16]
00000000: 89f6 c2bf e435 3bbf 1592 b3bf 843f d3be
00000010: 5f9a 9b3f 067a 313f 13a8 a8be a4ed ca3e
00000020: f166 c63e 3295 1240 e609 b73f b29e f6be
00000030: 8ee5 af3d 3f66 b2bd 8f6c 87bd c60d 533f
00000040: f2ee 44bf 767d 9bbe 9438 6bbf fc72 d5be
00000050: feb1 f73f 2a0d 473f 29c7 22be c61e 88be
00000060: 6783 693f f809 413f a3bd a5bf 2091 103f
00000070: 659f 5b3e 5012 31bd ad29 333f aaf1 9c3e
00000080: cd89 a9be fabc ffbd eb4d 80bf 0a26 4cbf
00000090: e157 873f 712c e3be 10a9 ffbd c816 9f3f
000000a0: a683 543f 4bf0 4940 ab49 cc3f d3c8 50be
000000b0: 18e8 1e3f 0151 a63e 257f 3ebc c7d4 5cbf
000000c0: 46ac 9fbf a677 b53e 7870 89bf a245 bebe
000000d0: 9985 ed3f 3171 5e3f ef72 023f 996a 0a3f
000000e0: ee5e 4b3f a592 423f be75 bfbf 2583 2c3f
000000f0: ebec 3ebe 8bb4 d1bf 60a7 f93e 68e4 b3bd
00000100: 069d ad3f ce22 b4be e3fc 27bf 1a92 8dbf
00000110: 480a 96bd dd48 44be 6bf9 1fbe 3f51 a7be
00000120: ce00 a13e 8255 1940 2c3d 0e40 1464 783d
00000130: dc3e 603f b3cf cf3f 09a4 8e3e 2068 3c3f
00000140: 2ef1 b2be dc36 8abe 29e6 ffbe 3ad7 853f
00000150: 0cbb 81bf e5b0 febd 3ee1 85bf 338e 30bd
00000160: 6166 953e 6a87 f7bf 8b90 833e bc67 e13e
00000170: 68ee b23f 4f8f 453e 8ee4 473d 4d67 d7bb
00000180: dfa7 aabf 31bc 113f 2380 86bf d319 f8be
00000190: 1c55 893e 6eeb 173f 2835 2b3e 4774 743e
000001a0: b276 2d3e 97a4 963f 01c7 e43e 0d6a fb3d
000001b0: a0d5 4a3f 30b3 83bf f466 733e 5aaf 6c3f
000001c0: df2a 0e40 6fb3 4dbf 67e0 a93f 5e97 e83e
000001d0: e27e 66be b935 0dbf d726 44bf 6a0c cebf
000001e0: 8a6f 3b3e f2b8 92bf 08ba 9fbd b24a af3e
000001f0: c5a0 613e bfe4 fa3f 8ab4 98be 1916 cdbe
00000200: e073 073f 3214 df3f 2a58 e3bf 56ca 12bf
00000210: 9a72 c5bf d3b2 b6bf 0295 0b3f 88fe 8dbe
00000220: 9064 083e 7e7c 7ebe b2b0 4040 8f34 a3bd
00000230: 5a6b 1240 97c5 42bf f2ae b53e 349e 1cbf
00000240: 7e99 2bbf 641d 56bf c4e6 9c3d c70f 1fbe
00000250: 1e75 8c3f e301 6e3e d6d8 01bd d63e 18bf
00000260: 90ef eabb ce4e 43c0 a1a5 83bf fbb5 cebe
00000270: 3bd6 abbe 1ffb ee3e 797a 113e 5e3d 0d3f
00000280: c3c3 fcbe cef7 a93f abd7 b7be 9ecd 03bc
00000290: 2b0b 87be 36a2 bbbe 0479 293f b554 433f
000002a0: 89f9 773e a680 8c3f dd92 d2be ad75 fe3e
000002b0: 3c9f b63e 9889 abbf 56eb ae3e 60ca cebe
000002c0: a14e 8f3f 3a4b 7abf 6670 783f 4d8a db3e
000002d0: 58de 8cbe f937 87be 5e4e 5bbe 5ce7 3cbf
000002e0: 4c42 86be 669b afbf 6324 58bf 4371 09bd
000002f0: 2b72 f7be 6596 283f e6af f1bd 0b30 98be
00000300: e82d 07be fe98 473f 6beb 32bf 8f90 13bf
00000310: 215e b33e 96f6 1a3f bca8 0e3f 8385 053f
00000320: bbbb a23e a89c 753f 6d70 20bf bfab 1a3f
00000330: f495 b93d c3fa 4abf 133b 063f 3932 76bd
00000340: e431 82bf bda3 813e 357b ffbe 290f 4abf
00000350: ccc3 03be 470c 813d 4f39 b73e 8a59 1b3f
00000360: 74b8 103f e092 9cc0 9892 02c0 8b70 c33e
00000370: 8c1a 90bd 8a33 dfbe c89e f83e 228b c23e
00000380: db4b febf 41d1 463f 7d39 a0bf 68c8 48bd
00000390: e1b4 283f c141 d53e b16b 5d3e 82f1 6dbd
000003a0: 9250 153e c842 b53e 32b9 b63c c559 903e
000003b0: 6a65 403f 406e 98bf 2e03 8d3e 4092 883f
000003c0: a08d 97bf 0f40 143f c23f 5abf fde9 06bf
000003d0: 4313 f5be 2173 4abe 169f c33e 8a89 b83f
000003e0: c1c4 b2be 30dd 2440 31e6 f83f c07b 14bf
000003f0: 2716 893e e2cf acbf 8192 0f3e f925 213f
-1.5231487 -0.73129106 -1.4028956 -0.41259396 1.2156485 0.6932682 -0.3294073 0.3963443
0.38750413 2.2903562 1.4299896 -0.4816795 0.08588706 -0.08710908 -0.06612503 0.8244289
-0.769271 -0.30369157 -0.91883206 -0.4168929 1.9351194 0.7775446 -0.15896286 -0.26585978
0.9121613 0.75405836 -1.2948498 0.56471443 0.21447523 -0.043230355 0.6998547 0.30653125
-0.33112946 -0.12487216 -1.0023779 -0.79745543 1.0573694 -0.44369844 -0.12483418 1.2428827
0.8301338 3.1552913 1.5959982 -0.20389108 0.62072897 0.32483676 -0.011626993 -0.8626217
-1.2474449 0.35442847 -1.0737448 -0.371625 1.8556396 0.86891466 0.50956625 0.54068905
0.79441726 0.7600501 -1.4957807 0.6738761 -0.18645065 -1.6383222 0.4876051 -0.087837994
1.3563545 -0.35182804 -0.6562025 -1.1060212 -0.0732618 -0.1916842 -0.15622489 -0.32679173
0.31445926 2.395844 2.2224836 0.060642317 0.87595916 1.623526 0.27859524 0.7359638
-0.3494963 -0.2699498 -0.49980286 1.0456307 -1.0135207 -0.12436084 -1.0459363 -0.04310436
0.2917967 -1.93382 0.25696215 0.44024456 1.3979006 0.19292949 0.04880195 -0.0065735937
-1.333248 0.5692778 -1.0507854 -0.48457202 0.26822746 0.5934361 0.16719496 0.23872481
0.1693981 1.1768979 0.44683078 0.12276087 0.79232216 -1.0289059 0.23769742 0.92455065
2.2213666 -0.8035192 1.3271607 0.45427984 -0.2250934 -0.551601 -0.76621765 -1.6097538
0.18304268 -1.1462691 -0.077991545 0.34236676 0.22033985 1.9601058 -0.2982524 -0.40055922
0.52911186 1.7428038 -1.776128 -0.5733999 -1.5425599 -1.4273323 0.5452424 -0.27733254
0.13319612 -0.24852178 3.0107846 -0.07969009 2.2878022 -0.7608275 0.35485035 -0.611789
-0.67031085 -0.83638597 0.076612025 -0.15533362 1.0973241 0.23242907 -0.03170093 -0.5947088
-0.0071696714 -3.0516849 -1.0284921 -0.40373215 -0.33561882 0.46675965 0.14206876 0.55171764
-0.49368104 1.3278749 -0.3590673 -0.008044628 -0.26375708 -0.36647195 0.6620028 0.7630113
0.24216284 1.097676 -0.41127673 0.49699154 0.3566836 -1.3401365 0.34163922 -0.40388775
1.1195871 -0.97771037 0.97046506 0.42878953 -0.27513385 -0.2640989 -0.21416613 -0.73790526
-0.26222456 -1.3719299 -0.8443052 -0.03355528 -0.4832929 0.65854484 -0.11801128 -0.29724154
-0.13201106 0.7796782 -0.6989047 -0.57642454 0.35032752 0.6053251 0.5572622 0.5215685
0.31783852 0.95942163 -0.6267155 0.60418314 0.090618044 -0.7928888 0.5243389 -0.06010649
-1.0171475 0.25320235 -0.49898687 -0.7892938 -0.1286766 0.0630117 0.3578591 0.606835
0.56531453 -4.892929 -2.0401974 0.381718 -0.070363134 -0.4359401 0.4855864 0.37996775
-1.9866899 0.77663046 -1.2517544 -0.049019247 0.65901 0.4165173 0.21623112 -0.058091648
0.14581516 0.35402513 0.022305105 0.2819349 0.75154746 -1.1908646 0.27541488 1.0669632
-1.1840096 0.57910246 -0.85253537 -0.5270079 -0.47866258 -0.1977048 0.3820731 1.4416974
-0.34915736 2.5760002 1.9445249 -0.5800133 0.26774713 -1.3500941 0.1402073 0.62948567

fc2.bias f4 [16]
00000000: 9e45 af3e 5cb7 183f 9b25 273f 8d14 6b3f
00000010: 45d9 71be 6cac bdbe 8331 253f d511 7fbf
00000020: 3ba7 b13e 798e e0be edf1 343f 6ba7 01bf
00000030: aeef a83e b3bf 0d3e f189 423f dc1c f93d
0.342328 0.59654784 0.65291756 0.91828233 -0.23618038 -0.3704561 0.64528674 -0.99636585
0.346979 -0.43858698 0.7068165 -0.50646085 0.3299536 0.13842659 0.7599173 0.121637076

fc3.weight f4 [16, 16]
00000000: 0079 a03f d66a 5e3f 93c5 c2bc 2c00 533f
00000010: 7eef 043f e367 d1bf 9c81 bf3e 6552 52bf
00000020: 977f 0ac0 92d0 3f3d 7d59 44be 456d 62be
00000030: 8068 233f 5078 89bf 90a7 aa3e 6707 153f
00000040: be99 f53d d08f 1cbf fafa 95bf a1f1 76bf
00000050: 9bf8 bb3e 54e2 0540 550b 74be a5f9 32bd
00000060: 99d5 ddbe 698b 6b3f 895c 40bf f001 323e
00000070: 3012 2bbf fee8 973f eb51 e0be 4641 d13e
00000080: 7f33 b6be 404d da3e 132a 2bbf d47a f23e
00000090: 253b 4abc 6093 febf 51fd 473f 69d5 d2be
000000a0: b848 1f3f 1d35 9bbf 718b 403f df48 fbbe
000000b0: 950d 2c3f d934 203d f56f 6f3f 0c98 c23e
000000c0: c03f 233f 128c 16bf f5c5 c53f eab6 a9bf
000000d0: eebe 0940 6c59 95bf 4c2b 3f3e 8108 1e3f
000000e0: 3c93 c33f 1a77 11c0 7a03 0a3d a8ad c8be
000000f0: d634 0bbe b6e1 44c0 749f a8be f87b ac3f
00000100: 665b a6bf dc83 3dbf b3d6 e4be 1724 1abf
00000110: c1e5 13be d9ee 0540 b98e 29bf 03ff 2a3f
00000120: 1654 c73f 4040 853e 19de dcbd 4c94 ba3e
00000130: f6f8 a1bd 02b7 c93f 06f6 08bf 1c1e ecbe
00000140: 51a8 8cbe e1a4 043f 7e0f e73f 9d22 373f
00000150: f0bf f4bd e846 22bf d783 b53d 9f74 f9be
00000160: 0287 933f 0719 05c0 68ba 4e3f 9136 08bf
00000170: cbb2 273f 00b1 3fbf 4c02 ef3d 324c 263e
00000180: 3df8 62bf 9fb3 b13c 755f b33f 9366 19be
00000190: 8452 f2be 503f 663f d736 7ebf 3b3e 803f
000001a0: dc4c 723f 1425 0dbf 8404 dfbd f08c 4e3f
000001b0: 8bcf 32be 6af4 4dbe 6ae5 95bf e703 bdbf
000001c0: 4321 13bf 83b7 45bf 352a 29bf b231 5dbf
000001d0: fb57 bbbe 759c d83f 072f 1dbe 48e5 dfbb
000001e0: 739d db3c 704d d93e 87ec 7cbe 61fb ed3e
000001f0: 2168 36bf 1309 143f 26de 8ebe 555a 983e
00000200: b346 83bd 82f2 0bbe 6070 aebd 9562 5dbf
00000210: 7acd 4e3e 5558 4640 4b60 a33c e483 733f
00000220: 703b ee3f 8a7a 0ebf 7f48 64bf 0cb0 c23d
00000230: 7db0 adbe 82fb 883e 4189 c3be fc08 36bf
00000240: 73ed 1a3f 7075 9e3f 7e79 42bf c86e 473f
00000250: b268 4b3f 097b 44bf fca3 153f 4059 063f
00000260: b7f4 26bf 8f48 8f3e 7968 2ebe 9c5c 01be
00000270: d7e5 b83e c97b 003f 84a8 723f ef5a 69bf
00000280: 4ba6 043f 66d4 e6be fa3d 80be 873e 69be
00000290: 06b6 e03e b8e4 1e3f dc68 5c3f 7883 b8bf
000002a0: c123 543f 19d1 eebf 719d 113f 17e3 78bf
000002b0: 4701 923e b4ac 0a3f bc63 7e3f 9436 f03f
000002c0: 2693 fabd d838 883d 36b7 933f 9f3c 7c3f
000002d0: b1b7 f7be bf11 d53e d90c e4bc 25ae 6bbf
000002e0: 74a2 92bf 8b8c 01bf 5dad 873f deaa ddbe
000002f0: e43f 333f 2687 21bf 0fc9 e6bd f431 723f
00000300: 2597 033e f71d 873f 1602 a53c 2fbc 133f
00000310: 304a e73e 5580 d43f a553 633e ce03 d33e
00000320: 051d e1bd 026e c0be 325a f13e 3369 cebe
00000330: e47c d73e c7da 8dbd a5ee fa3e 20b4 0abf
00000340: 2805 dcbf 257b c6be 1a45 92bf 2def 003e
00000350: e26e 7ebf c2ea 8dbf 1d79 b0be d3a4 553d
00000360: 14d4 23bf ee5a 0140 c495 bf3e d1b2 aa3e
00000370: e66f a13e 46f1 0e40 3194 f4be 1226 8abf
00000380: 7938 e63f a7b6 133f be9d d53f c0b6 e13e
00000390: f429 df3e 4c15 f1bd 739e f33e 3f2c 9cbe
000003a0: 4b8b e3be f259 bfbf a06f 80be 55e8 d8be
000003b0: 76ce 0cbe e6a3 0ec0 0ca8 bc3e 19ff 083f
000003c0: 179f d6be 7a47 5b3f a582 d1be 4c6c 913f
000003d0: 9c46 d9bd aaee 00c0 1fde 963e 5550 4b3c
000003e0: dacf 43bf e3d1 77be 4d93 383f bbd2 08be
000003f0: a66f 723f 2493 1cbe 5296 de3e c820 38bf
1.2536926 0.8688177 -0.023775851 0.8242214 0.51927936 -1.6359829 0.37403572 -0.82156974
-2.1640375 0.046829768 -0.19174762 -0.22111996 0.6383133 -1.0739841 0.33330965 0.5821442
0.119922146 -0.6115694 -1.1717217 -0.96462446 0.36713108 2.091939 -0.23832448 -0.04369511
-0.43327025 0.920096 -0.751412 0.17383552 -0.66824627 1.1867979 -0.43812498 0.40870112
-0.35586163 0.42637062 -0.66861075 0.47359335 -0.012343203 -1.9888725 0.78120905 -0.41178444
0.62220335 -1.2125584 0.7521277 -0.49079034 0.67208225 0.0391129 0.9353021 0.38006628
0.6376915 -0.5880748 1.5451037 -1.3258946 2.1522784 -1.1667914 0.1866886 0.61731726
1.5279307 -2.2728944 0.03369472 -0.3919499 -0.13594374 -3.0762763 -0.32934153 1.3475332
-1.2996643 -0.74029326 -0.44695053 -0.6021132 -0.14443113 2.092703 -0.662334 0.66795367
1.5572536 0.2602558 -0.10784549 0.36441267 -0.07908814 1.5758975 -0.535004 -0.46116722
-0.27472165 0.51814085 1.8051603 0.7153719 -0.11950672 -0.63389444 0.08863037 -0.48721787
1.1525576 -2.0796525 0.80753183 -0.5320826 0.6550719 -0.74879456 0.1167036 0.16240004
-0.8866003 0.021692095 1.4013506 -0.14980535 -0.4732858 0.8994036 -0.9930243 1.0018991
0.9464853 -0.551347 -0.10889533 0.80683804 -0.17461984 -0.20112768 -1.1710637 -1.4766816
-0.5747263 -0.7723314 -0.6608003 -0.86403954 -0.3659056 1.6922747 -0.15349971 -0.0068327524
0.026808476 0.42441893 -0.24699603 0.4648085 -0.7125264 0.57826346 -0.2790386 0.29756418
-0.06409969 -0.13666728 -0.085175276 -0.8647855 0.2019557 3.0991414 0.019943377 0.95123124
1.8611889 -0.5565573 -0.8917312 0.095062345 -0.33923712 0.26754385 -0.38190654 -0.7110746
0.6051857 1.2379589 -0.7596663 0.77903414 0.7945663 -0.76750237 0.58453345 0.52479935
-0.65217155 0.27985045 -0.1703204 -0.12632984 0.36112854 0.5018888 0.94788384 -0.9115438
0.5181624 -0.45083922 -0.25047284 -0.22777759 0.43888873 0.6206775 0.860975 -1.4415121
0.82867056 -1.8657562 0.5688086 -0.9722151 0.285166 0.54169774 0.9937093 1.8766656
-0.122350976 0.06651467 1.1540287 0.9853 -0.48382333 0.41615102 -0.027838157 -0.920626
-1.1455827 -0.50605077 1.0599781 -0.43294424 0.70019364 -0.63096845 -0.11268818 0.9460747
0.12850626 1.055602 0.020142596 0.5770902 0.45173788 1.6601664 0.22199877 0.4121384
-0.10991863 -0.3758393 0.47139126 -0.40314636 0.4208747 -0.06926494 0.49010196 -0.541811
-1.7189074 -0.38765827 -1.1427338 0.12591238 -0.99387944 -1.1087267 -0.34467402 0.05215914
-0.6399548 2.021175 0.3741895 0.3333955 0.31530684 2.2334762 -0.4776931 -1.0792868
1.7985984 0.5770058 1.6688764 0.4408474 0.43586695 -0.1177164 0.47581825 -0.30502507
-0.4444221 -1.4949324 -0.25085163 -0.42364755 -0.13750634 -2.2287536 0.3684696 0.5351425
-0.4191825 0.8565594 -0.40919986 1.1361175 -0.10609171 -2.014567 0.2946634 0.012409289
-0.7648903 -0.24201159 0.72099763 -0.13361637 0.9470161 -0.15290505 0.4347406 -0.7192502

fc3.bias f4 [16]
00000000: e012 ac3d 8033 55bf c744 a83f 5621 00c0
00000010: 0151 a9bf afc9 9b3f c6d5 2ebf a7ae 5abf
00000020: fdaf 22bf a0a8 97be ee9e 813f 8137 583e
00000030: 467c c5bd dc1b 8bbf 3d52 153f e4a8 63bb
0.084020376 -0.8328171 1.3145989 -2.0020347 -1.3227845 1.2170924 -0.6829494 -0.8542275
-0.63549787 -0.29620838 1.0126626 0.21114923 -0.09642844 -1.0867877 0.5832861 -0.0034738118

fc4.weight f4 [13, 16]
00000000: 9a79 2c3e 7e89 f5be 96bb ea3e 93e5 b6be
00000010: 0f6f f5be dd0a 853e 81d8 e53b cd98 f4be
00000020: f096 d6be e4d3 e83d 4ac6 89be d1da 3abf
00000030: 437b d1be 1536 1bbe f1dc b13d 0045 753e
00000040: 8a3c 113f 8c3b 20bf b484 7dbe 3980 393f
00000050: 209c dbbe a426 103f 9b82 0c3f 20fc 1ebf
00000060: 16cd 5ebe 065d 813e cf93 0bbf 512b 843f
00000070: 352a c63e 6de3 3a3e e55e aa3e 6ee7 5c3f
00000080: 39e4 223f 0868 3f3e 1471 093f f134 293f
00000090: 14fe b6be b792 89be 1632 9cbf c312 413d
000000a0: 6fc8 abbf b912 183e a9c4 353f 9606 1e3f
000000b0: f5ce b63d c795 6b3e 4c10 5cbe 951c 8e3e
000000c0: b48e 2c3f 0b9d c1bc 2423 a93e 26fa 873f
000000d0: e0e9 3cbf 2e7d ccbe 2399 86bf e958 1ebd
000000e0: b906 c7be 3b65 753f 9fe6 773e 50e5 debe
000000f0: be12 c03d 9096 1abe c494 423e 76a2 f73e
00000100: 5019 073f 69c2 f9be 0e73 c33e 09dc 00bf
00000110: 6f7d 16bf 9a61 bf3e ca7d 21bf 908d f3be
00000120: fa63 0e3f d40b 3a3e 469f 503f c80a 1e3e
00000130: 8e0d b83d a723 40bf 3fda 523f dfb2 a93e
00000140: 821c e0bd 670e 45bf 6de0 dc3e ff2a 8d3f
00000150: ea19 ca3c 4b7b f13e 3856 e33e 9e4a e6be
00000160: e2d5 d33d 871a 0d3f 9662 3dbe b715 9a3e
00000170: ef1c 933e 995d fe3e e43f 8cbd 6034 653f
00000180: 5b99 563e 8fb9 2fbf ff36 243f f6c5 12bf
00000190: eac0 babe 6cbd 3f3f 6ff7 4bbe 80e9 0fbf
000001a0: 23e6 df3e ac3e 753d dac0 9a3e 1506 0e3f
000001b0: 4971 843e 500b 21bf 6365 573f 4dc8 6d3e
000001c0: 193a 9a3c f3e7 b8bd 7510 e73e ec2d ae3f
000001d0: 9a3f 703e e440 a73d ceb1 a1be 5392 89be
000001e0: 5d11 12be c174 0b3f b075 bf3e 5642 ccbd
000001f0: edd4 173f 2ac1 163f 7b5c 22bf 334c 4b3f
00000200: 2532 d63e 38f7 d8bd 1b99 613e 9593 4cbe
00000210: 4873 21be 69ed 0f3f ec95 10bf c13d fabe
00000220: 4438 9dbd 7881 933d 3e88 813f 03a6 a93e
00000230: ecdc 023f 9b47 4ebe 50ec 023e 2e7a 643e
00000240: cb8f 5bbc fe82 4fbf d387 ea3e 1901 91be
00000250: 86b6 e8be e4ba 263f 5831 d3be 6a2f b5be
00000260: 214a cabe 42f1 13bd 5029 263f ed91 1b3f
00000270: 82cf eb3e 8f21 25bf 4780 c53e c2f1 ba3e
00000280: 73fc 143f 6fe5 abbd 044f 553d 4a24 9a3f
00000290: b49d 12be 0efd da3d ff81 40be 5363 17bf
000002a0: e898 1abe 5e85 703f d7e8 8ebe d6ed d1bc
000002b0: e309 313f 98fc 3abd 2f04 a23e 6b9e 793e
000002c0: 5030 c33e c0b2 fabe e78e 4f3e 302b 13bf
000002d0: de19 25bf 48fd 1a3f 8340 ad3d de85 66be
000002e0: 1550 733e 73d6 203e e15d fa3e 8877 d23e
000002f0: 0a9b b63e 9ff6 a3bf 5341 913f d48f 8c3e
00000300: af55 1b3f b5ad a2be ebb4 c43e a37f e7be
00000310: f399 48bf 7388 7e3e cbe8 19bf f5f0 f3be
00000320: d995 5bbe 3513 723e 0758 e33e 05ca 853e
00000330: 0d82 903e a427 7ebf 6db7 8d3f b0a6 423e
0.16843262 -0.4795646 0.45846242 -0.35722026 -0.47936293 0.2598485 0.0070143347 -0.47772828
-0.4191203 0.1136854 -0.26909095 -0.7299014 -0.40914354 -0.1515735 0.08684719 0.23952103
0.56733 -0.6259086 -0.24757653 0.7246128 -0.4289255 0.5630896 0.5488679 -0.6210346
-0.21757922 0.25266284 -0.54522413 1.0325719 0.38704076 0.18250819 0.33275524 0.86290634
0.6362949 0.18692029 0.5368817 0.6609641 -0.3574072 -0.26869747 -1.2202785 0.047137033
-1.3420542 0.14850892 0.71003205 0.617288 0.08926193 0.23006354 -0.21490592 0.2775618
0.6740525 -0.023634454 0.33034623 1.0623214 -0.73794365 -0.39939255 -1.0515484 -0.03865901
-0.38872316 0.9585759 0.24209069 -0.43534327 0.09378575 -0.15096498 0.19002062 0.48366135
0.52773 -0.48781136 0.38173717 -0.50335747 -0.58785146 0.37379152 -0.63082564 -0.4756894
0.556213 0.18168575 0.8149303 0.154338 0.0898696 -0.750544 0.8236427 0.3314428
-0.109429374 -0.769751 0.43139973 1.1028746 0.02467056 0.47164378 0.44401717 -0.44978803
0.10343529 0.551186 -0.18494639 0.30094692 0.28733012 0.49680784 -0.06848124 0.8953304
0.20956938 -0.68642515 0.6414642 -0.57333314 -0.36475307 0.7489841 -0.19918607 -0.5621567
0.43730268 0.05987422 0.3022526 0.5547803 0.2586768 -0.62907887 0.8413908 0.2322094
0.018826531 -0.09028616 0.45129743 1.3607764 0.23461762 0.08166674 -0.31580967 -0.2686945
-0.14264436 0.5447503 0.37394476 -0.0997359 0.59309274 0.58888495 -0.63422364 0.79413146
0.41835132 -0.10594028 0.22031061 -0.19978173 -0.15766633 0.56221634 -0.5647876 -0.4887524
-0.076767474 0.072024286 1.0119703 0.3313447 0.5111835 -0.20144503 0.12785459 0.22312233
-0.013400982 -0.81059253 0.4580675 -0.2832115 -0.45451754 0.6512892 -0.41248584 -0.35387737
-0.3950968 -0.036118753 0.6490679 0.6076954 0.46056753 -0.6450433 0.3857443 0.36512572
0.58197707 -0.0839337 0.05207731 1.2042325 -0.14317971 0.106927976 -0.1879959 -0.5913593
-0.15097392 0.939535 -0.27912018 -0.025626104 0.6915571 -0.04565105 0.31643817 0.24376838
0.38122797 -0.489645 0.20269357 -0.57487774 -0.64492595 0.60542727 0.0845957 -0.22512004
0.23761018 0.15706806 0.4889975 0.4110682 0.3566516 -1.2809638 1.134806 0.27453482
0.6067762 -0.31773153 0.3841928 -0.45214567 -0.7835991 0.24856739 -0.6012084 -0.47644773
-0.21443881 0.2364014 0.44403097 0.2613069 0.2822422 -0.99279237 1.1071602 0.19008899

fc4.bias f4 [13]
00000000: d9be 4e3e 8f99 62bf d87f 44bf 5e8d 1cbf
00000010: 3e3c 543f df85 31bf f741 923f e71b 63bf
00000020: 2ac1 ad3f 50f8 a93f eb92 4bbf ee32 c03f
00000030: dbbf 9a3f
0.2018999 -0.8851556 -0.76757574 -0.6115321 0.8290442 -0.69344896 1.1426381 -0.8871445
1.3574574 1.3278904 -0.79521054 1.5015543 1.20898
